autoencoders/weights/Neural-Network-2/fcn-2-B_fcn-2.weights.npy (npy, 480 bytes, 1 tensors)

array f8 [50]
000000 38 0f 66 18 1b 6a a0 3f b2 0e d1 fc 40 58 d4 3f
       0.032059523323395955 0.3178865879928977
000010 5d 78 3d d3 c3 40 d4 bf b7 6e 11 50 82 3c b4 bf
       -0.3164529383556152 -0.07904829458987704
000020 ba 85 85 d3 0a 52 b5 bf 02 17 e4 f2 15 1c d2 bf
       -0.08328311599827645 -0.2829642173750103
000030 36 ef 0c 73 60 05 bc bf 96 46 c8 f3 de eb cf bf
       -0.10945704277849874 -0.2493857088416475
000040 b8 04 ed 6e b6 d1 c9 3f 3e 7a a5 ce 27 46 9b 3f
       0.20171242157269886 0.026634809482283688
000050 c7 49 b8 3d 01 97 b0 3f c2 3f 6d d4 14 39 b2 3f
       0.06480415112336067 0.0711834925289159
000060 12 f9 89 45 56 2d bf 3f 20 4c a8 4a 35 4f b9 3f
       0.12178553769806325 0.09886487076464379
000070 55 82 55 cf 9c 81 8a 3f fe 55 80 de aa 6f 89 3f
       0.012942528798420097 0.01242002002258413
000080 7a d6 33 74 cb bb af bf a5 e0 d7 c1 d8 f0 b3 3f
       -0.061979635176538886 0.07789377911092517
000090 7d c9 c4 c5 88 29 d3 bf f4 9a 78 c9 54 46 b1 3f
       -0.2994100505194622 0.06747941893318538
0000a0 28 a3 05 13 cc a6 86 bf 98 4a bb 25 55 40 c0 bf
       -0.011060327845102316 -0.12696327535976049
0000b0 21 1b aa 69 e4 ef cd 3f ad 82 9c f2 71 6a ab bf
       0.2338834300937487 -0.053546486726422905
0000c0 2f b0 03 70 56 14 b2 bf d6 16 62 ae 06 f0 a9 bf
       -0.07062282786108719 -0.05065937880230613
0000d0 5e e9 72 0b b9 68 c9 bf 66 8e 1d ad 4e fa b8 3f
       -0.19850838717486402 0.09756938673450008
0000e0 0e e4 94 75 75 fb b5 3f 95 0a d5 b4 38 e4 cd 3f
       0.08586820717472696 0.2335272677392665
0000f0 dd 11 d5 38 7b 86 bd 3f b8 a3 fa 26 50 75 dc 3f
       0.11533327233798425 0.44466022306965725
000100 6b c4 80 85 ef d5 b1 3f cb fa 94 f8 6c 9f 9c 3f
       0.06967064866400256 0.02795191066001727
000110 a1 69 a5 79 94 a0 87 3f f9 6d 53 84 d3 71 c1 3f
       0.011536750757547067 0.13628620110726766
000120 5f d5 c8 9d 28 c7 d2 bf 4b 2f d1 50 cf 90 ae bf
       -0.2934056797851862 -0.059698561301586205
000130 04 bc 22 71 7a f9 9c 3f 09 22 25 d6 df cb cb bf
       0.028295434146169654 -0.21715925175000475
000140 84 d1 d3 1e 6e 41 bc bf e3 e9 23 4e 59 2c c0 bf
       -0.11037338497755483 -0.12635341945117692
000150 31 c6 c8 e2 cf de 75 bf f8 0d b6 01 82 ec c6 bf
       -0.005339443258479502 -0.17909264644195821
000160 5d 14 27 39 2a a2 c5 bf ed fc 31 a4 01 05 bf 3f
       -0.16901138106018979 0.12117014177964665
000170 5d 52 11 f6 f4 1a b4 bf 59 55 e9 ba be a3 97 bf
       -0.07853632934104256 -0.023085575254602506
000180 79 90 23 4b 51 28 cc bf fa 79 c9 42 83 b5 d6 3f
       -0.21998039406674133 0.35482865831536936
