dogs/pair-weights/fcn-1-W_fcn-1.weights.npy (npy, 7280 bytes, 1 tensors)

array f8 [45, 20]
00000000: f578 d748 4169 9dbf 9f6b 9cdd 5f6c acbf
00000010: 784f 388b d5a1 b3bf e96c 61c1 7301 9c3f
00000020: 4903 10c6 7e3f dbbf 9f6c 7b63 ce62 d23f
00000030: 3994 55f5 7799 b1bf 1a30 62fd 4a03 a33f
00000040: dbb9 cc11 a42b b5bf 8834 b600 0ab7 84bf
00000050: 5868 c8fb 48f1 bcbf 49cf f49f a5e2 a93f
00000060: 0ce0 210b 218a b4bf 402d c6c9 1822 a7bf
00000070: 497d 1457 cc0d d9bf 20f2 9345 c18a d53f
00000080: ce78 d812 5020 7ebf 8f1f f7b7 5a73 b0bf
00000090: 6c41 88ab 534f 93bf 891e 3d4e c6c0 a6bf
000000a0: f6a2 5089 29c6 c9bf 085f e1bf b65d ce3f
000000b0: eee7 e312 1cd2 84bf 7c9f 9994 b4bd 9d3f
000000c0: 3868 4d76 9f21 d0bf f775 9b59 96a2 cc3f
000000d0: 9857 d1ef a0a5 a4bf 1193 509e 81c9 85bf
000000e0: f168 be26 e62c d53f 1e15 c67b a1ad d5bf
000000f0: f718 fb2a 18bd 9bbf 0f4f d8d1 897c a93f
00000100: fe35 4b9b df89 bc3f 3802 45dd d981 c2bf
00000110: 003f 7ea2 ae97 d5bf 09d7 0197 1dab d53f
00000120: df1f d1da ae51 ad3f 7e3c 46b8 4829 a8bf
00000130: 2fff 0b32 3a52 9d3f 20a6 171b 7d1d 8e3f
00000140: 0a60 0353 764c c83f 2aed 6564 38d1 c7bf
00000150: 5109 4f2c 0514 d33f 2931 56b4 a6ae d6bf
00000160: b491 c4ee 6571 b1bf 2c9a e6ff 7247 983f
00000170: c0a0 0aed f615 c43f 0c6c 78ff 5720 c7bf
00000180: c338 a279 34c2 b5bf 5833 7b91 ef0a b23f
00000190: f079 834c 90d7 90bf c882 7fa1 57cc ad3f
000001a0: de4a eaf0 8121 94bf d9ce 19b7 1733 82bf
000001b0: 6f49 1c9f af99 cdbf bd6b 012d 4e51 c73f
000001c0: 7854 0b6c 85b6 453f 4065 8ff9 144f b2bf
000001d0: 5b80 dd8b 20cb 98bf a7b1 3272 d882 a2bf
000001e0: c36e 9820 709d b1bf 9b17 b0c7 7ea2 b73f
000001f0: e367 e882 a6e5 c03f 906a 076f 87b2 bfbf
00000200: 09e6 8c12 af90 ce3f dc68 f169 ec75 c2bf
00000210: 1373 d3cf 6db4 973f 789c f0cc 7569 603f
00000220: d4da d34a 3d45 cc3f 26f9 57ca b244 cdbf
00000230: 8410 2605 7b3d b93f 05aa d132 721e bcbf
00000240: 9110 7604 be65 9a3f fe3e f204 9eb2 863f
00000250: c0de c1ff 82e0 c23f b351 733e 9a09 b4bf
00000260: 9b0b 92fd 1838 bcbf e2c3 dadc d024 c23f
00000270: 1cdc dc84 8c17 95bf dfe5 2e4e fb4d 883f
00000280: 2bdb 6ea0 0635 b23f 91b6 aaa8 8458 b3bf
00000290: 15cf cf95 6ebd c1bf 392e 0619 4062 ca3f
000002a0: f1d7 a8f8 092f c2bf 20e1 0508 59f2 c23f
000002b0: 4518 b200 49b5 b0bf 0787 ea03 aa64 c13f
000002c0: f881 479c 6a1c ccbf dcbd 6a99 db08 cf3f
000002d0: e30c d89a f037 abbf 0caa 5748 3043 b13f
000002e0: ba4a a30a ff8c c2bf 3880 50ea 533f c03f
000002f0: 345c 07e9 329f 8cbf 4940 a44c 0597 a93f
00000300: 5eb7 5f8a ebe2 b0bf e39c 8d8a 5db3 b53f
00000310: 6cb8 0a28 ae76 5e3f ae9a 24d5 13b3 8c3f
00000320: 35d7 5527 72ca 84bf 5744 b62a bd4a 8e3f
00000330: 25df fea0 3a17 ce3f 7035 0722 70ef d1bf
00000340: 410e c725 c32e cb3f 2c80 c209 1c98 cabf
00000350: 60a5 bfb9 3612 c93f ad13 6128 d5fa c7bf
00000360: 2b0a a604 db92 ce3f b399 d7ae 3c0f d1bf
00000370: 97d3 466b 43f2 973f 3c3c ee94 0f1d c0bf
00000380: 7fcc 9d97 e2d1 c73f 3b62 d28f 570a c4bf
00000390: 017e 1b48 5441 843f f8b9 5b48 0109 b5bf
000003a0: 3df0 441e 3f40 c33f e103 676c 9e02 cabf
000003b0: 389c b5b0 9ba1 a3bf b817 db99 48f7 873f
000003c0: 87e1 ead1 11fc b43f 963f 2b59 555f acbf
000003d0: 91b3 f66b 468a c03f 2c95 bf91 cf04 c4bf
000003e0: 1666 d145 c89f bcbf e8e4 a8e6 fbd7 bc3f
000003f0: 23d5 ab10 dda2 6dbf c8c0 ae34 a317 77bf
00000400: 72f8 a901 0e12 9abf f44b 76ba 5ea7 9f3f
00000410: 2a28 dc12 c6a8 b7bf 0b3f 3c06 b9e1 aa3f
00000420: 5815 f94d c7f4 95bf 2f05 a870 6a79 9d3f
00000430: af72 4906 cc95 d0bf 5cce 2457 3da7 cb3f
00000440: 5851 3671 89b0 b4bf dfa1 64a2 334e c13f
00000450: 22b0 f42c 78f1 a53f 4657 a2d0 9f5e a63f
00000460: c4b4 44f1 1369 c33f fc47 aeb5 846f c5bf
00000470: 12e6 31eb a769 b13f 81a4 4a08 0d02 b7bf
00000480: 3ac7 a615 0f1a d13f 3864 d6f8 1511 d0bf
00000490: 83cb 7730 3770 b03f 04a8 9979 da81 91bf
000004a0: 3cce 0492 bb77 cebf 3654 b051 fd66 ca3f
000004b0: 10c6 4370 e5cf 853f c8b0 60fb 0c81 a4bf
000004c0: 5982 e58a 1670 b7bf 3ae0 3141 2d1a be3f
000004d0: 2d9b 57a0 6e70 cf3f a083 5106 649f d0bf
000004e0: 3c88 61b1 89c2 79bf 27e4 9797 298b 833f
000004f0: e246 5e0d 3de9 90bf e6bc b40b 0108 7bbf
00000500: 24fc c49f 0a4a b23f 7095 c6eb 86cd b9bf
00000510: ed2e 8571 79c2 b5bf 3e6f 7945 0dd9 bc3f
00000520: c8db b21c 9683 c13f 5309 6ab2 f3c5 b9bf
00000530: fa56 1c7c d20c abbf 18c0 321a 58d0 9c3f
00000540: 5da0 905d d70e c8bf 9222 5387 a45a cb3f
00000550: 3ca8 9f09 8a40 82bf f07f 35c4 0cf3 aabf
00000560: 7214 8437 6f76 bcbf aa40 4583 ab13 b43f
00000570: 5969 70e9 f624 d23f 389b bae1 3dab ccbf
00000580: d949 61ce 6c8a a7bf 971d 91e8 2355 973f
00000590: 8cc9 6fc8 aa3c 9fbf f19d 3ef2 01bd a23f
000005a0: 67da 4fc1 fd22 a9bf 6f67 cde2 5339 b93f
000005b0: 5280 be6f 32e8 883f 7559 3a07 bf01 a2bf
000005c0: d2dc 3f25 72eb b03f b9a8 d8a7 cfec a8bf
000005d0: 9605 c108 b809 b3bf 5c3a 52ef 2d18 b73f
000005e0: 93d1 c029 92d1 c53f 4984 bbf0 8090 c4bf
000005f0: 8ee9 48fa b7e2 973f 951a 9c1d 45c3 a0bf
00000600: 53b7 397b e4e2 793f a6bc 2afe 06fd b13f
00000610: 42cf 159a e4fd a23f 8430 c780 56d7 96bf
00000620: 7a0e ccc3 a7f3 c8bf 4bb9 badc 4ff6 cf3f
00000630: 982c 8673 0d8e a3bf b4a2 c43c 89f0 833f
00000640: e82d a0e9 765b aabf ee93 9b1d dfe4 963f
00000650: 65d2 b342 d0ed d3bf d214 04a0 3cea d23f
00000660: c8b7 3248 9552 823f 5ba2 2488 604c abbf
00000670: 7b84 ac4e 1470 cfbf 84ce 0cfc df64 cd3f
00000680: 15ce 2826 c7b2 cfbf 674c 031a 9322 c63f
00000690: 31cd 3a64 fad0 5cbf a017 8ae2 b1e7 973f
000006a0: d81d 61d4 cc70 c9bf 6ade f71a fb7e c33f
000006b0: 58d6 b317 bf48 c23f 4cd7 2ae5 b0e6 c6bf
000006c0: 2976 7988 50b6 c7bf 9247 7915 4b54 c73f
000006d0: 6cf4 90e8 a1e4 62bf 68d1 505b 95ba a9bf
000006e0: fba8 3254 e733 c1bf b8d8 4a71 36ab b23f
000006f0: abb8 cb6f b488 d2bf dfa7 e03e e752 cc3f
00000700: 9fb3 2e7a 6450 a63f e58e 4b31 a309 a0bf
00000710: 8c56 bef4 6e00 7a3f f8ec 8644 650f a4bf
00000720: 8a73 9715 4db7 a5bf 6113 803f 890d a03f
00000730: 5fc5 ecdf ac42 913f 0109 98d7 b0b2 b7bf
00000740: 34ac d5b4 e181 ba3f 8b95 e590 6d00 c3bf
00000750: 2902 35f2 535b cf3f ccd4 a405 ef01 d4bf
00000760: cf75 6343 b9f4 d33f 668b db90 46f1 d9bf
00000770: 7206 532c 8b30 b8bf 4d5c a0c5 27c3 90bf
00000780: f94b c679 ab2d d0bf 02f9 bde8 cf61 ce3f
00000790: 4a58 e43a ce45 d5bf 8f87 833a 83a4 d63f
000007a0: e4e8 7c6b a177 76bf a2c7 6768 5cbf a3bf
000007b0: 734d 7d68 7d45 a5bf f51c ad7b 4c1f b63f
000007c0: 2253 45d9 5393 c03f 3800 869e 92c9 bbbf
000007d0: 078a 64b4 b7ee a13f c45c 7e34 da53 96bf
000007e0: cd88 d2b3 dced bc3f 3d88 3c0b af80 aabf
000007f0: 4017 055a 5bd4 d03f 6629 8bbe bd48 d0bf
-0.028721828528312583 -0.055514331628919715 -0.07668814324307316 0.027349289587033452 -0.4257504400448409 0.2872806521897448 -0.06874799480063211 0.03713449805317755
-0.08269715723574882 -0.01011474432632499 -0.11305671832124753 0.050557304168619206 -0.08023268243584897 -0.04518201315939985 -0.3914671755209907 0.33659393114774794
-0.007355034625588354 -0.06426016799298238 -0.018857295364854407 -0.044439503718021696 -0.201359931991895 0.23723492020757697 -0.010166377378926197 0.029043981141881656
-0.25205217888799636 0.22371177077631874 -0.04032614638769799 -0.010638249057657785 0.3308654192311585 -0.3387225826957819 -0.0270885254128865 0.04977827726921024
0.1114787820945011 -0.14458773903062805 -0.3373829447600514 0.3385690664939465 0.05726381703476568 -0.04718997239535215 0.028633984856241298 0.014704682721418172
0.1898334412896932 -0.18607239629987166 0.2980969364836215 -0.3544098626232591 -0.06813656882565661 0.023710057133621884 0.15692030500691168 -0.18067455267086563
-0.084994582839701 0.0704793672732199 -0.016447310132997772 0.05819963308727477 -0.019659071282670186 -0.00888651397256217 -0.23125262517039455 0.1821687431100524
0.0006626273608058139 -0.07151919453408073 -0.02421236852330853 -0.03615452188509787 -0.06880856319224464 0.09232323050681972 0.13200837509140148 -0.12381788693111617
0.23879040151386757 -0.14422373936651567 0.02314921933144649 0.0020034123222277232 0.2208630195015845 -0.22865900878964246 0.09859436870289257 -0.1098395704336
0.025778740904130407 0.01108287289233045 0.14747655380391755 -0.07827152275723996 -0.11023098173795491 0.1417485311881413 -0.02059764443330546 0.011867488215886844
0.0711216108019072 -0.07556943052142119 -0.1385935050490096 0.2061233637035558 -0.14206051484660479 0.14802086726900487 -0.06526619212135738 0.13588452521531044
-0.21961720114542493 0.2424578188997505 -0.05316116228279968 0.06743146673367323 -0.14492786425997456 0.12693261090407915 -0.013975522743676284 0.049980321508087906
-0.06596252563732949 0.08476814873357656 0.0018593502756334658 0.014013438169582084 -0.010151759934824514 0.014790990701643176 0.23508389340508376 -0.28023913691580216
0.2123645719967602 -0.20776701427985367 0.19586834020382593 -0.18734230491295759 0.23885667540533126 -0.2665549952929737 0.023385098860405042 -0.12588686725618625
0.18609268572945223 -0.15656561396169075 0.009890230608504249 -0.08216865555343833 0.1503981492804786 -0.20320492070280152 -0.038342347451184755 0.011702124781901677
0.0819712769979387 -0.055414836058502434 0.12921982070602359 -0.15639681450481058 -0.11181308464565407 0.11267065411893251 -0.0036176984480059834 -0.005637776873229146
-0.02545949826389244 0.03091190350603408 -0.09241903267334864 0.05250337792506173 -0.021441568502514968 0.028783476949688577 -0.25914288152652437 0.21604124789301948
-0.08081873907059867 0.13519902638769474 0.04285789059426316 0.04369067594340818 0.1516442230289724 -0.16746577139980434 0.06801843158782386 -0.08987504436903927
0.26721551050569625 -0.2510428361943613 0.06421227391528643 -0.017096913978470255 -0.23802895192931028 0.2062679909583111 0.01065043686728287 -0.04004707878661545
-0.09155407801655126 0.11758692590399358 0.24561865643701122 -0.2597284375861424 -0.006289041388386759 0.009542775095711843 -0.016514734211859124 -0.006599430165166375
0.07144228363630184 -0.10079234367602452 -0.08499869367113506 0.11268694826270306 0.13682819749166542 -0.10067675691428705 -0.05283220067046375 0.02813851985837354
-0.18795291966057706 0.21370369537023187 -0.008912161272707768 -0.05263557334069435 -0.1111821661507564 0.07842513995024328 0.2835061340025696 -0.22397588273926217
-0.04597797412192834 0.022785721845392706 -0.030504864200290124 0.036598263569711416 -0.0490950869060967 0.09853100096861821 0.012161630664025012 -0.03516957247954881
0.06609261903200839 -0.04868172572999314 -0.07436704839439864 0.09021269886782463 0.17045809782724727 -0.16065990213886241 0.023325800563023295 -0.03273979174087064
0.006319897179862216 0.07026714043853363 0.037093299683788064 -0.022305823907843095 -0.1949357706108577 0.24970434453775633 -0.03819314990240591 0.00973612992000148
-0.051479068773996606 0.022357450658905202 -0.31138998521718114 0.2955466807037058 0.008946577325641317 -0.05331708585646729 -0.24560788957117893 0.22964095885400948
-0.2476433693242234 0.17293013353500727 -0.0017588086347302796 0.023344783260220603 -0.1987548863419153 0.15231264893349145 0.14284504563663591 -0.17891513051807306
-0.18525129951278643 0.1822599272587096 -0.0023062860750813676 -0.05025164355939432 -0.1343964730379595 0.07292499795844065 -0.28959380071217805 0.22128000803178247
0.04358209601864548 -0.0313235280680411 0.006348069593419613 -0.03917995893012888 -0.04241410149163645 0.031353272439480724 0.016855908553400464 -0.09257035506746904
0.10354433693798698 -0.14845056128539755 0.24497460676686103 -0.3126180224529207 0.31181174832258035 -0.4053512968659362 -0.09449071724068306 -0.016369458615454403
-0.25278746501970734 0.23735998978003897 -0.3323855948559681 0.35379105295407326 -0.005485182329545622 -0.038569343323515484 -0.04154579067712918 0.08641508120955506
0.12949607953000802 -0.10854450578881447 0.0350243957239123 -0.021804246381716977 0.1130044878978282 -0.051763029214513236 0.26296123305325025 -0.25443976981900673
