dogs/mnist/weights-mnist/fcn-2-W_fcn-2.weights.npy (npy, 2080 bytes, 1 tensors)

array f8 [10, 25]
00000000: b331 ae18 7d37 ebbf 1f89 f010 32f9 da3f
00000010: d45c 3b7f 3104 e13f b3a9 ed78 b2e9 e2bf
00000020: 29f2 9fb6 eeac e03f 6475 bd45 3e2d d93f
00000030: 25b5 9bc2 cd0b e93f fd8a f749 cbf9 e43f
00000040: f410 dc80 b1e3 e2bf ba9b 3806 6916 e63f
00000050: 584d 3f8f cbfa e0bf 39d4 5867 a4e8 d4bf
00000060: 4358 aad6 121c e9bf 2796 c5a9 1ca5 df3f
00000070: 7c4b 9214 d3d4 e73f 90b6 be6e 602b d7bf
00000080: 7655 66b9 581e e0bf a59f 3573 5454 ec3f
00000090: 17dd b32b de58 dabf 685f e493 dc4f e4bf
000000a0: e442 82ac 6fdd e5bf ea1b 1120 48f3 e9bf
000000b0: dbec 9234 7de8 e3bf e65b 044f a528 e3bf
000000c0: 190a 96f0 7a1e eabf 0292 6fc5 c45f ea3f
000000d0: 2d98 6cc8 5cdc ecbf bd94 907c 1f85 e83f
000000e0: 9fee 41d7 ddb5 e5bf 21c5 1f86 7c96 ddbf
000000f0: 4fe7 5bab 46df e5bf c7b3 2b83 c22c debf
00000100: 95ea 0cb3 6d21 e4bf 70d2 f67f 11b5 e5bf
00000110: f713 77ab fb1e e0bf f6bf 4bfc a5aa e23f
00000120: 187d f12d 7f0e ef3f 3e39 95a2 6f40 e23f
00000130: cf96 9aa4 3736 ec3f ce8d 6336 928e e4bf
00000140: fb6e 48e5 461d e53f 3e20 b6af 544a e13f
00000150: 677c 3fb7 6153 d9bf 8eb2 7389 821a de3f
00000160: 7992 1b6d 64f6 d83f 85d4 09cc 900b e43f
00000170: dea6 eedf 2c06 df3f a45a 0b7e ec1f e43f
00000180: 0734 619f a28f e3bf 657f aac6 136f e93f
00000190: 492f 1b8d 50f7 e53f 93dd 451d 0441 e3bf
000001a0: 320c b2eb 0023 dbbf b502 1a7c d1a2 e1bf
000001b0: ef3e 271b 8de8 d73f 041f 0325 7981 dc3f
000001c0: 5cfb 077c e07b e83f 31d8 cf90 7105 e8bf
000001d0: 071c 83ad 2730 e43f 50c2 0404 0673 e53f
000001e0: 7d07 7132 b4b4 e73f e371 3756 9066 e83f
000001f0: 1087 c5e4 bf1e ebbf cd3c 9726 1f8f e33f
00000200: 3ef2 5102 5978 e4bf 7196 714d a426 e6bf
00000210: f44e 1650 2389 e1bf d855 29bb dc52 ec3f
00000220: 623e 3418 8ad1 d43f 9a7e 88e8 25f3 d23f
00000230: 7575 502d 35d5 c83f 6f1d ef0b fcc3 e9bf
00000240: e9e3 661c 01f4 d8bf c1dc a723 337a e93f
00000250: 339f be46 3ee5 e43f 344c b847 8427 e73f
00000260: d5a0 6ab8 f6b3 d33f b42b c7bb d89c e73f
00000270: fc6e d60e 80ae d7bf 8f23 0c50 f5b9 e03f
00000280: 829d b803 fa38 dd3f 8bbc a744 537c e5bf
00000290: affc 6705 b7eb e5bf f936 6e78 ac80 e73f
000002a0: 46fe c8c4 73da e9bf cffa d17b fd19 e2bf
000002b0: bacb 3e20 b3da dbbf 620e ff6a 3c4b eabf
000002c0: defa 0c84 71b3 e13f 62ef 1b30 2a77 d33f
000002d0: cba5 4a44 3546 e0bf 0c32 181d d6d8 e5bf
000002e0: b596 bf17 f7bc d8bf f225 d69f 5008 e1bf
000002f0: 7bf5 3311 f0e3 e6bf 2b76 f997 b90f ea3f
00000300: fc6c 84b8 653a e23f ccd2 66dd 2079 e0bf
00000310: 7387 79c0 390c ed3f 574e 159b 8457 e63f
00000320: aed8 03d2 b32c e3bf f52c 711d 840d edbf
00000330: 45d7 04c0 870d e4bf 8ff4 4043 84aa e83f
00000340: ec98 311e 4eea e3bf fde9 7398 d17c e6bf
00000350: 2e04 de7e 5893 d53f 3153 2ca3 31c1 e43f
00000360: 8858 a3a0 7761 d73f d506 73a1 ea03 e53f
00000370: c368 07c4 8fc6 e53f f345 bc55 b33c e1bf
00000380: 4a95 bea9 cacc d93f b10e cfee 197a e1bf
00000390: efa8 6291 0428 e63f baf4 c92f e093 eb3f
000003a0: 1edf 082f 5e5c e13f ea99 f116 36e2 d8bf
000003b0: 4608 539e 03ff e5bf 173c eda3 81e7 db3f
000003c0: 6b97 f43e be2b d73f 0787 3f57 efa7 db3f
000003d0: 3809 32f4 249b e03f a5ba b676 d1e8 ef3f
000003e0: a742 cab9 f711 e3bf 6ad7 2431 dba2 e33f
000003f0: 144e 5432 eb82 c83f 7007 ce78 ae45 cdbf
00000400: f6f5 bbab 6885 ed3f 505f dbff 778f e33f
00000410: 2103 1237 e2a0 e33f da8d 3530 574e e0bf
00000420: b748 e254 30e0 eb3f 862d be76 2c0d e0bf
00000430: 3de5 7723 4421 e9bf 72c5 f95c 1e44 dfbf
00000440: e204 4530 7e68 dcbf c5e9 1753 b028 e53f
00000450: 1dfb 1af5 808c e13f f669 f367 f651 de3f
00000460: 9f83 cff6 ef64 ef3f 4b29 0a9b e9ba e03f
00000470: 257e b607 4110 d9bf 6ce9 e464 3c62 e0bf
00000480: 36a1 de48 e256 e7bf 7fda a0d0 fa56 e9bf
00000490: fac0 81e9 7a73 dc3f 5b1c 3a12 2d40 e4bf
000004a0: a7fa df97 c9cd c7bf de5f fa59 1d4c df3f
000004b0: 4edb 72f1 6140 cebf 8fce 1a4d 1d32 e3bf
000004c0: f415 a112 230e e4bf f1a4 5f94 ac5e ec3f
000004d0: 56f1 87d5 9db6 d8bf d32c 3917 04d2 e33f
000004e0: 9d9f b4ff 69dd e53f 1cc7 e74e 3a7d e93f
000004f0: f4d8 73aa 0a3a eabf a2c3 2133 ed98 b6bf
00000500: a691 1efc 1cce db3f d480 d3f2 77f1 ea3f
00000510: fde1 36d2 43e9 e33f 2b71 85de c52a dcbf
00000520: 67dc fb5f 44f9 e5bf 528f ae7c 9466 e93f
00000530: a7b8 aac7 2bdf e5bf e5ff 016d a0e6 ec3f
00000540: 6d69 5da6 2ccc e13f c6e0 bbd4 dfb4 da3f
00000550: 387b c7b5 924a d63f 9172 7a7c 103f e9bf
00000560: 7bac f47a 5cd9 e8bf ed45 30a1 0638 e3bf
00000570: 8cb7 bacb f116 e6bf 4667 ad75 347d e5bf
00000580: ecb5 3fb1 df29 e33f 11f3 beed 4977 eb3f
00000590: 8a3a 5e96 e885 e5bf df61 428d 5159 e6bf
000005a0: 7da0 df77 0e6e e5bf 9125 089f 90ed dfbf
000005b0: c621 2394 7ef0 e3bf dba4 059f 32d9 e3bf
000005c0: 9fbc 91d1 866e e1bf 66b1 3d83 de73 e83f
000005d0: 5314 c250 1363 dfbf 4b2f 0678 a86e d8bf
000005e0: fed3 38f8 c8d8 e0bf f320 145d 04aa e1bf
000005f0: 4daf 7f09 3f88 e5bf efc8 5c24 e35a da3f
00000600: 26a5 9477 031e d5bf fd22 c064 4af7 e73f
00000610: 5977 e0ce 706a eebf 4ad7 793c 8318 e4bf
00000620: bcb1 2ce4 4769 c33f c781 11cc 642f e13f
00000630: d644 a18c 949e f03f 8703 cf63 9811 e6bf
00000640: 0e07 7078 0621 c7bf 0cc7 c4ad cf9e d53f
00000650: b45c 2a80 382e e4bf 447f 547b 562a dabf
00000660: 6858 b494 1b33 ea3f 4c1a 549a bbbd c63f
00000670: 5842 b84d 679d d9bf e22a 8d9c d603 e53f
00000680: b0f2 e841 bc18 e13f 7e82 0733 59f6 e43f
00000690: a0b5 ec57 3707 e5bf 189e 78ca bd03 ec3f
000006a0: a3b9 ec1d 23bc dc3f 1511 daf3 859c e4bf
000006b0: ee98 ca98 0f42 e3bf 8aed 8879 f481 e0bf
000006c0: 3ec9 de33 8350 e2bf 2025 808c 0c0a e0bf
000006d0: 1f63 a295 594f e1bf fce0 a9d3 95b2 e63f
000006e0: 1c1c 73bb ba9d e7bf 4134 6c88 60bb e03f
000006f0: 8b6f d322 cf15 e63f b4e0 9f14 ea9a e1bf
00000700: 14fa 736a 23c6 e93f 7f4c c382 e2e1 e5bf
00000710: 8014 6a9b b498 ea3f 467c b571 2179 d9bf
00000720: 205d 9c57 d59a e73f 67d4 4cde dced e1bf
00000730: fde1 54a2 1f53 e5bf 79ab 9485 6026 d8bf
00000740: bfcd 7c81 0d95 e8bf 56e8 b64e 2760 ea3f
00000750: ceca 22e9 9d14 94bf e252 5ff4 9c25 e5bf
00000760: 28c1 a613 3dcf e1bf 4e90 be60 932d d93f
00000770: 7a0c d893 7e85 e1bf 9b30 b00a b654 e83f
00000780: dc2f ee0d ca94 e1bf cfb7 c64d 97e2 e33f
00000790: c452 dd13 525a d5bf d155 4527 a9a1 eb3f
000007a0: c88f 3d19 fc8c da3f c030 54d2 812c e03f
000007b0: 69f7 d46d b27c d53f 42a4 6000 bf8b d33f
000007c0: 4bdf b9c9 a0d2 e9bf aa5a 4de2 2266 e4bf
-0.8505235178031881 0.4214596906114298 0.5317618832586057 -0.5910274850733032 0.5211099211588294 0.39338642893365816 0.7826908875410125 0.6554924435298229
-0.5902946011342736 0.6902356263643619 -0.5306146428869551 -0.32669935314635584 -0.7846769516643309 0.49445263461379557 0.744729557207719 -0.3620225030416373
-0.5037044163788511 0.8852941751656443 -0.41167406337577134 -0.6347487343327716 -0.6832807893098019 -0.81094747794202 -0.6221300150713448 -0.598711637811786
-0.8162207316348172 0.8241905075233833 -0.901899711087713 0.7662503655343681 -0.6784505085228892 -0.4623099622541123 -0.6835053774695811 -0.47148192224159086
-0.6290806290702046 -0.67835307114599 -0.5037821148804359 0.5833311011938338 0.9705196282701847 0.5703657317588193 0.8816183295172894 -0.6424037039072859
0.6598238447363366 0.5403235847343308 -0.39571421523391453 0.4703680364898809 0.3900385919098777 0.6264118180394155 0.4847519099081249 0.6288969480327364
-0.6112835991749542 0.794809234637779 0.6864397769909171 -0.6016865321861807 -0.42401144997728857 -0.5511252807483148 0.37356879855813835 0.44540241827461124
0.7651216909870118 -0.7506645038945462 0.6308782948407278 0.6702909544456563 0.7408085808931301 0.7625199970166786 -0.8475036113925132 0.6112209085203176
-0.6396908803286079 -0.6922170174190808 -0.5479904712869641 0.8851150184152017 0.3252892719619692 0.2960905810195783 0.19400658333408285 -0.8051738961302543
-0.3898928429949238 0.7961669632340077 0.6529837972384257 0.7235738182811304 0.30785911569047403 0.7378963153399725 -0.3700256485842457 0.5226999820161938
0.45660257686036954 -0.6714264241144446 -0.6850237947072823 0.7344572403105466 -0.807916530939061 -0.5656726282466823 -0.4352233710189314 -0.821684082963156
0.5531547144999782 0.3041482419791831 -0.5085703214473879 -0.6827192848446102 -0.38653352088145293 -0.5322650071913684 -0.7153244338984871 0.8144195526362571
0.5696285823682099 -0.5147861789942794 0.9077423819801268 0.6981833485574026 -0.599206838784786 -0.9078999114075531 -0.6266516447419482 0.7708150208997199
-0.6223517026635625 -0.7027366616815126 0.33711826695804603 0.6485832392669179 0.3653239315730237 0.6567280915553179 0.6804884747209815 -0.5386597322960242
0.4031244905148311 -0.5461549438700414 0.6923849906500247 0.8618012364746825 0.5425253790517421 -0.38880684128380827 -0.6873796551010478 0.43600502975908867
0.36204486988059753 0.4321249343903308 0.5189385194246716 0.9971701925877211 -0.5959433201515666 0.6136299095003157 0.1914953227757087 -0.22868901156112598
0.9225352625068683 0.6112632748799829 0.6133891177742933 -0.5095630590043883 0.8711167962922194 -0.5016081160733143 -0.7853108113041923 -0.4885326297727125
-0.4438777419455403 0.6612168906133823 0.5484013354506235 0.4737525954384688 0.9810714550513814 0.5228164699667927 -0.3916170668908044 -0.5119916887845597
-0.7293559478030491 -0.7918676447651051 0.4445483475056019 -0.6328339916225433 -0.18596763530509472 0.48902066981236014 -0.2363398007343797 -0.59986748752131
-0.6267257083752029 0.8865569017335969 -0.38614602902068407 0.6193867162304748 0.6832780832528332 0.7965365925904027 -0.8195851639891587 -0.08827097414338295
0.4344551527122128 0.8419761412333409 0.6222247224569056 -0.44011065226165397 -0.6866781115230766 0.7937719760125026 -0.6834925555938484 0.9031526688631827
0.5561736344637161 0.4172896935920217 0.34830157997014366 -0.7889482909409528 -0.7765333558539987 -0.6005890987600516 -0.6903008441056371 -0.6715338037858849
0.5988615476505266 0.8583116191362895 -0.6725962578655793 -0.6984031447382754 -0.6696846333770875 -0.49887481241656767 -0.6231072324090341 -0.6202633958720541
-0.5447420209074102 0.764144188242011 -0.4904220856336156 -0.38175403328999796 -0.5264630172811164 -0.5520040338460873 -0.6728816209338021 0.41179731894511823
-0.32995688131139145 0.7489368407997002 -0.9504932442248261 -0.6279922658129433 0.15165041581475502 0.5370353685103105 1.0387158864362411 -0.6896478604686401
-0.18069535141699372 0.3378180691680519 -0.6306421759826635 -0.4088340954203782 0.8187387375244386 0.1776651862675912 -0.4002321490270666 0.6567185456891276
0.5342694556525966 0.6550718304316232 -0.6571308820036172 0.8754567102923287 0.4489829818948243 -0.6441068423014565 -0.6018140777785257 -0.5158636449554461
-0.5723281872836095 -0.5012266868735971 -0.5409362719102296 0.70929995861573 -0.7380040799261027 0.5228731789117164 0.6901622467225804 -0.5501604464361862
0.8054368094597657 -0.6838238290751092 0.8311408076703088 -0.3980182276190515 0.7376505576275214 -0.5602859823035374 -0.6663969202555219 -0.3773423485278538
-0.7681949166348473 0.8242374932663192 -0.01960989699791576 -0.6608414433381677 -0.556547678357707 0.39340671966261176 -0.547545708425232 0.7603407105211945
-0.5494127533033821 0.6214100379054289 -0.33363773288628473 0.8634839789398773 0.4148550268639579 0.5054329975114555 0.33573590017100813 0.3054044250189386
-0.806961435314386 -0.6374678058590082
