dogs/pair-data/Poodle/Boxer/weights/conv-1-W_conv-1.weights.npy (npy, 19280 bytes, 1 tensors)

array f8 [32, 3, 5, 5]
000000 fc df 6c 47 6c e1 b3 bf b7 76 b9 5a e1 98 b0 bf
       -0.07765843147069512 -0.06483276810601067
000010 c9 69 bb b2 79 ce ac bf 8d f6 c4 fe f3 75 96 bf
       -0.05626278216159936 -0.021934330391778323
000020 2c c1 e3 ba 6c c5 9b 3f 03 56 59 f4 24 bd a2 bf
       0.027120303065147386 -0.036599306895976035
000030 1d 64 5a 1a 4f b0 ad bf 74 a4 3e b7 0d 0e b0 bf
       -0.057985755888872094 -0.0627144405722378
000040 bd ee a9 3d b9 ae a5 bf 70 e4 99 e1 11 41 89 3f
       -0.04234866025669024 0.012331142136860346
000050 fd 30 28 6d ae 28 8a 3f ef 1a 4d c7 d4 3d 5e 3f
       0.012772906023223113 0.0018457963862645273
000060 25 6d a0 09 1b e2 82 bf c7 28 22 6e 16 b7 c2 bf
       -0.00922032473686458 -0.1462123906861221
000070 c3 45 d6 50 b2 e1 78 3f e4 71 cd 82 70 d9 99 bf
       0.006074615999197733 -0.025243528350403013
000080 5d 95 7d 2b 07 98 91 3f c9 5a 10 c8 9d 6e c0 bf
       0.017181503323987147 -0.12837574261421583
000090 c6 58 c3 b2 36 2f bc bf ee 9b 6f a0 53 7e b1 bf
       -0.1100954233582768 -0.06833384196180223
0000a0 81 8b 1c 1f b6 c5 92 3f c6 1c 83 bc 26 7f 9f bf
       0.01833233418359326 -0.0307584812697115
0000b0 d3 5e 2b 0a 99 4c 66 3f e9 e1 81 8e 54 b8 b0 bf
       0.002722071557723507 -0.06531265715773994
0000c0 68 57 c6 14 84 b3 95 bf 60 db 80 a7 4b cd 46 bf
       -0.0211926114730753 -0.0006958598523912722
0000d0 99 8c 3b cb 4e 01 91 3f 22 9a 68 df bd f4 a5 3f
       0.016606551317533833 0.04288285591274056
0000e0 87 e6 f2 aa 99 46 66 bf 9b 8b 12 0d 7f e0 ae 3f
       -0.002719211704598493 0.06030652079177586
0000f0 dc a4 7a ef 1b fa ae 3f e4 31 13 f4 f2 09 a5 3f
       0.06050193117455091 0.04109153012686642
000100 82 22 82 26 aa 8b 36 3f be b3 66 64 47 5c 8f bf
       0.0003440180212313308 -0.015312726737500056
000110 c7 9a 14 f5 24 0e a6 3f d6 22 be 03 a3 56 92 3f
       0.04307666293816719 0.01790861807197327
000120 bc 27 84 c4 51 36 9a 3f 38 d2 18 0b d2 33 50 bf
       0.025597837085150607 -0.0009889174656453458
000130 e6 96 32 4f 87 d8 b1 bf a7 db df ea 47 c4 b4 3f
       -0.06971021350417636 0.08112000927199735
000140 9d f6 f8 e0 43 74 b0 3f 3d 17 82 c3 77 1c b6 3f
       0.06427406542294496 0.08637188456677065
000150 8b 2e ea 82 de 02 b0 bf 08 7a 4b 40 6b 00 95 bf
       -0.06254378029023593 -0.02050941066669945
000160 63 8d 5f 8c 44 ee 84 3f 62 9c 7d d9 82 1e a7 3f
       0.010220084699489268 0.04515465645709395
000170 a6 6d 52 d7 d3 93 9f 3f d2 c7 f3 76 f2 df 8f 3f
       0.030837354676447902 0.015563863997588277
000180 d6 54 e9 4d 1e 20 aa 3f f3 ca 8b 6b 97 1c aa 3f
       0.05102629376475824 0.05099938571756537
000190 db 88 b9 47 75 66 9f bf 40 5a b8 ee 9c a2 62 bf
       -0.030664284231883037 -0.0022748055541897128
0001a0 f6 99 bd 26 25 8e 97 bf 1a 20 b3 c4 c0 e8 9c 3f
       -0.023003178109684407 0.028231632238004158
0001b0 88 15 20 e1 d8 85 ac 3f a0 e4 da 57 b4 7b af 3f
       0.055708672982329566 0.061490665173047576
0001c0 08 fa d4 d5 53 59 ad 3f 99 82 11 d3 d0 c2 91 bf
       0.05732213959935356 -0.01734472549685737
0001d0 6c b6 1b 95 31 5d 95 bf 96 ee 83 e7 ef 2d ae 3f
       -0.020863318181844212 0.05894422246089197
0001e0 53 bc b4 76 e7 3f ac 3f 88 63 fb 64 79 38 a8 3f
       0.05517505001113734 0.04730586393060948
0001f0 5d da 34 36 73 97 a9 3f 4e da 73 2b 7a ad af bf
       0.04998359715175547 -0.06187040119578012
000200 12 1e 2f 78 fc d6 a7 3f c6 07 9a 0c 01 4f ac 3f
       0.04656208960619436 0.0552902534373199
000210 fb 99 57 96 16 b2 a5 3f d5 ee 48 a1 58 26 86 bf
       0.04237433037978985 -0.010815327093147623
000220 06 42 0f 14 15 c4 54 3f dd 13 03 53 8e 21 a1 bf
       0.0012674527972543772 -0.03345913661318154
000230 8b ed 8a 87 f4 10 71 3f 7c 2b 44 46 de 5d a3 3f
       0.0041665603573010175 0.03782553298704891
000240 3b 73 b7 2e 56 0e a4 3f 66 73 40 eb 7b 88 69 bf
       0.0391718799616911 -0.003116838483050821
000250 cf 54 10 e2 c7 87 8b 3f 25 05 08 9c 92 fb a6 3f
       0.01344257506029081 0.044888097330849676
000260 f6 06 da 4e 47 e0 a3 bf 79 bd fa 27 5b 08 a2 3f
       -0.038820484519431916 0.03522000182180824
000270 2c 1d 5b 3c 9a 5e a4 3f 31 e9 e1 f8 28 a2 ab 3f
       0.03978425966993834 0.053971557980690206
000280 a7 8e c8 9f a2 3c b3 3f 8f 1b 97 20 52 91 b3 bf
       0.0751439704986817 -0.07643616958294629
000290 e0 57 76 26 dc fd 8a bf 4a 50 e7 06 4c 44 a3 bf
       -0.013179511951232514 -0.037630439608307656
0002a0 56 6c 20 05 2c 1f b0 3f 20 3b 7b 1b 58 57 a8 3f
       0.06297564625894955 0.04754138312784151
0002b0 a7 0b 88 61 42 83 85 bf 20 95 f4 b4 49 d7 85 3f
       -0.010504263497755973 0.010664535364933558
0002c0 56 0a 99 4a 39 6a a3 3f f0 93 77 c0 c2 cf b5 3f
       0.03791979823701712 0.08520142744926296
0002d0 1e b6 c8 4a 24 1f b4 3f 08 e3 54 44 e8 8a 97 3f
       0.078600185640163 0.022990826769475198
0002e0 3c b5 1d 7f 6d 70 9d 3f 98 62 1d db 36 4e b8 3f
       0.02874919021944787 0.09494345521432945
0002f0 a9 7a d5 02 33 23 a6 3f 9d 69 1a 34 b3 19 6d bf
       0.04323729905694524 -0.0035522937840372763
000300 10 89 b4 98 7c 0e 82 bf cc e6 1c 91 67 57 bd bf
       -0.008816693697160122 -0.1146149377135785
000310 32 ec 04 c5 e1 ed 90 bf fd ec 92 19 6a 01 9e 3f
       -0.01653244748125022 0.02930227070895074
000320 03 27 b4 f5 ba 8e ab 3f f1 5e 43 0d 4f 24 93 bf
       0.05382332085907928 -0.018693194565314767
000330 59 49 b3 ce 77 75 a7 3f 1a bd 12 17 51 b3 9e bf
       0.04581808469960675 -0.02998091414764046
000340 c8 bd 55 33 b8 08 a3 3f 48 bc c6 5c c3 76 b2 3f
       0.03717589975974139 0.07212468161627428
000350 6d ea 0f ed 1f 3f b5 bf b8 53 cb b3 05 51 82 3f
       -0.08299445665026335 0.008943600224862056
000360 f0 1c 73 3e 90 df a4 bf 5f a2 96 23 e2 1c 87 bf
       -0.04076815378498988 -0.011285559378692854
000370 6f 87 1a 05 93 4c a4 3f ff c7 c6 f4 c8 55 91 3f
       0.03964671551990661 0.016928806247683777
000380 11 36 7a 2c fd 2d 95 bf f6 e3 00 99 97 8b 9c 3f
       -0.020683246459659858 0.027876251901236736
000390 43 98 0b b3 8d 94 af 3f 30 9c 72 fb 3b 3f b4 3f
       0.061680248361696964 0.07908987892970809
0003a0 76 e9 e0 af c4 08 a0 3f 49 99 cf b7 51 56 77 bf
       0.031316896886397425 -0.0056975547895262236
0003b0 75 6d c5 d7 27 1b a8 3f 6f 01 21 82 9d 6a 8b 3f
       0.047082181061990726 0.013386946233482104
0003c0 95 53 54 bb b1 46 6c bf 11 10 85 97 ce be b1 bf
       -0.0034516784022664095 -0.0693177337571458
0003d0 02 96 09 5c 73 b1 c0 bf 59 2f 3b a3 5d 80 ab bf
       -0.13041536325469855 -0.053713728118593713
0003e0 db ae 3a 7b f5 38 84 bf b3 47 99 4c 78 93 ad 3f
       -0.00987426550212638 0.05776573119204844
0003f0 40 9e ad 7c 0a b6 af bf 96 a1 7b ac 56 81 9d 3f
       -0.061935737342363684 0.028813699986956452
000400 d1 44 b8 a0 d9 71 ab bf 1a f6 ad ec 2d 51 98 bf
       -0.05360298239623663 -0.02374717480733155
000410 e0 ea e0 24 98 e6 ac 3f 90 d4 2a 01 5d 70 b7 bf
       0.056446794988422644 -0.0915582778787487
000420 01 39 3c 5e 4b 57 96 bf 27 22 46 74 48 c6 b2 bf
       -0.02181737673441209 -0.07333805884093945
000430 71 42 77 45 d1 0a 95 bf c5 a1 88 bd 72 8d ac 3f
       -0.020549077858790846 0.05576666415828727
000440 81 b3 9f 0e bc 9f 7d 3f 7e c7 9f e7 28 9f ae bf
       0.007232412908689479 -0.0598080427879628
000450 9f 86 32 b4 ed fd 84 3f ea 2e 7e 37 4a 6a ae 3f
       0.010249955236136641 0.05940467765239339
000460 fe 69 41 ad 22 9d a0 3f 4a ba e8 50 8a 0d 58 3f
       0.032448848389964965 0.0014680720083891812
000470 94 51 fd 90 9a 15 93 bf 90 bf 3d cc 61 44 a0 3f
       -0.018637099360903145 0.03177171343020213
000480 2c 6f bb 68 e8 2a 99 bf a5 be fb 85 6a 44 74 3f
       -0.024577742950767575 0.004948059184002017
000490 03 13 55 4c 79 0f a5 bf 89 5e fa ad 59 a3 c1 bf
       -0.041133680885229416 -0.1377975558759668
0004a0 1d aa 4f e8 61 34 ad bf dc 40 ce 86 da f6 81 3f
       -0.05704027138547849 0.008771617163603578
0004b0 cc 13 e6 55 6e ec 7d 3f cd b4 b1 04 6c 47 b9 bf
       0.007305556295595882 -0.09874606241801871
0004c0 36 5e c8 f9 f2 ec b8 bf 6a 29 4f 43 d5 12 76 bf
       -0.09736555669984956 -0.005389054354007031
0004d0 a8 cc 92 2d 45 13 a3 3f 8b 6f e2 c2 40 e1 b2 bf
       0.03725639516178464 -0.07374958761141508
0004e0 cc 54 66 08 a3 22 b7 bf 97 5b da 59 03 a6 b8 bf
       -0.09037226634093826 -0.09628315871883185
0004f0 07 77 5c ba d1 97 a9 bf e5 4d ab 05 f7 b1 a7 3f
       -0.04998641395489583 0.046279639665637785
000500 31 43 86 aa 32 2b a1 bf 15 99 3f f4 5a 2f bc bf
       -0.033532698932623346 -0.11009758437248636
000510 dd 19 48 9e d0 4a a8 bf 64 f4 1d 96 89 7c 9f bf
       -0.04744579250477774 -0.030748510157981093
000520 69 59 87 1e f5 24 aa bf 25 b9 f7 64 f1 d9 a6 bf
       -0.05106321332611936 -0.044631522727160346
000530 e5 44 4b 57 e5 04 ad bf 97 d1 3c c1 2e 45 a6 bf
       -0.056677977472313214 -0.043496571625300344
000540 83 f5 03 77 bb 26 a2 3f dd 1d a4 7a f5 1b 9f bf
       0.035451753881697655 -0.030380092249314806
000550 23 b3 a2 1e 85 6a a5 bf bb a2 e6 09 e8 09 87 bf
       -0.041828308095637 -0.011249363710548512
000560 14 a5 96 7a 49 6b b4 bf b2 37 f2 7a fe 37 80 3f
       -0.07976207011110531 0.00791930020048057
000570 01 f5 2a cb 02 d5 71 3f e9 5c fe 30 93 06 b2 3f
       0.004353533661455745 0.07041282602436962
000580 23 43 cf 47 3a 2d 6a 3f 01 d7 03 ad 03 42 a5 3f
       0.003195394353021534 0.041519274587626505
000590 0c af 08 a1 07 b6 b3 3f 68 a1 04 d1 d0 df b7 3f
       0.0769963043355199 0.09325890639286671
0005a0 64 de b4 72 5f 07 a5 3f 1d 85 ac 70 9f 80 a2 3f
       0.04107187533594184 0.03613756418622869
0005b0 34 df ff d7 f7 6c 9b 3f 93 1e a9 b5 d2 e1 a4 3f
       0.026782867964328008 0.04078539340531253
0005c0 73 55 48 24 f1 33 b9 3f f8 f0 29 b7 19 2e b1 3f
       0.09844882140926874 0.06710968705914755
0005d0 61 d2 dd 6e e0 8a ac 3f dd f3 21 e0 69 44 a1 3f
       0.05574704507208562 0.03372507916444765
0005e0 ac 56 32 d4 37 94 b0 3f ee 7d eb 13 67 52 90 3f
       0.06476162844259176 0.015939341154874435
0005f0 47 19 fe fd a4 44 72 3f 60 ab de 14 dd b5 9c 3f
       0.004459995747202967 0.02803750457648435
000600 db b6 7a f9 f7 fa 8a 3f 0b 9e eb b1 5e f5 b3 3f
       0.013173997212415347 0.07796279758223805
000610 b1 a2 15 c1 4c 7b b8 3f f8 32 f4 2d 47 bc a7 3f
       0.09563140596368204 0.0463583224865029
000620 4e 09 e2 f1 0e 5d a3 3f b7 cf d9 2e bb 1c 94 3f
       0.03781935408280167 0.019640850767657727
000630 e8 ed 6f e6 22 d7 b4 3f 8e 95 91 46 ea a7 9f 3f
       0.08140771985920703 0.030913982922717013
000640 a3 e2 1e 7f a0 f9 a6 3f 73 ec 78 88 55 98 a1 bf
       0.04487325240865416 -0.03436534205362642
000650 b1 b4 55 22 62 b2 b4 bf 35 40 bc 82 06 44 a4 bf
       -0.08084691370250387 -0.03958149286165772
000660 d9 3f 07 8b 20 e3 a8 3f 28 59 bb 56 2b 1e 89 3f
       0.04860784241793654 0.012264574608178494
000670 02 6c ca f1 b1 20 8d 3f 59 06 84 d0 6f 72 91 bf
       0.014222517196051502 -0.0170381041543862
000680 17 f7 73 be 1a 1e 6b 3f 25 25 f3 3a 73 13 ae 3f
       0.0033102533667478495 0.05874214262582659
000690 e9 a1 4f d3 e7 d1 87 3f d2 65 21 04 92 d5 a4 bf
       0.011630831848337091 -0.04069191265507367
0006a0 34 43 a2 f9 7d ce a4 bf 7c b4 ab 12 90 03 9f bf
       -0.040637909624939544 -0.030287028445787886
0006b0 a5 6c 02 46 8f 2b 91 bf 3c 58 ec 88 4b d5 ab bf
       -0.016767729423560102 -0.054361687149296206
0006c0 d6 66 7a 9a 9d 8c ae bf 71 93 28 84 9c 11 b1 bf
       -0.05966656218261128 -0.06667497850919603
0006d0 55 d2 16 2e 42 33 ab 3f 1e a4 09 2b 4e 38 a0 3f
       0.05312544643985421 0.031679575685139336
0006e0 01 1d c5 44 c9 8a ac bf fb 6b 5e 16 23 e4 90 3f
       -0.05574635471799106 0.016495273819241856
0006f0 ca d3 a7 04 c3 cc ad bf da 67 de ae 27 32 99 3f
       -0.05820283347922091 0.024605388687270004
000700 49 88 2d e3 67 76 a7 bf 55 f5 2d 70 55 e1 a0 bf
       -0.04582523964087721 -0.03296916002634968
000710 6f f6 5e 3f bc d5 91 bf db 8f a9 02 ac dc a7 3f
       -0.01741689812455721 0.04660546810626417
000720 28 a0 90 c1 7c 01 39 3f 8d 01 b2 f7 d4 fc a9 bf
       0.0003815583782533793 -0.050757079349753466
000730 1d a4 3a 19 f5 4c af bf 44 c6 7d 47 14 a2 ac bf
       -0.0611340134904099 -0.05592406628319371
000740 79 e0 93 a6 15 48 be bf 13 02 65 c0 a2 90 bf bf
       -0.11828742329442034 -0.12330071637280353
000750 04 46 4d 38 fe 15 90 bf 7d 89 94 80 80 8c 9f bf
       -0.015708896814720333 -0.030809409950174328
000760 d3 1a bf 5a f3 1a 73 bf 8a b4 ee c5 6a b8 aa bf
       -0.0046643739733045085 -0.05218824068229207
000770 75 64 bb 90 33 cf bd bf c4 2a 82 7d 24 04 a5 bf
       -0.11644289287086614 -0.04104723007283931
000780 15 05 9e 67 68 0b 70 bf 8f 20 2d e1 1f 60 57 3f
       -0.003917129355501166 0.0014267264675300905
000790 b2 d1 28 7f 47 a3 a6 bf 7d 66 e7 4b f8 bf b1 bf
       -0.044214472076791536 -0.06933547833559746
0007a0 c7 11 b1 73 0d b1 96 bf 2d aa 6b dc c3 55 b8 3f
       -0.02215977686525308 0.09505867129670582
0007b0 e1 86 64 dd 13 da af 3f 43 6d 27 ce 02 97 9a bf
       0.06221067502543832 -0.025966686089174528
0007c0 3f 98 0b 61 7a 63 aa bf 28 c4 fd c3 b5 3a b3 bf
       -0.05154020723948393 -0.0751145938391039
0007d0 2b 1e 43 89 0b af ae 3f 9e 67 22 3f 9a d3 b3 3f
       0.059929237847935767 0.0774475483071044
0007e0 cf a9 8b 20 52 e3 ac 3f be 57 f7 74 4d 21 b8 3f
       0.05642182013783136 0.09425815683002178
0007f0 ef d0 e3 a9 fa e3 ac 3f 82 2b d5 12 11 60 a3 3f
       0.05642684291697885 0.037842305706894855
