dogs/pair-data/Poodle/Boxer/weights/fcn-1-W_fcn-1.weights.npy (npy, 320080 bytes, 1 tensors)

array f8 [100, 400]
000000 73 82 f0 bc d1 f3 8e 3f 54 bc bc 0f 5d ac 90 3f
       0.015113485887981093 0.01628251465370696
000010 41 fb 19 5c 2e 5d a3 bf 3a ff ed dd 42 0c 70 bf
       -0.03782029032026069 -0.003917943190458401
000020 40 3b 33 92 47 6a 98 3f 2d 0a 5e cf a9 76 a5 3f
       0.02384292440256819 0.041920954287906965
000030 79 bf b1 72 07 62 8c 3f 80 7e 3a 6e 40 d4 9a 3f
       0.013858850658124077 0.026200300910771634
000040 ad 5f d0 7e 67 b5 7b 3f 12 75 ff 8b e1 43 98 bf
       0.006764797476556267 -0.023696445627014624
000050 34 1f 01 c9 93 7c 95 3f 06 62 0a ab d5 b7 99 bf
       0.020983037131627927 -0.02511533600281448
000060 a3 50 52 ad 66 40 a2 3f 81 a8 18 7c f6 3b 9e bf
       0.03564759126416674 -0.029525615047682145
000070 bb 04 ed 5a fa f0 a6 3f 60 82 8e cd a8 04 a3 bf
       0.04480726585325941 -0.037144923298232824
000080 76 d9 ff 1e 68 47 95 bf 75 7d 96 e2 6b 35 a5 3f
       -0.020780207531026794 0.041423198136949425
000090 39 01 3f 12 d1 db 9d 3f ff e5 20 41 4d 0d 83 3f
       0.029158846605924913 0.009302714872421623
0000a0 5e 00 59 52 9a a4 97 3f 42 fa 38 d0 cb 30 78 bf
       0.02308884742365113 -0.005905910631155255
0000b0 89 ab 7c 5d cf 1e 9b bf d2 7e 24 9d 88 b5 91 3f
       -0.02648471839999503 0.017294058409901343
0000c0 9d 08 2f e8 4d a4 64 bf b5 61 25 ce 90 7a 72 bf
       -0.0025197526569807464 -0.00451141895822398
0000d0 37 5e 84 20 89 5f 85 3f f2 56 92 8c ec f7 34 bf
       0.010436126046030043 -0.00031995320439058485
0000e0 2c 91 c4 14 ca 7a 92 3f 66 67 92 be 78 17 9a bf
       0.018046529309814804 -0.025480162269196603
0000f0 a5 21 70 e7 6f 4d 66 3f 66 27 e9 58 d6 5a 70 bf
       0.002722471773726381 -0.003992879194422238
000100 a5 d9 65 47 f1 78 a1 bf 3f d6 5a 93 08 06 8d bf
       -0.03412584301524938 -0.014171664235031687
000110 e0 2f 63 57 1b 20 9d 3f 7c 5a 99 a5 a5 fb 32 bf
       0.02844279023047125 -0.00028965753663127264
000120 27 7a da 86 31 c5 a1 bf 49 88 62 69 31 31 a1 3f
       -0.03470759173545828 0.03357843791424437
000130 1d 88 17 b7 cf 64 4f 3f ec 30 9e fe 5c 78 9d bf
       0.0009580625757588144 -0.028779461899419198
000140 24 59 aa 8d 14 f2 99 bf 9a 4b 88 0d ad 7a 92 3f
       -0.025337525507518013 0.018046096754982345
000150 c3 92 f5 90 cf 94 99 bf 9e 55 30 b2 f2 f4 99 bf
       -0.0249817306734197 -0.025348465085775033
000160 f9 45 07 ad 39 58 86 bf 9c f9 f8 a9 bf ff 9c 3f
       -0.010910463898571076 0.028319353818227463
000170 2b 1f 62 74 07 6a 9a bf 4b fe eb 6a f2 f9 9f bf
       -0.025795093992683576 -0.031226909423820264
000180 f6 e7 1f 43 33 fa 8e bf 38 6e 6a 70 47 ab 82 bf
       -0.015125656591397512 -0.009115751379162082
000190 1e 26 a4 89 19 86 96 bf 8a 70 fb b1 7f 5d 93 3f
       -0.02199592497439628 0.018911357153101473
0001a0 18 9e 2a 4d 90 a3 96 bf 12 17 65 ff a7 9e 43 bf
       -0.02210832091318879 -0.0005987472821195902
0001b0 08 3b dc a9 42 7f a4 3f fe 77 e2 46 c8 de 9c 3f
       0.040033419833085004 0.02819359715123681
0001c0 54 83 84 7a 96 3e 9d 3f 33 9b 6e de 79 7c 96 3f
       0.028559066036112427 0.021959213448691627
0001d0 aa 38 8d e6 4a bf a2 bf f9 14 e6 21 1e ca a0 3f
       -0.03661569656706949 0.0327920357113189
0001e0 e1 5a b8 2a 7d ea 8f 3f ca ee ec c3 b1 ec 9e 3f
       0.015583970895972356 0.030199792464584964
0001f0 24 5b 4b ea 2c 8b 99 bf a5 fd 23 b6 b5 1f 5c bf
       -0.024944974708741033 -0.0017165445829617567
000200 80 16 9b 40 47 7d 80 bf 35 e7 aa 31 25 60 a3 3f
       -0.008051449450600545 0.03784290534299687
000210 54 99 e6 05 15 94 95 3f a2 65 7b 61 70 59 a1 bf
       0.021072700963168003 -0.03388549032178935
000220 f1 cc f4 13 d0 17 93 bf c5 31 e3 bf e6 93 a3 bf
       -0.018645526140244454 -0.038237772868885446
000230 57 31 0d 66 ec 91 83 3f 1f 5b fc 8d 5c 46 a1 3f
       0.009555670608869233 0.03373994096016574
000240 39 19 66 88 bc 42 54 bf 99 7d 65 78 dc 51 91 3f
       -0.001236614336080756 0.016913838241973875
000250 49 db 36 97 37 92 9d 3f a5 15 32 90 f5 21 94 bf
       0.028878086666476652 -0.019660794187549197
000260 83 64 be ac 00 df 91 bf 94 a3 69 46 27 cb 7b 3f
       -0.017452250045242323 0.006785539072191055
000270 0b ca b7 c4 5b 4e 8a 3f 6f d4 b2 f5 8e ca 6f 3f
       0.012844769421438881 0.0038807670767604867
000280 b2 53 bd 53 62 c3 72 bf c2 d3 bb f2 ce f0 8e 3f
       -0.004580864038719422 0.015107743055958415
000290 86 be 21 3a 40 0c 57 3f 5b ba 71 91 c9 9e 92 bf
       0.0014067294328262993 -0.018183850767338288
0002a0 9b 54 fd 3c 0f f2 7e bf bb 48 57 ed ac a7 9e 3f
       -0.007555064701439874 0.02993650625814646
0002b0 02 1f a1 a7 f5 69 a1 3f 2a 36 19 e2 13 ad 56 bf
       0.034011532509394385 -0.0013840383693549765
0002c0 58 65 cf cc 41 d4 a0 bf b6 06 5a 7d 2b a9 9f bf
       -0.03286939263461858 -0.030918769384249166
0002d0 7d bb f4 e9 0c 39 a3 3f 27 03 5d bb 08 88 93 3f
       0.03754463535221129 0.019073616443395693
0002e0 63 f1 8e 1a f0 4d 96 3f 3c cd ab 54 15 33 a0 3f
       0.02178168451404029 0.03163973482687729
0002f0 a8 fc 24 4e 68 3b 9d bf 8d 29 f3 6b 3b b7 88 bf
       -0.028546933908043443 -0.012068237525814119
000300 70 62 c0 0c 12 c8 82 bf 25 61 0d 86 23 2f a3 bf
       -0.009170666708130798 -0.03746901522998972
000310 12 a7 df 9a 01 d0 93 bf d4 b6 bd e6 8e a7 a1 3f
       -0.019348168447243692 0.03448149267829384
000320 7a c2 2c de 48 9c 8c 3f 1f 75 e1 19 06 a2 a7 bf
       0.013969964294660676 -0.046158018740906075
000330 85 46 94 33 a9 2e 92 bf 5f 11 f2 b7 71 17 a0 bf
       -0.017756122372765155 -0.03142886515073217
000340 42 6a 5a a4 99 94 89 3f ca 73 27 1a ff 6f a0 3f
       0.012490463569794778 0.03210446542991681
000350 89 b4 4d 0b 5a 33 4c bf 37 3d d1 23 6d 21 97 bf
       -0.0008606137913439597 -0.022588448821179354
000360 12 fb 94 8b 7b 25 84 bf fc 0b 61 c1 56 4a 97 3f
       -0.009837117383197067 0.022744517853663368
000370 fe e6 6d d7 ff 28 a2 bf b8 61 c4 76 1d d5 99 3f
       -0.03546905045273084 0.025227032064408766
000380 8e 14 05 f8 bf 8f a1 3f 4e 65 6e 43 52 64 55 3f
       0.03429984953485486 0.0013056567529246724
000390 c5 c1 5f 4e 72 e6 a0 3f 96 b1 17 7b 63 bb 6f 3f
       0.03300816733088 0.00387353353356996
0003a0 3e a4 19 e7 98 c4 97 3f 03 e2 45 ea 70 da 5b bf
       0.023210896592363854 -0.0017000296294026336
0003b0 e8 8f 67 2e 75 25 a2 bf 29 65 34 16 de fb 8f bf
       -0.03544202987157502 -0.015617117931969364
0003c0 92 95 b2 ea eb 75 78 bf 55 74 92 54 2e b3 90 bf
       -0.005971833753539173 -0.01630852118670519
0003d0 3c 72 bb 83 4d f0 a3 3f d2 82 55 8f f5 22 a4 3f
       0.03894273980197169 0.039329217669324415
0003e0 20 39 cb c7 32 84 77 bf d2 b6 87 b6 0d d8 73 3f
       -0.005741308556663577 0.004844716612280657
0003f0 01 05 33 b6 ca 4b 8d bf cf f1 89 d3 3c 18 a0 bf
       -0.01430471771743891 -0.03143491823445609
000400 c7 66 f3 9b aa 0a 95 bf 72 03 b4 97 53 1c 67 bf
       -0.020548501747589733 -0.0028211243312629636
000410 bc c3 e6 53 56 09 85 bf 19 89 7d b8 51 d9 a4 3f
       -0.010271715579479472 0.04072051407890082
000420 5e ca 44 0b f0 b7 9f bf 3d ba dc 93 1d 4e 94 bf
       -0.030975104034221317 -0.019829237127107147
000430 35 bc 71 49 5e b7 84 3f 8a 82 87 62 89 3d 74 bf
       0.010115372291890615 -0.00494149843186221
000440 de 3f 0b 92 73 1d a4 3f 83 d4 50 6d 79 7b 96 3f
       0.03928719671023349 0.021955392167190012
000450 e6 a7 c2 3e 12 e4 96 bf 98 16 d9 fd 43 78 60 3f
       -0.022354397850598583 0.0020104721031966692
000460 a6 af c8 38 4d 6c a4 bf f6 b3 f2 23 f0 87 84 bf
       -0.03988877599871836 -0.010024906250999149
000470 15 b9 f6 e5 99 ef 5e 3f be 3b dc 66 39 e3 9c 3f
       0.0018881800568624808 0.028210541632741608
000480 98 95 96 e6 a1 e1 87 bf 5e 61 c6 3d 73 43 8a 3f
       -0.011660828446859381 0.012823963473053975
000490 44 cd 68 df ac 07 8d bf ed 5f 99 3e ea f7 a0 bf
       -0.014174795692361138 -0.03314144148015417
0004a0 a3 06 78 c7 7f a6 a2 bf 54 4c 86 23 ca 16 96 3f
       -0.03642653760836125 0.021571310442208905
0004b0 62 a1 0b 48 1e d7 7f bf 4c b0 27 4e 29 af a1 bf
       -0.007773512160135306 -0.03453950003663006
0004c0 a5 70 32 e9 99 d2 6e bf 29 0b 14 72 b0 d1 68 bf
       -0.0037625318596622042 -0.003029675121639559
0004d0 e6 ad a2 6c 01 4e 82 3f ee 51 f5 76 d7 c4 92 bf
       0.008937846305648155 -0.018329016338002484
0004e0 f8 44 59 a0 39 1e 96 3f 42 d6 d1 c0 e3 a0 9e bf
       0.02159967461768006 -0.029910620349673296
0004f0 5c c3 49 2a 5f 47 a2 3f a3 a7 50 b9 14 57 56 bf
       0.03570077315533268 -0.0013635351545055816
000500 92 f3 7d 75 e0 c8 a0 3f b8 21 61 e3 b2 52 8a bf
       0.032782568304333584 -0.012853047908848989
000510 2a 6b a8 91 3f 63 a4 3f a4 c6 43 e2 9b 9e 03 bf
       0.039819704561713756 -3.742135257479615e-05
000520 7d 5b a9 4b 19 72 96 bf c1 59 b0 e3 c3 80 85 3f
       -0.021919627421393074 0.010499506364834656
000530 7a ad d0 1b 3d 0a 83 3f 5e a4 cf 01 70 6e 5d bf
       0.009296872531271861 -0.0017963498896682788
000540 dc 39 c5 8a ae 46 94 bf d6 5a 66 df 85 07 98 bf
       -0.01980087968814269 -0.023466197738879334
000550 0a 03 d3 76 d4 04 a4 bf f3 43 46 6f d9 05 68 bf
       -0.039099349503436256 -0.0029324766894167575
000560 d8 b2 07 5f 89 55 9c 3f e9 c4 fa 41 7f 5f 9c 3f
       0.02767004625813993 0.027708042528222263
000570 e7 cb e7 a4 60 f7 4e bf 7e 12 04 2b 46 64 85 3f
       -0.0009450170417138998 0.010445163905850704
000580 2a a0 eb 88 48 83 a2 bf 04 2c 94 d7 1a 96 9a 3f
       -0.03615786239043957 0.025963229568372284
000590 e4 a0 ca d5 88 7d 8c 3f 0d 19 76 96 65 36 98 3f
       0.013911313080214822 0.02364500742762581
0005a0 a5 a8 29 75 68 5b 93 3f 2e e6 b3 e6 83 4a 7b bf
       0.01890338149170447 -0.006662860144609746
0005b0 3c 3f d8 f8 5b 6a 9a 3f 51 6a 0c 16 b0 a8 91 bf
       0.025796353400493674 -0.01724505552838657
0005c0 f2 37 ad e7 af 31 a0 bf 0d f4 c0 c2 b8 62 9b bf
       -0.03162908270915911 -0.02674378098184964
0005d0 73 3d d6 f5 60 02 91 bf 6f b0 70 a8 b5 57 96 bf
       -0.016610636715595328 -0.02181896057679505
0005e0 20 74 fe 71 05 08 60 3f 66 bc 55 65 3d 9c a0 3f
       0.0019569498399065882 0.03244201528547634
0005f0 44 43 4f b8 4e 31 8a bf 55 1d 5e ad ef e9 7f bf
       -0.012789359092410309 -0.0077914583579351175
000600 20 c8 95 fd 88 1f 79 3f f6 0f 48 ce 45 4c 9e bf
       0.0061335898584378434 -0.029587832179473104
000610 9b ca e2 a9 e8 6d 81 bf d7 e1 fc 43 8d de 99 3f
       -0.008510415730005596 0.025263030314109116
000620 4f ef 8d 1a 50 eb 94 bf ca 86 a8 01 21 84 9e bf
       -0.020428897495988804 -0.029800906873908052
000630 d4 4b c4 df f7 49 76 3f 7c bd c8 23 2a ad 92 bf
       0.00544163537803662 -0.01823869555863443
000640 8a a8 da c1 7d 7d 83 bf 6a f8 69 2b b9 f3 99 3f
       -0.009516699293574033 0.025343793177392028
000650 11 90 51 91 6c 79 92 3f 41 64 3b 98 0b e6 83 3f
       0.018041321153205617 0.009716120322467716
000660 bf a0 77 9d 9a a1 a4 bf d8 60 5b 9e ae fe 8d 3f
       -0.04029544040878496 0.014645923812551961
000670 85 1c f8 45 e0 dd a2 3f 2b 83 8e 79 17 56 94 bf
       0.036849030057106304 -0.01985966376708174
000680 a4 58 22 05 a9 c3 80 bf 5e a8 5e 30 18 a7 94 3f
       -0.008185692280943187 0.020168664886718417
000690 91 77 fd 74 94 a9 92 bf 3c 80 03 61 c2 33 7a bf
       -0.018225021019467717 -0.0063970177581894015
0006a0 46 48 ac d0 fa 5e 94 bf 63 b4 8f d6 b2 bc 7e bf
       -0.019893568979633146 -0.007504175745436023
0006b0 03 1e 89 85 e4 cd 84 3f 88 02 e1 aa 76 ad a0 3f
       0.010158334088500537 0.03257342182087536
0006c0 c9 73 81 14 9e 38 97 3f eb e0 f6 f8 09 7f 91 3f
       0.022676916123930888 0.017086177654818718
0006d0 ce af 81 a9 82 23 98 bf 14 34 81 1f 9b e0 a1 bf
       -0.02357296142183412 -0.03491673240259999
0006e0 9f 0c a3 86 68 a7 a3 bf 17 a1 e6 6e 7d 33 92 bf
       -0.03838659900204643 -0.01777454366097783
0006f0 09 4d c0 8d 57 1a 88 3f 9c 49 28 3b 77 07 96 bf
       0.011768993390467235 -0.021512854562453762
000700 68 ac a7 c9 b6 4e 96 3f 38 36 89 49 b7 ed 9c bf
       0.021784645135920405 -0.028250564444809195
000710 91 a9 5f 39 85 47 44 3f 29 e1 74 9a e6 ba 50 3f
       0.0006188774593714354 0.0010211231218147465
000720 66 f3 d5 1b d7 fd 94 bf 43 5a 26 8c 3c b2 8e bf
       -0.02049957377811342 -0.014988396670372888
000730 bc 96 91 77 61 95 7a 3f d9 59 9f 1f 85 e1 7f 3f
       0.00649011681625716 0.0077834320199685276
000740 a9 d7 52 2f 4a 3e 9d bf 68 6a 22 20 05 11 80 3f
       -0.028557929170993344 0.007844963114895978
000750 53 fc 00 88 63 48 9c 3f 34 43 10 20 72 e5 8b bf
       0.027619891334549184 -0.01362122688627352
000760 6e e2 24 83 6e 1b 67 bf 0f cc d9 e0 60 80 97 3f
       -0.0028206976359366675 0.022950662349511982
000770 52 fb 0c 39 d8 40 93 3f ee c5 03 6e b9 0f 86 3f
       0.018802050096606245 0.010772179288752928
000780 1f f9 63 6e 8d 92 93 bf ee 9b f2 6e 57 e6 a1 bf
       -0.01911374079008354 -0.034960491460246476
000790 dd cf cd 71 ca 3d 80 bf 1c bf 4c f4 42 7d 85 bf
       -0.007930356596013094 -0.01049282367748066
0007a0 fa 25 c8 1c 56 f1 94 bf 63 7c 56 2c 04 ce 8f 3f
       -0.020451875216201267 0.01552966366108261
0007b0 fd c8 8f 4a 14 44 98 bf 4c 4a 8e b9 89 b7 9e 3f
       -0.023697201777346234 0.029997016859463252
0007c0 1a af ca 63 b2 a6 93 3f 7f 78 73 c9 a3 d0 60 3f
       0.01919058546142969 0.0020526122058149294
0007d0 00 74 2a a8 02 85 9e 3f 9a 49 42 a4 a8 50 a2 3f
       0.02980426932719027 0.03577162747491798
0007e0 3b e7 ae 38 6b 2a 82 3f 82 a9 41 4d a4 19 53 3f
       0.008869970004400698 0.0011657814511872593
0007f0 ce 08 db da 54 57 9d 3f 62 6e 35 aa 13 d9 a1 3f
       0.028653455598722392 0.034859289672309016
