dogs/pair-data/Hound/Boxer/weights/conv-3-W_conv-3.weights.npy (npy, 32848 bytes, 1 tensors)

array f8 [16, 16, 4, 4]
000000 43 9b 63 7b 9f 81 b1 bf ed fc de 5e cd 93 c1 bf
       -0.06838413965634253 -0.1373230660665067
000010 f1 cc 46 2c cd 37 aa 3f dc ec 6c 0a 20 76 ab bf
       0.05120698132977875 -0.053635598442690585
000020 46 3d a2 bb c0 e9 6b bf e5 9e f8 9b 81 c9 ad bf
       -0.003407360488445174 -0.05817799595780374
000030 c0 6d 49 5e 78 ff b2 3f 21 38 80 65 fb c5 bc 3f
       0.07421066572117407 0.11239596584366086
000040 0a 62 d1 64 b9 90 b8 3f b0 ee f2 95 f5 ca c0 bf
       0.09595831595778051 -0.13119382688261316
000050 3d 1e 24 0c a7 5c c3 bf fd 45 b8 d3 ca 74 be 3f
       -0.1512650307924889 0.11896960896435611
000060 e9 68 d6 44 59 4b 99 3f 45 72 d1 e2 db 25 c9 bf
       0.024701495005140215 -0.19646786284546827
000070 04 27 46 df f7 df bd bf ae d9 6a 8e 62 85 88 bf
       -0.1166987342932338 -0.01197316166995396
000080 05 ee c9 3b 90 c5 b8 bf be fe bf fb ac 78 a6 3f
       -0.09676457843482218 0.04388943265075572
000090 09 ba a0 74 28 6b bb 3f 35 ef a7 fd d0 9c 97 bf
       0.10710385177001326 -0.023059144479687894
0000a0 14 fc 32 dd 17 30 b9 bf ba d5 74 d2 21 79 7f bf
       -0.09839009428377238 -0.007683879964408497
0000b0 58 35 7e fe 25 6c 8b 3f 4c b1 df 13 64 b9 9a bf
       0.013389870480547003 -0.026097835267067368
0000c0 a8 1b 2d 00 95 12 b3 bf a9 5d b1 17 f8 2b cc bf
       -0.07450228933622205 -0.22009183079601982
0000d0 51 47 9a e4 25 b8 9e bf 47 be 8f 8f f4 c5 b3 3f
       -0.02999934394626475 0.07723930840415348
0000e0 d1 38 b4 9c 51 35 b3 bf dd 1b 58 c4 00 4a ab 3f
       -0.07503233028203062 0.05329897305278284
0000f0 07 a8 69 1f e7 ef b1 3f 06 f8 fa 29 30 2d b6 bf
       0.07006687657272447 -0.08662701630507294
000100 fa 03 14 53 48 76 b2 bf 87 a3 2c ea 5f 60 8b bf
       -0.07211734798694627 -0.013367413839277876
000110 39 fa 3d 84 8c 4e 9f bf 6f 50 42 05 76 9e b7 bf
       -0.030573077746789166 -0.09226167324442412
000120 d3 a5 a2 4e f9 19 b7 bf dc 48 ff c8 dd 0d 94 bf
       -0.09024007959182904 -0.019584145920654147
000130 b1 ed c1 17 04 f0 b9 3f 47 3b ee b8 ce 13 b7 3f
       0.10131860332506083 0.09014598860652
000140 4c 93 42 02 e8 cc b4 bf f8 df 65 43 00 aa ad bf
       -0.08125162177254913 -0.05793762991646639
000150 fe 50 2d c0 fa 35 8f bf 57 e2 db 47 8f 42 c4 3f
       -0.015239676465775617 0.15828124054657408
000160 ac 81 38 fd a4 27 aa 3f d8 bb c2 8a 25 c6 b9 bf
       0.05108371344636295 -0.10067972791396984
000170 1b fe f7 4a 94 82 b2 bf aa 55 c4 9f b3 c6 bb 3f
       -0.07230498152056734 0.10850069666442744
000180 1f 82 45 fa ea 8a a7 3f e0 b7 8b bc bd 2a a5 3f
       0.045981734324190386 0.04134171415886079
000190 db 94 8a 1e 1c c0 c6 bf c6 37 01 42 8c 9b ba bf
       -0.17773772708202426 -0.10393597232288618
0001a0 5b 33 42 2b 88 21 aa 3f 94 3a ea e6 e3 43 ba bf
       0.051037078171339366 -0.10259842288562943
0001b0 31 f4 66 0d 08 5a be bf 8b 92 a6 73 de 5f a7 bf
       -0.11856127097321757 -0.0456532970595492
0001c0 1d ca 87 8e 15 a2 b9 bf 7f d5 96 35 2c 17 a3 3f
       -0.10012945871111652 0.03728616861500721
0001d0 67 28 c3 80 d7 04 95 bf 72 12 fa 5c 23 e3 b9 bf
       -0.020526282533673525 -0.10112210292761306
0001e0 b1 c5 35 25 d9 ac bc bf e0 ba 5f 30 0d da c6 bf
       -0.11201245459030564 -0.17852940427788777
0001f0 37 15 a0 39 b4 79 98 3f 69 8c d0 2d 4b dc bc 3f
       0.02390176393239082 0.11273641460916085
000200 a8 be 91 06 1a 97 7b 3f 77 73 59 7e 00 b1 50 3f
       0.006735898649921225 0.001018763048157482
000210 2f 32 78 53 98 17 b0 bf fe 32 4b 99 12 05 ab bf
       -0.06286003148870443 -0.0527730762602001
000220 f0 5a f5 09 03 4a c2 3f 48 b0 5f 67 73 6a ae 3f
       0.1428836630463688 0.05940590512167937
000230 de 3e 4f cc 68 6b b9 3f 11 2b 20 d7 62 1c b8 bf
       0.09929518688226888 -0.0941831374367832
000240 2e 6d ea bd b2 a7 c0 3f af e3 c8 44 7f d7 ac bf
       0.13011774323681763 -0.05633161272675779
000250 76 08 42 c3 76 77 a1 3f eb 0d d8 21 23 56 c0 bf
       0.03411456235427661 -0.12762869980370736
000260 36 4e 60 ae 95 4a b5 3f ee ce fb 60 7e 56 b7 3f
       0.08316932208281788 0.09116353862537682
000270 65 5f fe 77 6f f3 a8 3f d2 37 4a b4 e4 0d a1 bf
       0.04873226489797736 -0.033309123046919034
000280 87 7c 8e 77 c0 14 c4 bf 22 a5 b6 cb 3a fe b8 bf
       -0.15688329541896825 -0.09762923692200734
000290 9b 6d 76 74 6d 1f 20 3f b0 7a c1 5c 93 3c c1 3f
       0.00012300692672516104 0.1346611216458391
0002a0 39 a8 6a 55 01 11 a6 3f 71 40 32 24 3b 0c b3 3f
       0.043098489453158036 0.0744053805703986
0002b0 7f 5f e4 d3 c5 8b b4 bf dd 82 b7 75 0e 45 90 bf
       -0.08025776312967813 -0.01588842957960678
0002c0 ff 30 c2 05 70 75 b1 3f 0f bf f6 5c 08 f6 95 bf
       0.0681982053812966 -0.021446352647841723
0002d0 40 20 4a 55 60 46 bc 3f 30 06 95 1d 6d 75 b5 bf
       0.11044885713829533 -0.08382303211421838
0002e0 a7 c9 cb 4f 5d a0 2f bf 78 e2 de b6 32 97 b6 3f
       -0.00024129046496275156 0.08824459995856582
0002f0 7a 45 e1 17 34 1d b1 3f c1 3f 9e 63 c4 ee 9e 3f
       0.06685185988432876 0.03020769937535284
000300 ff 2c 14 2c 5e 43 89 bf a1 16 0a 58 00 af c5 bf
       -0.012335525245836807 -0.16940311716841897
000310 42 ac e2 fa 80 64 68 bf 3f 7a 2c 4c 7c 14 84 3f
       -0.0029776114598312484 0.009804698061597892
000320 bf 46 5a 32 75 25 9b 3f e2 75 ae 85 fe b5 81 3f
       0.026510077665597317 0.008647907690653992
000330 e6 97 63 7a cc c1 a3 bf fb be 22 b6 c6 18 b9 bf
       -0.038587942066257416 -0.09803430506394399
000340 68 72 e0 ba e9 b4 af 3f 59 ec c8 cb a5 9f 9d 3f
       0.061927131712057826 0.02892931991867118
000350 e8 06 7b 6a 38 eb 8e 3f 9c fe f7 0e 8e 25 84 3f
       0.015097084760216942 0.00983725531750617
000360 af 33 80 78 94 c6 a7 bf a9 6e ec 6b 3b 6c b0 3f
       -0.04643691988903897 0.06415149102070451
000370 97 3f b5 58 73 67 b9 bf 40 37 81 6c 49 64 82 3f
       -0.09923478046152777 0.008980344413568653
000380 aa 4e b2 54 02 9e bc bf 21 b2 87 00 79 86 af bf
       -0.11178602760110815 -0.061572820009903724
000390 5f 2e 66 4c e7 3e 83 3f 0a bc ae 16 39 71 b3 bf
       0.00939732267286003 -0.07594639591000898
0003a0 89 49 0d 83 57 ab b8 bf 1b 26 09 07 ca 8a c0 bf
       -0.09636446904668196 -0.12923550933400993
0003b0 b4 f6 f3 8c 84 0c 86 bf 51 b3 e1 f0 7e 32 bd bf
       -0.010766063262504268 -0.11405175572299454
0003c0 1e 30 d2 58 ff ca 8d 3f d4 ff 88 9e ce 20 be bf
       0.014547343156913025 -0.11768809671866559
0003d0 25 2a 07 b8 b0 6c b0 3f d8 4e e9 50 ee 0f b2 3f
       0.06415848248358509 0.07055558658003791
0003e0 1c b0 84 81 aa 5a b0 3f f3 f7 c9 94 3b 05 bb bf
       0.06388345396106881 -0.10554859526197884
0003f0 97 03 45 fc bd f5 a7 3f b6 bd d0 70 cb d8 a6 bf
       0.04679673866713257 -0.04462276222363519
000400 a3 42 b7 5b ac 7b a7 3f ac e0 21 6c e1 74 ae bf
       0.045865427203925856 -0.05948547787642275
000410 5a b0 2f 64 cf 9c b1 3f 07 0c 17 4c 81 4f a7 3f
       0.06879898258165565 0.045528450525601775
000420 86 a4 8f 4b 06 5f b7 bf 17 69 1f a6 59 03 a9 3f
       -0.09129371018174667 0.04885368492951352
000430 9d 7c d8 15 00 89 c1 3f ae a0 5b d8 b1 26 af 3f
       0.13699341837579918 0.06084209219062707
000440 a4 68 7e 18 31 1f 9d bf b3 b1 b2 de 2d b5 7e bf
       -0.028439299697858758 -0.0074970046800157284
000450 4c df ae e2 cb eb a7 bf d2 6c 7b d5 c6 f3 c0 bf
       -0.04672085897567388 -0.13243947433406916
000460 24 47 58 33 03 89 74 3f 53 62 ca 87 19 fa b5 3f
       0.0050134778043842455 0.08584746899794853
000470 db c6 cf b2 ea d5 c0 3f a1 3c 98 c9 3c 5f 5f bf
       0.13152822238003278 -0.001914796221516281
000480 e7 a6 12 48 a8 38 c1 3f 23 53 3c 40 e2 ed c1 3f
       0.13454154509718494 0.14007213722711595
000490 b6 63 4e 5d a9 ec a1 3f 65 73 f7 21 18 53 aa bf
       0.035008709564130866 -0.05141520895606425
0004a0 a3 23 49 02 90 7b b6 3f 3e 07 b1 de 86 2d a0 3f
       0.08782291465571616 0.03159734218981079
0004b0 26 25 5d c9 77 65 ba 3f a1 e9 2a b8 45 8b ac 3f
       0.10311077753171513 0.055750063640022114
0004c0 94 a4 c1 63 4c e9 b6 3f 7a a7 e8 9e db 38 b1 3f
       0.08949735103091633 0.06727383260354527
0004d0 33 bb 9c aa b5 1c 76 bf 0b 84 ca 66 3d df ab bf
       -0.005398473391138125 -0.054437559888590746
0004e0 3d 5f 51 8e ae 99 b0 bf bf cc 70 9c 9d 6f 9c 3f
       -0.06484499907071224 0.027769529984834614
0004f0 b6 cb e0 e5 94 f6 59 3f 53 92 da 8e ce 77 ac bf
       0.001584668548741714 -0.05560155385800116
000500 2b 29 82 c5 48 4c c3 bf ea 7b 82 f5 4a 1f 4e bf
       -0.1507655109783824 -0.0009192577372408837
000510 ce 22 4a 56 b1 b5 7f bf 86 c5 84 7f 20 12 bc bf
       -0.00774163505833121 -0.1096515952420046
000520 f4 a2 e9 4e 6e 81 bd 3f df cd a2 66 66 14 bd 3f
       0.11525620867326919 0.11359252935181229
000530 70 70 a6 f0 34 80 bf bf 49 c6 4b 68 a8 c8 a5 bf
       -0.12305003047225838 -0.04254652283806288
000540 ce cf d4 45 7c 12 c2 3f da 30 57 ec 28 03 b6 3f
       0.14118913087588542 0.08598571558031001
000550 3d 26 dd 77 77 e9 ac 3f a2 6a e7 9a 79 2f c0 bf
       0.05646870935613577 -0.1264488226286931
000560 10 db b2 62 5d b0 a3 bf 04 2a ba 08 76 71 c5 bf
       -0.038454931543517756 -0.16752505708821286
000570 72 29 d1 ca b8 09 ca bf 65 4c 61 13 59 47 98 bf
       -0.20342168715644565 -0.023709670837274283
000580 5d 85 1f 9d 4d b5 96 bf 60 54 49 e6 9e c1 87 3f
       -0.02217599174025985 0.01159977093008474
000590 ae 50 f8 ca 2d 9f ab 3f 4d 72 d1 c3 4a 60 99 bf
       0.053948813463791864 -0.02478138752154484
0005a0 a5 65 d7 0a 6c ad a5 bf 3b 33 34 ef 62 23 b6 3f
       -0.04233873016682858 0.08647745456637505
0005b0 5a b7 98 1d 4b 88 70 bf 38 50 a8 df bd 2f b5 bf
       -0.004036229534490088 -0.08275973043811369
0005c0 59 2f f8 d1 fb a8 a2 3f 5b 3c c8 8c c3 5a b3 bf
       0.03644549310783302 -0.07560369669975968
0005d0 d0 a3 eb 41 0b 27 5e 3f c1 25 d4 c6 ff 1d b5 3f
       0.0018403634964505484 0.08248900036064467
0005e0 20 f1 40 74 a2 d5 85 bf 15 92 e6 e1 1a 33 b4 bf
       -0.010661381886273136 -0.07890480055954925
0005f0 d7 06 2b 4c 6e e5 c0 bf 82 8b 30 62 db 63 c4 bf
       -0.13200167388099857 -0.15929739279189553
000600 b6 11 a9 f4 1c 6b 37 bf 5b 26 50 fb 2d 07 b8 bf
       -0.00035733658720385074 -0.09385955224583979
000610 0a 2e c1 ad b5 b1 b1 bf 28 74 53 bc 62 68 85 bf
       -0.06911788456016424 -0.010453006145718716
000620 72 ba bf 61 a0 42 a3 bf a4 a6 06 d1 1a 7f 84 3f
       -0.037617694790118686 0.010008058074919397
000630 ab f0 7b 3d a4 f7 aa 3f c6 46 3a 2f 70 ef b5 3f
       0.0526706051877864 0.08568478730219473
000640 37 da 2b e8 4f e2 b3 bf 68 64 63 52 45 87 92 3f
       -0.07767199915165511 0.018094142106609118
000650 a1 0c 54 ac ea 75 b9 bf 44 1e bd 64 8a 4d ba 3f
       -0.09945551593050307 0.10274567565385789
000660 47 64 5b 3a 4e 22 bb bf bd ee 62 26 b2 4d c7 bf
       -0.10599221157771509 -0.18205859064425126
000670 2b 81 51 1c e4 e9 79 bf e8 d7 ab 98 dc 15 ac bf
       -0.00632657151899733 -0.054854291569355784
000680 70 af 5a 48 e9 1d 6f 3f 76 ae d6 78 37 d8 86 3f
       0.003798442487854041 0.011154588103486445
000690 a9 2f a2 86 e0 52 c1 bf 40 34 3c bb 67 20 7a 3f
       -0.1353417069807368 0.006378560257656096
0006a0 38 71 11 ec 10 e6 c1 bf 5c 1e 4b d0 fa 3d b3 bf
       -0.1398335602451739 -0.07516448579110019
0006b0 f5 ce c1 5d c7 dc 98 bf 0e 80 47 9f b3 a3 c3 3f
       -0.024279704186894475 0.1534332778674074
0006c0 a2 9b ba 51 3a 2f bf bf c8 a0 1e 9b e1 a3 84 3f
       -0.12181438918433554 0.010078203722358473
0006d0 4b 87 d3 d4 a2 aa 94 3f aa de 74 80 43 4e c0 3f
       0.020182174911389777 0.12738841793337957
0006e0 1b 0b 3b 3b b9 36 a0 bf cb 66 c4 9e 19 e3 d2 bf
       -0.03166750762968303 -0.29511108879669895
0006f0 a6 5b 01 06 7b 1e b2 bf 3e a7 de f4 bf da 91 3f
       -0.07077759644140133 0.017436026878989035
000700 05 d9 71 89 13 70 bd 3f c5 71 5e 54 15 45 aa 3f
       0.11499139886459282 0.05130831389326177
000710 50 44 0f 9d 5f 70 7f 3f 3d 6c ac 01 f8 4d c9 bf
       0.0076755270865343644 -0.19769191819873014
000720 dd a4 5a 5c 49 ce c1 bf dd de b2 4e b0 48 bd 3f
       -0.1391078663776061 0.1143903915534525
000730 d3 bf f0 6d 24 a8 7f bf 34 23 01 af dc 0e c3 bf
       -0.007728712370450769 -0.14889105363024557
000740 12 92 24 28 f0 e4 b8 bf 5a 98 3f 37 18 a2 ac 3f
       -0.0972433183674826 0.05592418360156222
000750 fb d4 75 f5 62 b8 9e 3f 24 b6 1b f3 59 35 be bf
       0.030000253898340806 -0.11800157723674737
000760 40 74 fa 3e 0c 08 a9 bf 36 17 fe 06 62 b4 b8 3f
       -0.048889525115761945 0.09650242491451597
000770 42 21 ab 7d 65 06 bb bf 86 30 69 a7 54 6b 99 bf
       -0.10556635206296952 -0.024823496549558864
000780 04 e9 55 7b 13 ad 72 bf 21 7d 81 3f ee da c8 3f
       -0.004559589482022956 0.1941812334143629
000790 46 56 5c 54 68 0b 84 bf 40 8d 71 2d 29 c4 a2 3f
       -0.009787383150562278 0.03665283851366974
0007a0 f5 5e 77 ed 76 18 66 bf 4a 9c 1b 6a 71 fc a7 bf
       -0.0026972124867191646 -0.04684786243688473
0007b0 f7 6d 86 31 0e 0e a8 bf 16 d4 23 db 41 a6 b4 bf
       -0.04698223452143318 -0.08066188430878216
0007c0 98 ff e9 78 33 82 70 3f 4e 81 3b 60 e0 e7 a2 3f
       0.004030419410469131 0.036925327059864274
0007d0 3c ea 1f 49 e0 bf a5 bf e1 b0 61 22 94 ca c6 3f
       -0.04247952358851534 0.17805720976628606
0007e0 c5 a4 4b 78 05 54 a3 3f 14 77 82 55 ea 37 b3 bf
       0.0377504071564743 -0.07507195079457701
0007f0 5f b4 30 0b 10 68 b4 bf 9b eb 04 63 71 ca b5 3f
       -0.07971287034225004 0.08512028377019336
