dogs/pair-data/Hound/Boxer/weights/fcn-1-W_fcn-1.weights.npy (npy, 320080 bytes, 1 tensors)

array f8 [100, 400]
00000000: 1395 3f1d 5224 a1bf 045b 893e 38b3 99bf
00000010: 1980 a826 2a3b 9bbf 25c3 5115 662d 84bf
00000020: dfae b20c b157 96bf b614 cc25 0a6e 9a3f
00000030: d9b6 d980 231d 8c3f e1ad fcd3 b3ec 4b3f
00000040: 539c 3e21 5abe 89bf 59ba f0a9 db4a 9c3f
00000050: 3e11 f6dc 9b22 86bf 7fa7 9436 6f36 7d3f
00000060: b6d0 3e8e e0f7 a2bf 9dcc 3160 46c8 8dbf
00000070: 178b 3bea b486 9cbf 1a27 7c3e 7509 973f
00000080: 0d95 cf11 f190 82bf 58de 9298 3c32 69bf
00000090: 7b9f a897 a0f5 9dbf 717b 9939 0c7c 913f
000000a0: 67c0 2a47 0e04 7cbf a391 5424 d810 813f
000000b0: 720e 78fa 07da a3bf 7f44 e608 5c6d a13f
000000c0: 9f0a 8f34 fa62 873f 2641 f81e 572a 733f
000000d0: 6b55 1d13 ed81 9cbf 631c 17bf 1086 a03f
000000e0: 0d36 f6d4 344c 8ebf e6c8 26f4 5a7a 9f3f
000000f0: 0008 0270 52d8 98bf 7c7c 13a4 04c2 a0bf
00000100: daa8 0187 3d46 90bf 56ae 316f c56e 3dbf
00000110: f8b2 eb33 b89a 8abf b1d2 d16d 46f8 8dbf
00000120: 4576 41fd 6935 8bbf 9aaa ab0f c1cc 9cbf
00000130: 9d9a ac13 a899 a1bf e271 ebd1 06f0 8c3f
00000140: fb0d 01e8 ec5f 8bbf adb3 9f93 b387 7ebf
00000150: c908 3f30 ce97 91bf 098b 123c 0ab1 90bf
00000160: 5325 6204 c0bc 973f ce75 dd09 c8e8 9a3f
00000170: 1f8d 4709 0e5d 803f 406c b75d 1ace 85bf
00000180: cea7 f8d9 5f1e 94bf 6d79 d000 e387 96bf
00000190: 0f15 2d0d 2ed4 8d3f c7f4 3f92 f582 80bf
000001a0: 2e58 c6a4 e5c5 5f3f 97a0 7fc7 bd01 a23f
000001b0: fc71 b2c6 2c44 a6bf b184 0420 4466 9ebf
000001c0: ffbe 9042 fc91 983f f8ea ea00 61b8 6f3f
000001d0: 922b 2ef7 3152 623f 6e8a f044 1b89 93bf
000001e0: a192 ca33 7e06 9e3f 9a86 8fb9 a645 843f
000001f0: 29d6 3f79 2eac 6d3f 2e01 ec9f 584b a03f
00000200: 828d 7c40 1d2d a43f 7e6e 04b2 1ad4 a0bf
00000210: 5e91 e0b7 212c 793f a887 73bd 0d32 a2bf
00000220: 5b59 79df cf29 7d3f fa96 2780 8480 80bf
00000230: 5fc4 cf9d ce93 943f 502e f630 bb42 9fbf
00000240: c0f0 b719 4aaf a1bf a5eb 3ce2 6a65 71bf
00000250: 0260 5d95 586e a23f dd70 ac06 0ac7 7bbf
00000260: 429a 1b60 93f4 99bf f69a f588 80d4 7f3f
00000270: 4d13 c1eb 154d 9dbf 433a 5af4 0c0d 703f
00000280: 72ab 1cbc f153 96bf c89d 3b6f 4e7f 86bf
00000290: 5d2a edd9 35be a03f 3202 42ac fba3 763f
000002a0: 0116 89fa eff0 953f de05 973e 0935 a23f
000002b0: 8ae6 74de 4b46 9e3f ce7b 2551 5c3e a13f
000002c0: bdac ec09 ea61 a1bf e423 f536 a096 533f
000002d0: 8ac7 73a6 8819 a1bf afe2 09ad 3468 95bf
000002e0: 2eff 133b 8d0a 893f 34a8 bc11 b270 853f
000002f0: 2b09 2bc3 dbff 7abf 788a 9c00 304b 7c3f
00000300: 0473 b942 4c4d 853f c737 8dc4 a466 5b3f
00000310: 9ccb d3d6 88d0 86bf 1f85 abe1 ef18 8b3f
00000320: 2a57 63f1 c57c 8a3f 8561 bd87 dc4d a1bf
00000330: 2789 ced4 624f 55bf 8492 2124 3e31 a5bf
00000340: 49e2 5d24 b11d 433f 7aa9 0b37 af56 973f
00000350: 1d73 a3e6 9b64 953f ea57 d304 81ba 95bf
00000360: 2556 00b3 5db3 9abf 3c75 89d0 e119 713f
00000370: c461 0b6d 0418 a2bf 95ff 0a09 f1a2 a13f
00000380: 4a4c 9c38 9e31 943f 46c6 7f35 47a5 87bf
00000390: 4b92 cf01 a204 943f 2260 a97c 0fe9 863f
000003a0: 6d15 9079 e057 823f b38f 454a 2672 a4bf
000003b0: b79e 4efd 9059 89bf e769 5516 0db6 743f
000003c0: 25d0 7926 b776 87bf 0249 1e48 35ef 9a3f
000003d0: 135f a6e0 1848 a03f b261 5d0e 51b8 933f
000003e0: 0228 5d9b a5d3 84bf 276d ce57 5235 a13f
000003f0: 623f dba3 0356 96bf cfb7 0df3 348b 963f
00000400: eb70 b4bb 620d 983f a505 db80 88bb a3bf
00000410: 29f8 6384 9207 97bf dbf1 d62a 6782 873f
00000420: 06b1 a5bb 56d1 5cbf 11a6 1755 6535 963f
00000430: f1e5 aa21 9033 8dbf 5e58 c4fb 4a06 a0bf
00000440: 6b9d eb82 7bf4 91bf 809f 3a5b 37e5 67bf
00000450: e03a ee0c b941 9b3f ed28 c6e9 5f40 5d3f
00000460: 3c05 bebf 31e6 953f a75a acc5 f7c4 75bf
00000470: 3e2b 8cf7 3dc4 943f d06b 9a95 3b55 8f3f
00000480: 5871 6379 9175 993f defc c849 973c a2bf
00000490: 7652 d70c bc54 963f 214e 226c fc62 a1bf
000004a0: 0d20 231a 47a8 a1bf 875b 419e 5a5f a2bf
000004b0: f8b6 9628 f02f 9e3f 0786 9780 3285 80bf
000004c0: daa6 c4df 2701 9cbf 5ab4 0df8 8958 9bbf
000004d0: 19bf 2a0f 335c 81bf 8334 a370 da2a 733f
000004e0: 7179 a1b6 4c46 a13f 2564 7b88 3d64 913f
000004f0: bcf6 ec6d ada6 a03f cd14 2f2d 6a30 5d3f
00000500: c44a 1577 d3b2 a2bf d1d2 4c5e 0d05 a7bf
00000510: 9efd d995 4ed5 893f 6d98 f74e 977e 983f
00000520: e3e6 b018 8e63 99bf 75fa 5ab9 6466 a03f
00000530: 2741 cdfd 8a67 893f cdb6 ca7d fe84 953f
00000540: e67b dbfb da5b 833f 0ebb ad3c d47d 98bf
00000550: 26c5 b26c 0b09 9abf 7ee9 13fe c4d9 863f
00000560: 8b35 df34 717a 913f 74cd df74 f310 9f3f
00000570: e883 e03b 017c 583f bdcc 1424 c014 923f
00000580: cd1a 1648 ab7f a2bf 9ecf 6bb9 7165 a23f
00000590: 4d6d ac73 00c7 973f 8b6a 39bf 3e2d 9cbf
000005a0: e0e8 0a77 aaa6 8f3f 85c0 8b7a 0638 57bf
000005b0: d34c f4aa e1b0 953f dcc1 fa8e 849a 933f
000005c0: f34d 79f0 95f4 a0bf b5b9 d48f 2282 a8bf
000005d0: d752 2d76 d68e 5b3f 922b 924e 8e8a ab3f
000005e0: 4ee5 87ac c6a3 90bf be08 792a 9f75 993f
000005f0: f677 c269 638f 933f b43b 1a97 6e94 903f
00000600: 3d72 2ae9 aeba 9f3f c47a 6dd4 9f72 983f
00000610: 0f16 2245 3ed0 8abf de47 d0b4 480e 95bf
00000620: bb47 cf0f 5061 823f 4ca1 eea6 d94c 90bf
00000630: 2e21 25dc 529a 823f 9680 1479 06c4 98bf
00000640: 45ee 00cd e69a 76bf 9bef b23c c62d a6bf
00000650: 05d3 ea37 21de 973f 1875 f601 ccfc 943f
00000660: 1254 d0de 0f56 a1bf 3bb1 bdc1 2a7e a43f
00000670: be14 55fd 3463 94bf 4acf ddd6 831c 95bf
00000680: ca04 cb88 f4b2 a13f e4e8 f28f 9e74 92bf
00000690: b7ee 1da0 0332 a0bf 28c9 5ab3 72a3 81bf
000006a0: a0dc b3d2 6952 8c3f 4921 b57f 4947 a1bf
000006b0: 5fa8 92d9 db2c 9b3f a9a0 39a3 721c 84bf
000006c0: c44c 39bb df60 90bf 6e2d a4c5 2303 9e3f
000006d0: 9b61 8346 5dec a63f 9a23 2bf7 2391 8bbf
000006e0: a968 ffcc 3b99 7abf b9fd 6bd4 8d0d a1bf
000006f0: 5ff6 3439 8cf3 9c3f b068 3880 1485 61bf
00000700: 0c3f de4b 8ce6 a1bf dc79 6031 6b88 6f3f
00000710: 913a e667 6556 a23f 5087 db0b 6222 8d3f
00000720: d4cb d981 dafc 923f cbd5 12a2 c19f 993f
00000730: dfb0 4620 d6fc 88bf 045b 2a50 7b2a a1bf
00000740: 4e06 8998 6186 99bf ffaf 4c5f 9e51 823f
00000750: 0fd3 a7dd afcb 7dbf 6528 3ace 1498 9ebf
00000760: bcbc 9241 1867 983f b8e3 d170 a6dd 91bf
00000770: e871 713f 8098 803f a59e ac06 9642 89bf
00000780: 281b 0f99 74ed 8abf 0552 68ac 878c 873f
00000790: 4ebf a566 db7c 693f 1be8 371e 9098 9e3f
000007a0: 54fc 8be6 aa09 913f f73b 5529 1a58 44bf
000007b0: 0113 3485 2b65 a43f c2f0 3b72 e648 7a3f
000007c0: 6b91 ff8f 2523 823f 87bd 6201 7863 863f
000007d0: 96eb d654 dfb8 9ebf da9c 3cad 6ad3 9b3f
000007e0: 05ee 2dac 077d 7d3f 7508 c246 66ba 913f
000007f0: be3f 8df0 d121 82bf ccb7 50c0 8432 9f3f
-0.033480230398519016 -0.02509773141567974 -0.026592882737645682 -0.009852216268173184 -0.021818891906760448 0.025810392910916767 0.013727452630713998 0.0008521917406815704
-0.012570099010032509 0.02762931084378759 -0.010808198624325468 0.007131990839562507 -0.037047402728974374 -0.01454215031683353 -0.02785761527673988 0.022497016848354347
-0.009065516811413344 -0.003075712539238922 -0.029257306343566363 0.01707476712760631 -0.00683980538694593 0.008332909210886202 -0.03877282078249501 0.03403747185360206
0.011419253090825974 0.004679050747214119 -0.027839378635083827 0.032272837950181786 -0.014793789624287812 0.030740185882401592 -0.02426270302431277 -0.03273024084932616
-0.015892945637838142 -0.00044910736250500705 -0.012990416607374197 -0.01463370344775092 -0.013285472909213012 -0.02812482507844525 -0.03437543144382469 0.014129689484826128
-0.013366556959346623 -0.007453633757887807 -0.017180654234615376 -0.016300353924303432 0.023180961864033133 0.02627861557208693 0.00798998800104883 -0.010647016510963891
-0.019647119215882296 -0.02200274174185195 0.014564857270338764 -0.008062284970942092 0.0019392721761497633 0.035169535258149746 -0.043488883261691286 -0.02968698926372743
0.023994390070753543 0.003872098407865617 0.002236459340058735 -0.019077707369556433 0.029321643744554596 0.00989847425256878 0.0036221416175930177 0.03182484581157251
0.03940669452847613 -0.03286822722494963 0.006145602905267415 -0.035538129211786285 0.007119953159039428 -0.008057627831429926 0.020095089323096334 -0.03052799688661728
-0.03454047740885491 -0.0042471099039244386 0.03599812339115262 -0.0067816154139814485 -0.02534704469771954 0.007771017160257845 -0.028614370836538772 0.003918696025393023
-0.02180459700245358 -0.01098500515895652 0.03270118985399926 0.005527480218120705 0.021426915804360295 0.035560883417484965 0.029565034344364118 0.03367889872128381
-0.03395015116833509 0.0011955799671616802 -0.0333979323567198 -0.020905325948180117 0.01222715698759166 0.010468856016434193 -0.006591661879328729 0.0069076418965631145
0.010401340280787881 0.0016724213657712693 -0.011139935546884243 0.013231157373811584 0.01293329852016319 -0.03379716069202047 -0.0013006653927978924 -0.0413913172822378
0.0005833735419705301 0.02279161237212566 0.020891605331473707 -0.02121926872208483 -0.026074852037785718 0.004175073707839257 -0.03533948737248552 0.03444627032649731
0.019720527844651316 -0.011545711822665738 0.01954892288257985 0.01118671511828501 0.008956674299052303 -0.039933392111179876 -0.012377865534133432 0.005056429979357158
-0.011456900464715212 0.02630313160586529 0.03180005781467634 0.019257799627071477 -0.010169309429006294 0.03360993692259689 -0.02181249320602719 0.02201540692788467
0.023488562304110266 -0.03854013989394937 -0.02248982365653532 0.011479192728864376 -0.0017588946344302982 0.021688063925386972 -0.014258504893734677 -0.03129801104857742
-0.01753418909620789 -0.0029169160059900334 0.026617900289745644 0.0017853676464221716 0.02138593418886113 -0.005314796314243842 0.02027985404405829 0.01529928732207067
0.024862549814188867 -0.03561852241227269 0.021807611736067455 -0.03395832843775915 -0.034486982288910985 -0.035883743112825654 0.029479744412745895 -0.00806655363971044
-0.027348158867574003 -0.026704936757074506 -0.008476637745246362 0.00467953994866577 0.033739468854707584 0.016983949141693117 0.032521648090989314 0.0017815625076178954
-0.036520584379692106 -0.044960420380822826 0.012613882015329033 0.02392040652730325 -0.0247938349313931 0.03203120005263297 0.012404523725905904 0.021015144756055194
0.009452544032169951 -0.02391749973633766 -0.025425127515238753 0.011157549861753987 0.017068642475171408 0.03033810044139558 0.0014944088029624717 0.01765728206846683
-0.03613028769455227 0.035930208095947366 0.02322006898894573 -0.027516346379665307 0.015454608686344462 -0.0014171660679345454 0.02118256193086838 0.019144126154687288
-0.0331160408065009 -0.04786785131215102 0.0016820043899389758 0.053791472521957165 -0.016249756126830044 0.024862753836949684 0.019101670579964 0.016191223118365364
0.03098557756549013 0.023874757137827954 -0.01309250496366146 -0.020562301670061227 0.008974671823953053 -0.015918160260896472 0.009083411544125921 -0.024185277118818314
-0.005518819394690737 -0.04331798068002898 0.02330829528610236 0.02049559366206663 -0.03385972590346155 0.04002507796289697 -0.01990969463556235 -0.02061658858242702
0.034568444918031085 -0.018022992645207916 -0.03163157777359287 -0.008612533663243285 0.013829066031105619 -0.03374700244836732 0.02653831019839747 -0.009819884878382661
-0.0159945447943073 0.029308852136677492 0.04477206693417487 -0.013460427265629172 -0.006493791195646783 -0.03330653398551981 0.02827281092799294 -0.0021386528403698132
-0.03496206689953682 0.003849229203310529 0.03581540005972273 0.014225736605513767 0.01854268472238714 0.025023484723268468 -0.012200997219075691 -0.033527234588453
-0.024926686224949805 0.008944737704574377 -0.00727432916254568 -0.029877019011600576 0.023830775263090173 -0.01744709075544268 0.008103372512942422 -0.012334034041102735
-0.013148222847929228 0.011498508404693028 0.003111294286263367 0.029878856510528445 0.016638441392384642 -0.00062085416235813 0.039834365854437344 0.006417179279875453
0.008856099564533001 0.010931909124649376 -0.030002107194131954 0.027173678229840494 0.0071993159971230946 0.01731262022850229 -0.00885356917720503 0.03046615051078287
