dogs/pair-data/Boxer/Golden Retriever/weights/conv-1-W_conv-1.weights.npy (npy, 19280 bytes, 1 tensors)

array f8 [32, 3, 5, 5]
000000 59 07 80 ae ba 1c af 3f 82 91 60 84 e9 11 a4 3f
       0.06076606159332582 0.039199159058884284
000010 72 78 90 2d 68 58 b3 3f 05 37 3c 09 1b ad bc 3f
       0.07556773292933075 0.11201638198346238
000020 d4 67 00 38 9e 2e b4 3f 0a 66 42 15 97 a7 43 3f
       0.07883633486963443 0.0005998122892549318
000030 0c ac 82 b6 96 ea 8a 3f 4c 8e 2f 04 dc 5a ba 3f
       0.0131427549789205 0.10294890501204995
000040 18 a5 42 00 68 f6 b8 3f fd da b4 91 b6 39 99 3f
       0.09750986105304482 0.0246342207367105
000050 2a 00 e9 50 3c 7b 9e 3f 1b 46 cc 82 b9 7d b4 3f
       0.02976698154293459 0.0800434059458656
000060 96 1f a7 ba c4 d9 bc 3f f9 b7 11 db e1 4d bb 3f
       0.11269788319543603 0.10665713880891294
000070 62 5a 31 81 f5 b7 b9 3f e8 bf fe d9 20 7e b3 3f
       0.10046324161644685 0.07614331552645093
000080 f0 7d 22 a2 4b b1 a8 3f 56 aa 9e 9f 5b ee c2 3f
       0.04822765688117758 0.14789910596785444
000090 72 93 2d bb e0 58 c3 3f a8 00 99 57 75 b3 ba 3f
       0.1511498369174223 0.10430081738104724
0000a0 f4 8f 90 d9 85 25 64 3f 39 b2 74 22 dc 64 ac 3f
       0.002459298539649874 0.055456999975238515
0000b0 89 a6 4f 48 84 60 c1 3f d1 78 08 bc 4f e7 c2 3f
       0.13575795679871686 0.1476840656404819
0000c0 8c 26 79 31 07 5d bd 3f b9 77 7f d0 b9 9f a7 bf
       0.11470074613421327 -0.046140486432463
0000d0 99 c6 da 03 a1 ac a0 bf 82 27 2e 9e ae 83 99 bf
       -0.03256705448201309 -0.024916389851149308
0000e0 8f 2a b7 be 77 d8 72 bf 67 df 8a 8f c3 47 92 bf
       -0.004600970987164956 -0.017851882587563674
0000f0 09 38 09 75 03 36 b6 bf bf 18 6c 47 3f d3 af bf
       -0.08676168067287916 -0.062158563107048696
000100 4e 20 0d 4d f6 f0 a7 bf 23 d0 df de f7 ea 99 bf
       -0.046760270028756254 -0.025310395219961045
000110 40 67 0b 83 22 e7 b0 bf 0d 26 6f 63 d7 a4 92 bf
       -0.06602683734254544 -0.01820694488904988
000120 d5 6a 16 b5 a6 62 b4 bf 10 29 45 29 5c 9e b2 bf
       -0.07963029786189264 -0.07272888190815174
000130 b9 4b b0 e8 ab ac a8 bf 52 36 d7 31 28 85 ad bf
       -0.048192379145028004 -0.0576565323677697
000140 72 bc 10 69 7a 2e 82 bf 41 b8 08 bf 16 1f b4 bf
       -0.008877712565747074 -0.07859937824170606
000150 a2 0c 43 b9 7b 3e 49 3f dc 1f 2d fd d9 76 a2 bf
       0.0007703880424049412 -0.036063015132242277
000160 d3 58 29 51 70 fc 80 bf 69 8f b7 c1 cb ad b2 bf
       -0.008293988682606479 -0.07296441535396316
000170 80 09 b1 d5 85 99 b5 bf b1 72 30 f5 9f 73 95 3f
       -0.08437382189825904 0.020948886242069423
000180 e2 b5 eb 32 c3 63 9c 3f 57 e7 b9 c8 87 96 91 3f
       0.02772431371970708 0.017175790430406703
000190 77 f1 9f 9c 10 16 b0 bf 11 9a 55 97 3c 9b a9 bf
       -0.06283668350073933 -0.05001248690932781
0001a0 17 9f 5d 40 66 a4 99 bf bc 26 64 6c 01 ef 94 bf
       -0.025041196516581623 -0.020442983856844718
0001b0 83 97 88 a7 8c fb 80 bf 25 9d 15 f9 60 0c b7 bf
       -0.008292292463987888 -0.09003263550913639
0001c0 e2 e9 19 15 5f d9 b4 bf e6 bb f8 79 bb 94 88 bf
       -0.08144182458082797 -0.01200243440606914
0001d0 24 09 bc 79 de 26 4e 3f 95 53 60 b0 60 33 b1 bf
       0.0009201608949925039 -0.06719021135388765
0001e0 3a 5f 46 b6 a3 b7 9c bf a6 91 7a c6 d2 70 b6 bf
       -0.028044279098678994 -0.08765904756234608
0001f0 3c b7 fd 8c d8 03 ae bf d9 ed 87 46 ec e9 af bf
       -0.05862309189875112 -0.06233156548475067
000200 53 0e 07 a4 ca 52 91 bf 09 73 f0 bd e8 0f a4 bf
       -0.016917387258003135 -0.03918387716860223
000210 d6 7f 8e 77 35 d6 a5 bf fc 18 0f e8 fe 3d 96 bf
       -0.04264990887099855 -0.02172086993575649
000220 41 5a 5d d0 43 9e 90 3f 08 0e da ef 3a d9 93 bf
       0.01622873267418812 -0.01938335503520075
000230 e1 02 52 60 75 b4 ab bf 9a ff a2 df 06 d1 b4 bf
       -0.05411116410050965 -0.08131449661141091
000240 60 14 bd 9f df 48 52 bf 58 30 f8 af bb e7 8a bf
       -0.0011160072162550647 -0.013137308414137447
000250 0d e7 96 a8 4b 3d a5 3f a9 e7 72 47 d1 95 ab bf
       0.041483272866981925 -0.05387739178827584
000260 29 0e c7 d7 40 63 a0 3f cf b3 f1 82 dd 2f b2 bf
       0.03200724252704063 -0.07104286620024357
000270 1a 67 65 ec 04 4d b7 bf fe 03 c1 f5 28 00 61 3f
       -0.09101897021664876 0.002075271606401418
000280 8d a1 de c0 cb a2 8b bf 15 ef e2 70 15 2b b7 bf
       -0.01349410230962247 -0.09050115591065507
000290 56 68 56 fc 1d 14 99 bf a2 15 02 68 fd 13 a8 bf
       -0.024490803266964477 -0.04702751059179923
0002a0 8f 9f a9 40 61 d3 b6 bf dc f0 b8 ed 9e aa 87 3f
       -0.08916290119816338 0.011555902127945598
0002b0 b6 4c bd e4 43 45 97 bf 13 f3 1c fc 26 10 b5 bf
       -0.02272516330351656 -0.08227771430115309
0002c0 6b 6c 29 69 33 6d c3 bf 28 75 eb a9 d9 26 7d bf
       -0.15177004465917618 -0.007117128609676095
0002d0 69 35 8b da 38 22 b2 3f 91 41 50 cd 35 f6 ae bf
       0.07083468757192225 -0.06047218447941128
0002e0 6f fa 98 bf fe 03 b0 bf 8c 9f b6 70 ec f1 b4 bf
       -0.0625609605567463 -0.08181646110335644
0002f0 ac 55 97 8f 75 d1 b4 bf 32 b7 aa ea b3 3d 97 3f
       -0.08132109408992133 0.022696315000465712
000300 cd d9 73 c5 b0 e4 c3 bf 81 b8 2f d7 d0 50 ab bf
       -0.1554165805934659 -0.053350950496551704
000310 4f f7 37 54 da 4d b3 bf 4b 6e 43 05 ba f4 c6 bf
       -0.07540669017904843 -0.17934346444131885
000320 cf d0 08 3f 21 b0 b8 3f 60 3a f6 64 30 b0 bd 3f
       0.09643752850462593 0.11596968140495667
000330 03 90 cd 16 5b 21 ae 3f a5 61 69 2f 38 e1 a0 3f
       0.058848234685484634 0.03296828821902701
000340 8f 67 f8 b3 63 75 c0 3f b1 fa 04 0e 54 fe c0 3f
       0.12858244216550616 0.13276148495238752
000350 86 f1 59 84 62 d2 9f 3f 38 2c 58 11 66 db b6 3f
       0.03107599194344026 0.08928525851676816
000360 ef 02 a1 bc 4e 3d b4 3f 96 d8 38 b0 d1 26 92 bf
       0.07906047921370506 -0.017726208096256878
000370 cb b5 16 1d e8 53 ac 3f 27 75 47 7b ad f7 be 3f
       0.0553276572712594 0.12096676120514314
000380 5c 20 fa a4 47 8c 7a bf 01 bb a3 66 24 26 a4 bf
       -0.006481437550640203 -0.03935350182461229
000390 30 7e 16 37 cb d4 b8 3f ce 2d 76 1b 95 a7 ba 3f
       0.096996975850282 0.10411960525941952
0003a0 80 c8 88 27 da a0 b5 3f c5 c9 e6 5a 60 b1 ab 3f
       0.08448565926735974 0.05408764943730974
0003b0 1c 03 b4 8f 4b 87 a0 bf ba c7 e6 a2 6c a5 75 3f
       -0.032282220165148895 0.005284714089087867
0003c0 a8 72 1f db f4 79 a7 3f ef 9f fa 2b 1e 65 a6 bf
       0.045852329014200166 -0.043740218037157656
0003d0 d1 cb a4 0b 36 3f b0 3f 44 29 bf 82 56 b3 43 bf
       0.06346452507277368 -0.0006012127319022027
0003e0 f6 4d 39 27 57 f1 af bf 90 79 f6 77 e9 e8 ab bf
       -0.062388156450335616 -0.05451135243787342
0003f0 e1 d6 e8 01 6e cf b2 3f 03 90 5b 56 9b 59 a6 bf
       0.07347762629145961 -0.043652395526606845
000400 24 18 a7 2b e6 82 9e 3f e8 f5 7d 00 9e 25 6c 3f
       0.0297962154525281 0.003435906026367109
000410 d8 27 22 cc 03 02 75 3f ea 81 30 63 b2 65 b0 bf
       0.005128874620035938 -0.06405177041643353
000420 60 5c 5f 74 d1 62 87 3f 71 42 f6 5b 01 0a ab 3f
       0.011418949474245987 0.052810709453415046
000430 7d 10 95 26 b3 62 a5 bf 6f f7 1f e3 68 a2 8e 3f
       -0.04176864477133877 0.014958209449101393
000440 e1 e7 23 55 0a 59 98 3f c5 07 86 8b dc 4a b7 bf
       0.02377716202406777 -0.09098604589783495
000450 61 69 d4 25 5f 65 be bf d0 e8 c1 89 ea 4d 87 3f
       -0.11873430894448724 0.011379082039855964
000460 7a 4a a0 e1 e4 5c ab 3f ce ec fc 52 e9 1f a4 bf
       0.05344310049271868 -0.039305964832658455
000470 b2 65 54 78 6e 6d 98 3f 04 82 20 df 43 fd b8 bf
       0.02385494813379347 -0.09761451909481172
000480 d8 f8 ef 37 05 43 34 bf fd f8 f8 2a 8c 85 a8 bf
       -0.00030917050747793 -0.04789388680045368
000490 1b 0e a9 b6 89 21 bb bf 36 80 c2 55 72 69 6e bf
       -0.10598049840432859 -0.0037123902421427836
0004a0 5b 37 ac cd 9a e1 79 bf e2 b5 0f a0 5d 8b c3 bf
       -0.006318669033829351 -0.1526906043576864
0004b0 2d 49 09 70 71 6a b4 bf fe 01 a6 2a 16 a6 af bf
       -0.07974919305096213 -0.061814015108215145
0004c0 5a 78 11 a5 26 86 a4 3f 0f 17 fd 1b 8f d8 b2 3f
       0.040085990571910826 0.07361692841831434
0004d0 e7 c1 1f 21 5c 81 ae 3f ea 1a e6 d1 0f c0 a2 bf
       0.059580687564338146 -0.03662156522027778
0004e0 4e 15 d1 99 6b a1 b2 bf 23 54 9b 29 81 45 b3 3f
       -0.07277557854930203 0.07527930513181551
0004f0 7b 9a bb 5a 30 47 a8 3f e2 f3 85 5e 7f a5 95 bf
       0.04741812808588449 -0.02113913549827718
000500 e5 21 3d 8f a8 9f b5 bf a1 fb 53 f6 c5 15 8c bf
       -0.0844674443916414 -0.013713404254756702
000510 04 84 24 6e 1f c2 ab 3f 4a 6d f0 b2 4c 8a a6 3f
       0.05421541423334733 0.04402389225307475
000520 a4 d0 50 87 10 69 70 3f 0a 1b 06 a4 e8 c8 9b 3f
       0.0040064473769697885 0.02713359356996662
000530 74 bb 0d 09 38 8b 86 3f bb 75 80 83 42 b2 aa 3f
       0.011007726455970014 0.05214126448866404
000540 cb a5 70 8b 6d fe a4 3f 07 82 39 58 28 b3 86 3f
       0.041003630897033704 0.011083903496172288
000550 e7 3b 94 77 92 30 a5 bf 60 6c 15 62 98 b9 89 bf
       -0.04138620099740092 -0.012561026089931981
000560 d3 12 3a 1a 73 ed b0 3f 36 ff 2e 99 b8 d3 bb 3f
       0.06612319364837597 0.1086993574126581
000570 7b 9c 5e bb 5c e3 ac 3f f9 10 8c be 60 74 a0 bf
       0.056422136184942816 -0.032137892971180144
000580 44 61 0e dd 98 b0 8e 3f 59 00 9c 5a 68 19 9a 3f
       0.014985269781207074 0.02548754742656487
000590 da 06 1e e4 81 bf b1 3f 34 e1 c2 c5 c8 c5 bc 3f
       0.06932842082280946 0.11239294841914643
0005a0 a9 09 9e cf ae ea 9c 3f 57 58 a4 ad d4 f3 ab bf
       0.02823899404712341 -0.054594656178026106
0005b0 37 b3 f5 a4 0b 5d bb 3f d2 50 8d 72 40 68 97 3f
       0.10688851144159349 0.02285862635774622
0005c0 31 5e 26 b9 17 0a 74 3f f6 fa 19 b3 60 32 b3 bf
       0.004892437619126209 -0.07498745319933761
0005d0 81 a1 23 c5 8e 68 a6 bf c3 2c 2c ff 8b c8 9a 3f
       -0.0437664619110505 0.026155650567528676
0005e0 2e 7b 4e 75 3e e0 b0 3f 90 e1 ec 7f a2 e6 b2 3f
       0.06592169155053959 0.07383170722176247
0005f0 73 d0 1e fd 0e 87 b8 3f d8 64 10 d7 71 d7 93 bf
       0.0958108299226426 -0.019376543761698922
000600 02 a7 a7 4f a0 fa a1 3f 83 b3 d2 f9 09 29 a9 3f
       0.03511525127744443 0.049141227479913695
000610 88 a9 ec 5f 2c 1b b4 3f 3d fe 38 f0 f2 44 94 3f
       0.07853963224321181 0.019794269477868765
000620 c4 9b 2a 9b d8 04 8c bf 90 e1 db 4f 62 6e a9 3f
       -0.013681118235877927 0.04967028832283227
000630 e4 24 8f cc 87 89 a4 3f ed 76 ac 44 59 71 b5 3f
       0.040111774178123644 0.08376081396678688
000640 93 82 7e 0c e8 10 c2 bf e9 f4 14 d2 14 f1 bf bf
       -0.14114094362323168 -0.12477235917045316
000650 fb 1c 43 68 2a ca b6 bf 0d 14 60 c4 c4 71 9c bf
       -0.08902230306113161 -0.02777774284915684
000660 97 b4 83 24 10 b8 8f 3f af 1b ad ca fd 9d c2 bf
       0.015487791170438121 -0.14544651409434325
000670 e3 81 4a f2 e2 c4 c1 bf f1 ba 57 5d d5 2e 68 bf
       -0.13882099943749812 -0.0029520194318516314
000680 b3 16 8e 24 5c 6b a0 bf 2b 82 a3 03 5a bf ae bf
       -0.03206909128406945 -0.06005364698808465
000690 9f a2 1d 37 fa bf c5 bf 4e 68 d7 c5 51 76 b7 bf
       -0.16992118540953968 -0.09164916114915053
0006a0 24 59 21 80 1a a8 a5 bf 01 1c 9c 48 5d 0d 87 bf
       -0.04229815305795828 -0.011255959299445452
0006b0 56 ce bd 63 4d c9 ac bf 9a 9c 79 91 c1 60 81 bf
       -0.05622331469103574 -0.008485328914686275
0006c0 4e d0 b1 ff 77 ae b7 bf 92 47 b3 06 53 56 b5 bf
       -0.09250593178313801 -0.08334845460492904
0006d0 63 ca a2 05 3f 79 b0 bf 90 b3 af 2b f3 1d b2 bf
       -0.06435006988139373 -0.0707694989830101
0006e0 b3 da 88 60 90 36 bb bf ec d1 61 44 a9 50 ba bf
       -0.1063013301544327 -0.10279329223141759
0006f0 8e 08 68 b4 ef d3 a8 bf 5c 9b 43 1f ff 76 7e bf
       -0.04849194600321126 -0.007437702723314423
000700 4d 39 15 56 89 ab a7 bf 46 dd e6 2f 07 fc 96 bf
       -0.04623059440438002 -0.022445785807318396
000710 af 8c a8 fb 5f c4 a8 3f bd 91 34 7a 83 13 b0 bf
       0.04837322184564507 -0.06279775365380309
000720 2e 4a 09 ed f0 25 98 3f e0 bc 79 54 d9 5c 9d 3f
       0.023582233874842533 0.02867450311754005
000730 ae fa 97 27 7b 8d 9f bf f0 3a 3e ed 8d a1 87 3f
       -0.030813144961934817 0.011538609316429554
000740 3a 3c ca 01 8a 11 82 bf 82 34 5d 53 f3 b0 7b bf
       -0.008822515658975506 -0.006760550013337087
000750 70 26 3d 85 da 92 ae bf 58 5e 5c d5 3b a6 47 3f
       -0.05971415401888869 0.0007217209010574417
000760 8e 20 0d ca 8d 04 b6 bf f3 8b 2c 3b 13 31 c7 bf
       -0.08600698645489244 -0.18118515385967235
000770 0e 97 f0 0a d0 80 bf bf fa e8 f1 16 57 92 b1 bf
       -0.1230592753132351 -0.06863922414951054
000780 cc 87 13 e2 68 98 74 3f ff bd 38 76 e9 ff ad bf
       0.00502816171612781 -0.05859307830939641
000790 44 09 5a 2d c1 70 a4 bf 0a 9c 09 42 68 ec 8c 3f
       -0.03992274931535403 0.014122786059671117
0007a0 8c 26 7d dc ea a5 a1 3f b4 27 82 f7 c6 91 ac bf
       0.034468974509377664 -0.05579969188063619
0007b0 9f 02 93 a3 a2 30 c0 bf 47 1c 39 cc 97 ba b5 bf
       -0.12648423182510712 -0.08487843261637905
0007c0 11 73 94 da 3f d0 91 3f 00 9a 34 43 0a a1 9d 3f
       0.017395971027428795 0.028934631683251055
0007d0 f2 bc ee fe 75 5d a4 bf ae d5 65 8b 5b fc b5 3f
       -0.03977555024118286 0.08588192132250214
0007e0 e4 24 07 33 15 a6 6f 3f 7e 9a 6f 29 b7 7c a1 3f
       0.0038633741425867386 0.03415462857065153
0007f0 a7 af 07 aa 22 1e a8 3f d1 13 70 0d 7f 2b b3 bf
       0.047104914908998645 -0.07488245084830615
