dogs/pair-data/Boxer/Golden Retriever/weights/fcn-2-W_fcn-2.weights.npy (npy, 1680 bytes, 1 tensors)

array f8 [2, 100]
000000 f7 08 20 a3 13 8d d4 bf 7a 2c 0a 35 a3 d0 d0 3f
       -0.3211106389063753 0.26273422412550185
000010 a3 20 05 87 f3 0f bb 3f dc 3a ff cf 2c d8 d8 bf
       0.10571214720141824 -0.38819427787977445
000020 79 51 86 a1 6c 24 c8 bf 22 ab b7 69 28 d7 ac 3f
       -0.18861158263156222 0.05632902422424581
000030 04 5f f3 10 7b 5d d5 3f 01 48 67 62 97 e0 c7 bf
       0.3338306108030198 -0.18654148392539585
000040 f8 f5 a1 a2 10 1f d8 bf 7e 6c f5 4f f4 6f d2 bf
       -0.3768960560044827 -0.28808315094438075
000050 05 3d ec 92 4d 96 c0 3f 47 94 55 4c c5 f5 aa 3f
       0.12958688425030843 0.052656331604148
000060 a9 51 87 bf 58 c9 d0 bf 27 20 9d 4c d2 b1 d3 3f
       -0.2622892256161103 0.3077283619099966
000070 cc 76 03 d4 28 cf d1 bf 2e e8 88 e4 79 9c c8 bf
       -0.278269011539902 -0.19227527293134145
000080 41 5a a5 d4 5f 64 cc 3f bb 8d cf ec 4f 93 d6 3f
       0.22181318171597478 0.35274122358370236
000090 d6 e9 3f 23 7e 82 d1 bf 15 c8 05 63 61 ed d5 3f
       -0.2735896438822726 0.34261355085539097
0000a0 36 de 65 ec de c3 c4 bf cf 1f a9 b9 45 e5 d3 bf
       -0.1622275022780159 -0.31086867457315476
0000b0 35 46 0f fc 75 ae d3 3f 50 6b e1 d2 a3 0c c8 bf
       0.30752324691011107 -0.18788574025060223
0000c0 cc 27 18 75 c6 6d b2 bf ba 3f bd 04 1a 00 df 3f
       -0.0719875369906326 0.48438120329683054
0000d0 05 1b 0c 9e 20 a3 d2 3f 91 34 76 70 88 a2 cd bf
       0.29120650705628776 -0.23152261248870734
0000e0 db 09 25 ce 1d e7 d3 bf 45 38 37 7b e4 72 d0 bf
       -0.3109812272197396 -0.2570124820021003
0000f0 34 62 74 36 ff ad d8 3f 5c 35 18 83 3e ef 88 3f
       0.385619929483741 0.012175072074593167
000100 ec 03 ac 6e 91 46 db 3f 6b 1b 5b 10 e3 22 ba bf
       0.426182134702741 -0.10209483289064074
000110 b6 4e 90 53 04 aa d3 bf 74 f6 f6 3e 67 ce c8 bf
       -0.3072520080615776 -0.1937989289707961
000120 c2 7b 3b 9b d1 ff d0 bf a9 02 47 26 54 26 a6 bf
       -0.26561393889818075 -0.04326117484334208
000130 da cd 52 67 54 cb d6 3f 2b 6f e2 8e 40 9d c6 3f
       0.3561602601068593 0.17667395569594055
000140 ac 82 b6 b2 57 8d d1 3f fd 0f 82 d3 63 cb 67 3f
       0.2742518658870192 0.002904601071408662
000150 44 29 fe dd 1e 28 cc bf 6f 35 f8 01 64 80 bb bf
       -0.21997438277714754 -0.1074278359230527
000160 03 c8 0a f7 16 e2 db bf 6f 75 18 e2 e1 6d d5 bf
       -0.4356744205971383 -0.33483168677943004
000170 58 49 c2 32 ef 99 b3 3f 6c 15 37 a4 a7 4d 9b bf
       0.07656760205489854 -0.026663417241953466
000180 a2 64 89 46 4e 9a d0 bf 23 d7 18 82 7e 79 d2 bf
       -0.2594180764040833 -0.28866541580952026
000190 c1 dc 7d 92 2a 43 d3 bf a4 47 d5 2b 99 10 c6 bf
       -0.3009745054800526 -0.1723815406826904
0001a0 53 c3 a0 dc 9d f8 d2 bf 48 0b 09 68 c3 bc d1 3f
       -0.2964243559427377 0.2771461978883747
0001b0 23 6b f0 b4 ea b6 d2 3f 22 db 19 f0 67 77 d9 bf
       0.2924143568977106 -0.3979129643188789
0001c0 d3 9f ed 40 f5 c9 de 3f 21 cb ef df 85 e7 c8 bf
       0.4810765394272469 -0.1945655196610341
0001d0 fe 1b 67 b5 5e b6 d9 3f bf 13 bc 53 92 70 d5 bf
       0.40175597872843116 -0.33499582459654315
0001e0 17 b0 98 ec b8 39 dc bf d9 f7 08 52 34 01 d1 bf
       -0.44102309327240746 -0.26569850932344036
0001f0 b6 96 25 2f 32 94 d2 3f 96 4a ad 9e 79 f0 dc 3f
       0.29029516796286303 0.45217743392746834
000200 1b 9e 1e 08 69 48 d5 3f 22 10 f3 93 e8 5d d4 3f
       0.33254457276277244 0.31823172043027814
000210 03 62 3e f7 64 17 e3 bf 4f 5d 21 ac 4b bc d2 3f
       -0.5966057614305672 0.29274265107729475
000220 ff db 4a 6f 78 60 bd 3f 38 b7 5b fb 77 51 d3 3f
       0.11475327221965868 0.3018474535627891
000230 bd 54 b6 0a 64 1a d2 bf 30 2d 10 49 af 09 d1 3f
       -0.28286076589695225 0.26621610770299053
000240 b4 4d 1c 97 ad 3e d6 3f 7f 99 38 c0 a9 d0 d4 3f
       0.34757556683436097 0.3252357842597106
000250 13 36 05 8b 82 c7 c5 3f e9 29 06 35 68 5e be 3f
       0.1701510599909147 0.11862803740056162
000260 53 43 10 35 5a 02 d6 3f a7 d9 7a ab 17 06 c1 bf
       0.34389357740388 -0.13299842713395302
000270 b5 90 76 16 6d 90 a5 bf 29 25 82 42 f5 d5 d9 3f
       -0.04211750888069458 0.40368396277388513
000280 a1 5a 8a 13 ce ea ac bf 4c 08 99 3d ba 28 d9 3f
       -0.056478919873531604 0.3931108094731186
000290 3d e1 60 87 b8 6d cb 3f 4d 80 83 89 74 25 cc bf
       0.21428591356539953 -0.2198930427030085
0002a0 70 ff 32 73 b6 63 d7 3f 8d 3a 01 fc 85 9b 9c 3f
       0.3654609799377715 0.027937024599220584
0002b0 67 1a d9 49 63 fd db bf 57 5a b8 9b 91 bd b9 3f
       -0.4373405667469456 0.10054884006272267
0002c0 1e b1 51 2e b0 3a 9a bf 27 46 5f 0f 4b 01 b8 bf
       -0.02561450274190335 -0.09376973271653154
0002d0 af 60 3f c1 84 fc d2 3f 8d a9 2f fe c2 1f c1 bf
       0.29666251060326493 -0.13378178988871206
0002e0 eb bf ab 16 ad 14 d1 3f f3 90 f3 30 31 ff c1 3f
       0.2668869706531029 0.14060034647184913
0002f0 63 98 65 1f 75 d8 d0 bf 43 75 08 51 89 7a ce bf
       -0.2632115179643561 -0.23811451393786784
000300 1c 69 cf 7e eb d8 d2 3f 08 3c 66 ff b2 8f d3 bf
       0.2944897402172886 -0.30564570371001354
000310 58 32 4a 15 17 d6 bd 3f 19 85 a1 85 62 94 d1 bf
       0.11654800672312982 -0.2746816925992604
000320 ed d8 35 e1 56 83 d6 3f e9 6f 1e 53 eb f0 d5 bf
       0.3517663192100276 -0.34282954327659226
000330 b7 d3 67 e1 ce 0f 93 3f 8a 4b 13 63 5e 98 d0 3f
       0.018614990718521542 0.2592998473675655
000340 54 a1 f2 3a 27 86 c9 3f 15 c4 8b 11 a6 4c 5a bf
       0.19940653208073889 -0.0016051885378909382
000350 22 bf db ca 94 30 d8 bf 95 7d b5 41 c3 ca b0 3f
       -0.3779651623763006 0.06559391359541274
000360 a0 c9 80 11 de 24 d3 3f 16 70 b4 65 4d 87 d5 3f
       0.29912521085057087 0.3363831990443499
000370 84 d5 7f 02 48 f4 c0 bf 0b 50 9b 25 c1 13 9c bf
       -0.132454873295199 -0.027419107361154754
000380 09 58 60 75 7d 71 d5 3f 3b e9 20 7c fc 74 d6 bf
       0.33505188429387595 -0.35089027521066257
000390 96 5e 93 6f 49 af d6 3f 17 40 0c 40 5a d7 b0 3f
       0.35444866081295723 0.06578601897877011
0003a0 e9 2b 42 e6 32 37 cb bf cf 1a cb 62 d1 0d d9 bf
       -0.21262203448381392 -0.3914683785227852
0003b0 7f 4c 08 fc d2 6f c9 3f 4f 89 c9 df ea 23 d5 bf
       0.19872510248442052 -0.3303172288343789
0003c0 3d 15 9c e2 56 de d0 3f cc 8c da a0 bd ec d3 3f
       0.2635705197320311 0.31132450779314236
0003d0 19 d2 b3 80 d2 13 d2 bf a8 a3 37 fd 9e 51 c2 3f
       -0.28245985573383475 0.14311587680938698
0003e0 5a 4c 8b 5f 27 d4 c2 3f b3 bd 9d fc 08 0c df bf
       0.1470994202159968 -0.4851095644907801
0003f0 6d 79 86 4c 69 26 d3 bf 17 bf b6 5a be 06 d3 3f
       -0.29921944115803606 0.2972865949513887
000400 4b c5 0a 07 58 97 d1 3f a9 da 31 c8 d7 5a d3 3f
       0.27486229598715245 0.30241961050289007
000410 6c 7f 92 09 16 ca da bf a3 c0 45 0e d0 ba bc 3f
       -0.4185843556860991 0.11222553585480681
000420 66 9b 5c a2 9d ca d6 bf ae d6 74 01 70 1f a2 3f
       -0.35611668449057843 0.035396099260123534
000430 50 ac ed 1e 62 f8 d0 3f 8f 2f 59 15 41 31 cf 3f
       0.2651601125750789 0.24369061987306082
000440 fc 8a 51 2f 6a 51 d0 3f ec 2b 0f 19 86 c0 9b 3f
       0.25496916409444714 0.027101607589241114
000450 11 77 e5 53 c6 7d d2 bf ae c4 eb 73 a5 c9 c2 bf
       -0.288926679544475 -0.14677875671580892
000460 2c 33 79 e3 06 39 d0 bf 27 ff 0d 82 fb 3d c0 bf
       -0.2534806462688717 -0.12689155435872942
000470 8e 15 6f e4 61 ac bc 3f 38 63 17 26 93 de bb 3f
       0.11200534655571046 0.10886497192349232
000480 f6 42 19 e0 d3 46 df 3f a7 c5 b4 1c ef a1 d3 3f
       0.4886979759658482 0.30675866893133236
000490 10 5a 30 9f 08 a5 b9 bf 08 59 a6 98 bf ff 9b 3f
       -0.10017446409651876 0.027342790309909965
0004a0 35 30 b9 a5 dd 59 c7 3f cb 26 66 b4 76 49 d3 3f
       0.1824299868770837 0.30135886780827253
0004b0 45 26 ff 4d e8 e8 d2 3f 1a 0f b2 cd 50 e5 c2 3f
       0.29546554200041825 0.14762315791824038
0004c0 67 e2 f4 ca b5 3a d1 3f a6 df 63 21 45 91 d1 bf
       0.26920838184336165 -0.2744915796351911
0004d0 c8 9d 1c af c6 61 d5 bf 4a b3 8f 9e 5f 7d db 3f
       -0.3340927801204683 0.42952719196801026
0004e0 f8 1f 88 7c a0 db dd bf 6f 27 64 77 de c8 d0 3f
       -0.4665299621706249 0.2622600713663052
0004f0 b9 1f 75 25 c3 f1 d5 bf 2d e8 3f 49 eb df d3 3f
       -0.3428809991642044 0.3105419364288789
000500 43 7a ad 14 0d ae d5 3f 9d c0 42 8e 31 2f cd 3f
       0.3387482358865876 0.2280027336723877
000510 03 2f 6a 1d cd 0f d5 bf 81 17 96 d6 70 f1 da bf
       -0.3290894305471143 -0.4209863753861712
000520 f7 e4 f4 dd e7 e3 d7 bf 1d f2 b9 05 0b a2 d4 bf
       -0.37328526187373207 -0.3223903232499497
000530 93 dc 1f 20 e2 e4 e1 3f 11 82 3e 95 0e 21 c8 bf
       0.5591898562842225 -0.18850881850541204
000540 93 75 b1 8a cc ba c2 bf ef 42 53 18 7f 95 d5 bf
       -0.14632565281037255 -0.3372495400954411
000550 45 46 8d 67 34 cb d6 3f 22 5e bb 4e 5f a0 c6 bf
       0.35615263092504207 -0.1767691740449076
000560 6b 3a 4d f3 3b 94 d9 bf c8 93 29 1b 24 5e d3 bf
       -0.39967249641350716 -0.3026209130533144
000570 cb 68 7c 61 35 bb b5 bf f2 91 4c f6 04 5f c4 bf
       -0.08488782529858267 -0.15914976145099008
000580 2f 22 dd a9 68 20 d8 bf 50 7a a9 d7 20 68 bc 3f
       -0.37697807873022077 0.11096387162386034
000590 c3 14 48 49 43 1f a1 bf 20 6e ea eb 09 23 dc bf
       -0.03344164151716591 -0.43963859594961896
0005a0 08 a4 35 e2 47 4a b0 3f 6a c4 ae b7 fd 98 d4 bf
       0.0636334349889155 -0.3218378347183434
0005b0 1a 62 0b 10 e1 af c9 bf bb 5b a5 24 a7 8c d0 3f
       -0.20067990573331046 0.2585847719068927
0005c0 9d 9e 00 24 2b 43 d2 bf 9b 9e 23 fe d8 d3 c2 bf
       -0.2853496409975181 -0.14709007653367653
0005d0 43 ca 61 bb 20 a3 d6 3f d8 ef da 7a 1e b4 c6 bf
       0.35370653437636096 -0.17737179755010746
0005e0 fb 04 a9 2c 0e 0b c2 3f 37 48 76 12 4c 7c 98 bf
       0.14096238308596995 -0.023911656023820362
0005f0 f0 70 1a 4f a0 ef cd bf c2 a4 cf ed c2 fa c5 3f
       -0.23387531149354102 0.17171513187284942
000600 d8 5b 37 95 50 8d c9 bf 95 80 96 d3 31 3d ba bf
       -0.19962508474301788 -0.10249625602455333
000610 23 f4 0c 21 8d 15 d0 3f 2c a1 d8 6d b8 13 c9 3f
       0.2513153860816734 0.19591431964477957
000620 71 b5 8e 18 aa 79 d3 bf b2 d3 cc 88 ce e5 c9 3f
       -0.3043008079356105 0.20232564620678556
000630 7c 17 69 19 6d 4f af bf 5e 96 11 79 42 8f ce 3f
       -0.06115284857928224 0.23874693786199236
