dogs/pair-data/Boxer/Golden Retriever/weights/fcn-1-W_fcn-1.weights.npy (npy, 320080 bytes, 1 tensors)

array f8 [100, 400]
0	0x3f97a7972fbf9f35	0.023100244798029485
1	0xbfa1f3041e5aad21	-0.035057190614077756
2	0xbf91088a5f9b5483	-0.01663414200341552
3	0xbfa44f381bdaf92e	-0.039666894340813705
4	0xbf88e75178290d3e	-0.012159954528334734
5	0x3fb2d81efdd86308	0.07361024567979879
6	0x3f6fc009508f1be9	0.0038757497718253553
7	0xbf9061176b63d193	-0.015995374612388934
8	0xbfa9967656737cb9	-0.04997606091796442
9	0x3fa2a760d87c4b31	0.03643324511189972
10	0x3f9970c7bde0b256	0.024844284977165586
11	0xbf7c6a23bdb27d74	-0.006937160123157472
12	0x3f91d9ac1349ead9	0.01743191592911839
13	0xbfafab3a96eb75b6	-0.061853247568915234
14	0x3fb1fc96483d3b42	0.07026042235996235
15	0xbf9666e447873e1b	-0.02187687574934048
16	0xbfab5b3d3694f10d	-0.05343047419816758
17	0xbf844df53835fc83	-0.009914317872924855
18	0xbf566217d26a8820	-0.0013661606441606258
19	0x3fb2eb4ec8049fe5	0.07390301116231475
20	0xbfa2e30eee9f0dfc	-0.03688856757028344
21	0x3f80a9e3c06f0d6a	0.008136538801301458
22	0xbf80fa19f536d03c	-0.008289530559388074
23	0x3f85ee909435e5e3	0.010708932421709732
24	0xbf4f0589d4df5a40	-0.0009467051511318839
25	0xbf94ea1012d12693	-0.020424128674028607
26	0xbfa379056b1e38eb	-0.03803269322007615
27	0xbfa3ce20f45b00e4	-0.03868201239447602
28	0x3f806969d3bcedc5	0.008013560079794932
29	0xbf95d75a10f55f81	-0.02132931450373077
30	0xbf939d1efaa2fb1c	-0.019154056594511734
31	0xbfaa3378f65a84bf	-0.05117395407911251
32	0xbf9afe16de7d5623	-0.02635989888161395
33	0xbf7d4611fdb0b28a	-0.0071469023487621495
34	0xbf9e462d8fcf0da8	-0.029564582731621464
35	0x3faac5af20e73ae9	0.05228945995951568
36	0x3fabd90612bc0d2e	0.05439013460820728
37	0xbfb4abbe1d8c4e26	-0.08074558469189039
38	0xbf2c7b3d5f7f24de	-0.00021729587729016944
39	0xbf8d84dd38126d9b	-0.014413574479752713
40	0x3f9e96efd99398fd	0.02987265363199131
41	0x3fb0e2c32df11fec	0.0659601199305368
42	0xbf7cc14e9573493c	-0.00702028939049831
43	0x3fa11eccd5d766d8	0.03343811140412151
44	0x3f9a152a2faf0cef	0.02547136226691021
45	0x3f96c84f262cb3ce	0.02224849386691457
46	0xbf9a75358ca30efe	-0.02583774252776915
47	0xbf694a42937305ab	-0.0030871677696217756
48	0xbf9f84667a2a42e4	-0.03077850456844801
49	0x3fa00185a0b67c0e	0.03126161181284469
50	0xbf81bc70d4ec4f66	-0.008660203454873016
51	0xbf8165b9e7a7a928	-0.008494808561370151
52	0xbfa841e516cc32e9	-0.04737773803035401
53	0x3f75c53d9435c275	0.0053150563647795706
54	0x3f9e0c61207690c5	0.029344098669427127
55	0x3f9107f7727543ec	0.016631952630010646
56	0x3faf6fea60eae87f	0.06140072281910224
57	0x3fa10d5b2d525fe4	0.03330502441639263
58	0x3fa5ca08766dfe2b	0.04255701490091853
59	0x3f9e0819cb156f66	0.0293277769281838
60	0xbfa49ddc440bf850	-0.04026687937401674
61	0x3f96541ac140d34f	0.02180520824932169
62	0xbf8ebfe5115d1a18	-0.015014447777173465
63	0xbfa97068a9ed2c4c	-0.04968573641107152
64	0x3fa68eaa0b1f8e33	0.04405719171316171
65	0xbfb023e4d07330c6	-0.06304769600973534
66	0x3f91e488929e1ce5	0.01747334856875406
67	0x3f8ae18e37297cf0	0.013125525530254895
68	0xbf937bfee84133c2	-0.019027693677617703
69	0x3fa4c0adcf480262	0.04053252368249073
70	0xbfa60bfefb6cda37	-0.043060272399476344
71	0xbfa39ecb19f47282	-0.03832087222892701
72	0x3f81d9b385f86e20	0.008716013456299854
73	0xbfa0bb6c391166ef	-0.03267992207174852
74	0x3fb2244f5ee6fef5	0.07086654726935733
75	0x3fa71621c1b51ddf	0.04509072770684574
76	0xbf722a80b233226a	-0.004435065001594832
77	0xbf9222c28f548185	-0.017710723875212792
78	0xbf8e0e94adaecfe3	-0.014676248121624219
79	0xbfa2bf3b532e557e	-0.03661523237603158
80	0xbfa1572405ac5dd5	-0.03386795586828454
81	0x3f9c0524d34dca8a	0.02736337222763522
82	0xbf9b3e985d17eda2	-0.026605969125723335
83	0x3fa245a9a3592a4c	0.03568773383138488
84	0x3fb8277f4a4ab1c0	0.09435267986072571
85	0x3faba64a9a61b4a6	0.05400307783643514
86	0xbf662b2c0be22889	-0.002706132915652641
87	0x3f734547cab098a8	0.004704742847968436
88	0xbf70231736db08d0	-0.003939715081005171
89	0xbf9abe458ec71751	-0.026116453971347046
90	0xbf8ab5c09d5e946d	-0.01304197769406753
91	0xbfaa07617c2ba46b	-0.050837561042336464
92	0xbf98531a5ca68ebc	-0.023754512696213523
93	0xbfa6f4bf42a2ef4d	-0.044836022266706445
94	0x3fa0af306043254d	0.03258658576084859
95	0xbfae711738efb425	-0.05945656366370881
96	0xbfad19bed2b8c215	-0.05683704683577077
97	0xbf949768596da9db	-0.02010882421328995
98	0x3fb14305db16f034	0.0674289379011846
99	0x3f961036de190a10	0.02154622774674847
100	0xbf8aadfada0742fb	-0.013027152804086386
101	0xbfa1e8b511e1955d	-0.03497854083324612
102	0xbfa38912a0425461	-0.03815515714919893
103	0x3fab5e44f424658a	0.05345359306574966
104	0x3f985474ee46dbee	0.023759676974545778
105	0x3fad212022476431	0.056893352684433636
106	0xbf55389cdaa9e9a2	-0.0012952358034953111
107	0xbfad33f55a41bafc	-0.05703703619734843
108	0xbf92e4f4b37608b2	-0.01845152230590292
109	0xbf79ef99a45a1f48	-0.006332016147673709
110	0xbf8be383971d7493	-0.013617542313733721
111	0xbf869ed4bdd22328	-0.011045133631584728
112	0xbf9216cf75e1248b	-0.017665139741698737
113	0xbf6b554c2a5c1914	-0.0033365714651864085
114	0xbfac0ee663cccafc	-0.05480117767583256
115	0x3f807a3a6f086e3c	0.008045631898361376
116	0xbf89d3f2f20b8df8	-0.012611291896468466
117	0x3fad7bd19f81c8da	0.05758528778177814
118	0x3f9a32c87dd1807e	0.025584347419112856
119	0x3f939fe93a209e4f	0.01916469971925344
120	0x3f9d97ea4e057611	0.02889982320026802
121	0xbf97811ec43eb116	-0.02295349190505743
122	0x3fad3cb893418d50	0.057103889442056244
123	0x3f90afca0490b603	0.016295582321779644
124	0x3f8eeebf8d8d3210	0.015103813655195558
125	0xbf8af4686e9ed343	-0.01316148364626602
126	0xbfb0f5930df38363	-0.06624716845136684
127	0x3fa4335e38e3561b	0.03945440716203682
128	0xbf945359e2edeb0d	-0.019849209285420822
129	0xbf9e065b3689ca56	-0.029321122363805983
130	0x3f99579f3fff50dc	0.02474831417187394
131	0xbfabf0ad1af5af40	-0.054570588627795846
132	0xbfa4dcd4a46d57c7	-0.040747304031057356
133	0x3f9d59586a42cbb9	0.028661138044025345
134	0xbfb2ebf7d28fbb43	-0.07391308680210522
135	0x3f87a21a6aed09d7	0.011539656055565324
136	0x3fa1a7a90973fafc	0.03448227157968195
137	0xbf8fb50068a7790a	-0.015481951898376884
138	0xbfa953b25fe67fa5	-0.049466680723752966
139	0xbfa80eaa2dd773c1	-0.04698688325490919
140	0x3f9c5aaf94938964	0.027689689105394946
141	0xbf9915b22b2d3998	-0.024496826062483018
142	0xbf720d624be9f97d	-0.004407295199256087
143	0x3f8d1740bff83e47	0.0142045076927665
144	0x3fb31ba82e632018	0.07464076168537337
145	0x3fa732df2553bc7e	0.04530999498990072
146	0xbfa1d67460301b9c	-0.034839283696832285
147	0xbf9e0659d788ad67	-0.02932110193266393
148	0xbfa0faebb63bc7f8	-0.03316437339334749
149	0xbf9fe543020e8a08	-0.031148001671349262
150	0x3f8a64531a2738e5	0.01288666652262944
151	0xbf7ff3832a80722b	-0.007800590865397565
152	0x3f6bc7c1530d784c	0.0033911491267835433
153	0xbf93df93f330b1a4	-0.019407569616463186
154	0xbf6180f49dee2470	-0.00213668610326017
155	0x3fba0470f429fd31	0.1016302677253307
156	0xbfb7762d51502e61	-0.09164698825059638
157	0x3f9d5e092cde0dad	0.028679030765045677
158	0xbf7c26f0c1b75345	-0.006873074012635543
159	0x3f835870da9013e0	0.009446031255729126
160	0x3fae7d9d1ad3a85f	0.059552106404070264
161	0xbfa309eb718bc5fa	-0.037185056315035284
162	0x3fa01da86fe08c79	0.03147627225578104
163	0x3f90b3bb512a90eb	0.016310622052189066
164	0x3fa410f3e1445454	0.03919183850136024
165	0x3fa943a0f80088d6	0.049344091676418664
166	0xbf9cefb20815d1d4	-0.02825811552379938
167	0xbfa554b5986e31d6	-0.041661906106216826
168	0x3fa1d374497bcdcf	0.03481639287010873
169	0xbfb1ef2e1d07cd45	-0.07005584915878156
170	0x3f852fe2a6a4513c	0.010345240316873665
171	0x3f80638c6d123bbb	0.008002373770322415
172	0xbf8401004489d2fc	-0.009767534343362076
173	0x3f7ff6e41f07adf2	0.0078038130745698864
174	0xbfa0ce428812c9b6	-0.03282363806774262
175	0xbf9b4ec022675314	-0.026667596912221717
176	0x3f92f40ba4c150e9	0.018509084635597004
177	0xbfafbc2bde4db6dc	-0.061982508551279486
178	0xbf9723050f830cfd	-0.022594527313015245
179	0xbfa459fb8baba650	-0.03974901275598752
180	0x3f5cce3f840d6627	0.001758157756020737
181	0xbfb0f8c7261abbec	-0.06629604988368926
182	0xbf921b249f773fb4	-0.017681667550106986
183	0x3f85b7e9c93ef727	0.010604692892112034
184	0x3f63cb0a5979f116	0.002416153158092747
185	0x3f97e675476caf24	0.023340065464409268
186	0x3f835ce68565bf33	0.009454537340132773
187	0xbf750dad089e2b75	-0.005139995491741147
188	0x3fb3c4556ae52b3f	0.07721456393953206
189	0x3f70159f58115f3a	0.0039268707633580095
190	0xbf94b8f70f261d7b	-0.020236835765471178
191	0x3f9aeea429cbb596	0.026300969172486775
192	0x3fa9b922ff5e3636	0.050240605995992046
193	0xbf9af3440eda234b	-0.026318610579014117
194	0xbfaa05b7f1ea5b3f	-0.050824878960318724
195	0xbf6ae3f964948da1	-0.0032825346903721663
196	0xbf68a4d7f0c43336	-0.003008291014458565
197	0xbf8fc59c08d5d988	-0.015513628978379726
198	0xbf8b5e50163d8c2a	-0.013363481215213541
199	0x3fa057894e3d7415	0.03191784935072676
200	0xbfaa696d3c4eff97	-0.05158559189976513
201	0xbf954d89e6cd6b0b	-0.02080359908300537
202	0xbf9b22f720f20a67	-0.026500569711524948
203	0x3faa954289a79558	0.051920012763541024
204	0x3f978249ac5a1235	0.02295794596149588
205	0xbf93460b90c68d91	-0.018821888648415778
206	0xbf9021dae8e79968	-0.015754147019742787
207	0xbfa3338f29e57603	-0.03750274073057016
208	0xbfb37e2314193ef9	-0.0761434482640161
209	0x3f8cedf13b742c91	0.014125713946233883
210	0x3fa607a223491851	0.04302698784572157
211	0x3f8a6c85e0c94d37	0.012902303621706508
212	0x3f7d65c90f89741d	0.007177148240399081
213	0x3faa4243c7d28b5f	0.051286810057056036
214	0x3faa2dbb71669400	0.051130158989771246
215	0x3f898d0a1ec4e258	0.012476042808530582
216	0x3f912ea34f72b391	0.016779472087978645
217	0x3f99c84b11d6ff9e	0.025178120578629774
218	0xbfa01ee815a06786	-0.031485798492396674
219	0xbf8d25d469dcccc3	-0.014232310753504845
220	0x3f6b84d337501db9	0.0033592343629640056
221	0xbf9e18de505d9ebd	-0.029391740470059647
222	0x3f99e74971881755	0.025296351961535752
223	0x3f7ad919811c1fa5	0.0065546985877133245
224	0x3fb4f06f724f208e	0.08179375210522918
225	0x3fa4ab186c950c11	0.0403678543612146
226	0x3f61906779898b51	0.0021440526000317335
227	0x3fa9fb9c0c53c5b0	0.050747753624715286
228	0xbf74324e0786a339	-0.00493078689798026
229	0x3f993ea9b832a152	0.024653102748432083
230	0xbf967ae68f4faeee	-0.021953203675294235
231	0xbf29e5294f0864af	-0.00019756440407617734
232	0xbfa1a20db0de8143	-0.03443949493453371
233	0xbfafb120e4a9c1b0	-0.06189825812623739
234	0xbfa452eaf398264c	-0.03969511245311405
235	0x3fadb0fa5a6b20a0	0.05799085954419181
236	0x3f93245fcec9f4a9	0.018693444248573474
237	0x3f75416e9191ffac	0.0051893538558260115
238	0x3f8232837ccad57d	0.008885409589633348
239	0xbfac978c03d17cfb	-0.0558437113438632
240	0xbfa4bea715477721	-0.04051706442599668
241	0xbf94e6278d504f3a	-0.02040921974192076
242	0x3fa9da32ca0a2b49	0.05049284664445126
243	0xbfa77bc4bfa4389e	-0.045866154092537345
244	0xbf7381f8b111847a	-0.004762622310495174
245	0xbf87519802a0239a	-0.01138609655392191
246	0x3f98d823b15c3189	0.02426200647373514
247	0x3f911079c86e4dba	0.016664412363366778
248	0x3f84d37bd973b431	0.010168998311622076
249	0xbfa7b5a34a7111b1	-0.046307661854857136
250	0xbf8f91ef8243d24f	-0.01541506878172885
251	0x3fa93d59b8ae16d9	0.049296191972684596
252	0x3fa0ead1dcecceaa	0.033041532724749814
253	0xbf7367f3b04fadf1	-0.004737808140798703
254	0x3f6b992e35a556f3	0.0033689405947069317
255	0x3f918d45ef8b37ca	0.01714047693786095
