dogs/pair-data/Golden Retriever/Border Collie/weights/conv-1-W_conv-1.weights.npy (npy, 19280 bytes, 1 tensors)

array f8 [32, 3, 5, 5]
00000000: 7a9a 178f 2f08 b7bf 587c f666 684b bfbf
00000010: 4655 d62b da81 b9bf e407 b092 55cb babf
00000020: 966d 7b57 f91e bcbf f281 b253 43b4 c0bf
00000030: 5de4 05ba aca5 b6bf 6fc6 99aa 7287 b7bf
00000040: c5bb a50e 427a c0bf 373c 194f f46a b8bf
00000050: 0c7f 382a 0ae1 b5bf 1985 bf80 bb47 bfbf
00000060: 7aa6 e526 fc39 bdbf d978 218d 0082 b3bf
00000070: 123c 2a2a 4754 bfbf 2fbb 7107 04d8 babf
00000080: d030 28e1 4a47 b1bf 5737 a684 6450 b9bf
00000090: 1009 36b8 49da b0bf 458f f7e2 c071 bcbf
000000a0: 04ef 4ac7 9672 babf f225 f77c 7b56 b7bf
000000b0: 2133 90de 3fc5 b0bf e236 b1e2 a901 a8bf
000000c0: 8e0a 21ae 8e8f bfbf fd4f b73f 6260 b3bf
000000d0: eca2 73f4 f5c4 a4bf 783c e5bf b447 75bf
000000e0: c9f3 38ff 231d 91bf a25d a9b0 0db9 9dbf
000000f0: 4c3d c30e 9132 b7bf 25a0 febb d697 b0bf
00000100: c6da be78 ec52 b2bf 061c 01df 55bb b7bf
00000110: e8fe d516 87aa 76bf 13d0 d521 6f89 67bf
00000120: c019 66c5 fecd a2bf 41ed 5877 f49b b8bf
00000130: 78b4 373f 4537 b3bf 293a 4046 fd79 a0bf
00000140: 7f68 7ea3 8fa3 b3bf 9136 00ac 18fa b2bf
00000150: 1043 8384 c2aa acbf a05a 8a4f c6fb afbf
00000160: 7780 b2c0 0ab6 8abf ba0b 4406 d413 b1bf
00000170: c3d1 725f fea2 97bf fdbc c70f 6280 a9bf
00000180: bee3 3de1 ddf0 9fbf 7741 2b34 6d46 abbf
00000190: 560b 97e2 18a4 b3bf b730 ad50 05b3 b4bf
000001a0: 8c9a 28e4 16bf 743f a43c 2bd1 8cf5 aabf
000001b0: 4899 226e 7413 a7bf df4b 1d25 6304 b0bf
000001c0: 3082 f75d a2e1 7bbf 3e62 c027 0dcb a9bf
000001d0: b613 247f 04ef a9bf c04d 53b2 440a 8ebf
000001e0: 04ae 68b0 95c7 4bbf 552e 12db 3609 abbf
000001f0: f040 fe72 20d8 a3bf da13 74e0 125b a1bf
00000200: 9d6a 3fad 8579 a8bf 5a08 a1bf 52fe b1bf
00000210: 863a 4c37 6755 adbf ef9a 4e49 6c83 b5bf
00000220: 4921 e60c 9bcb a2bf 01c7 aa09 21fb 98bf
00000230: 5c72 a1c8 dcab a4bf 5ce5 5d41 7c48 b0bf
00000240: 42c0 4c4d 8c74 b2bf b240 0a9f e734 abbf
00000250: 7473 35e0 414f acbf 8256 2a33 1010 9f3f
00000260: 956a a56b fcb8 7ebf 4ad5 7f3b db71 a53f
00000270: 81d2 b656 0428 6d3f 1bdd 8ae8 0163 8cbf
00000280: 2aea 876c 57b9 9c3f f9fa 1ea2 c94c 16bf
00000290: de45 43ca f6b5 a93f 12e3 1172 743b 533f
000002a0: e343 2160 2a18 873f 0c5e 47dd 539a a93f
000002b0: 44fe fcc9 ed39 b13f 9721 3c48 30b2 903f
000002c0: 517e 4b43 a876 aa3f 9386 edc4 cffa 973f
000002d0: e1bc e3ec 3eff 953f 57e6 658f 1051 9e3f
000002e0: e07f 9d17 a116 aa3f 3ce3 7d88 2b61 523f
000002f0: 4082 ed1c ea1a 85bf 743b 1cf7 d557 78bf
00000300: 43aa 889c a96b 623f e9c6 4c00 7926 a3bf
00000310: 9592 cdaa 45e7 a2bf dd43 8b38 ee0f 8bbf
00000320: b0bb 943d 9e67 7c3f 9cb3 0d67 151b a73f
00000330: bd32 3409 bc93 a83f 0d11 5f40 5720 b23f
00000340: dae9 c3d9 539c 953f 66f3 980f 4c16 a83f
00000350: c0c4 99fa 40bc 8d3f fb67 e695 31a6 af3f
00000360: f345 4d93 ebd8 a83f c07b d551 1cbe 713f
00000370: 5b54 f42f bebd b03f 5a66 79a0 4573 993f
00000380: 4b5c 4c6d c189 a23f 4fb7 9998 4945 b13f
00000390: ebe1 12e2 f6ef 833f 6619 9c87 e1db 683f
000003a0: 0536 1348 5cec 78bf 8881 5baa 940d b23f
000003b0: dbf7 9032 2695 a73f 78e3 f3e4 ab07 ac3f
000003c0: 7235 5e88 618c 7bbf b76f 7d7f ed2d 933f
000003d0: 58fa 38f3 3526 893f 374f 0ff2 23ba 8d3f
000003e0: 45d5 fcd2 a714 94bf 1caf deb9 d096 f4be
000003f0: 5661 a257 9494 6fbf 6c9c 2e6e 372d 283f
00000400: 1493 fa86 d512 90bf 2139 d24d 3ec8 a6bf
00000410: 23f4 59fb 1c23 963f f0e5 6e02 e6d0 913f
00000420: 0541 ede7 e218 8cbf 6bb1 c493 0c1c 9a3f
00000430: 45ab 8f74 e19e 50bf 6a5e 6493 9c8e 503f
00000440: d603 2aa2 fce6 853f 0954 a086 cd6b 8bbf
00000450: 23f2 0a5b 7a05 ab3f df81 9eaa 08c8 a2bf
00000460: 0fbb 8a63 52a1 a3bf 10b4 994f 3ef2 90bf
00000470: 9419 7594 6123 83bf c14d d41a 8960 953f
00000480: e206 434a 68d9 a2bf 413b f4ec 5875 a1bf
00000490: dd4b 4375 50f1 97bf f3c8 fe51 950a 633f
000004a0: 0b6f 6bdb d47f 9a3f 06c9 4bd9 b063 a0bf
000004b0: dde4 e496 20ff 7ebf 3335 6c6e f1cf 943f
000004c0: b3d6 0a89 9bed 91bf 7b74 e20a 3c1b 863f
000004d0: 9b6a 4f43 02da aabf 7ca7 624c 33a4 a4bf
000004e0: 0cff 31a3 6999 9abf bbd5 8228 dd17 603f
000004f0: fefd 2f33 e1b4 b2bf a8c7 276e 99dd afbf
00000500: faff 4b36 0a47 b5bf 3d8e 586b a160 aebf
00000510: 8c55 db4a 840b adbf 82a1 e246 295b a6bf
00000520: 3335 62ac 776a b5bf ac27 9854 5839 b5bf
00000530: bc9a 3197 e88c b1bf 74c8 ef73 b43f b9bf
00000540: f615 629d 4649 96bf d6c2 4c88 9261 96bf
00000550: 8b0f 86ef 47f7 b7bf 1c04 b049 37d6 b8bf
00000560: 8a58 f193 31f7 bcbf 4d8c 25a5 c6a3 a4bf
00000570: 4ba8 b2fb 947a b6bf 8451 9b29 5f05 b53f
00000580: df67 15ee ec11 a83f e9f1 d345 65e9 a73f
00000590: e6fc 8a64 92de a63f 96e5 ac30 023d 883f
000005a0: c1ae a1ff adf8 a43f a38b b569 a19e 9e3f
000005b0: cb9d d175 0996 ac3f b368 89ef b18b 9b3f
000005c0: 857e 4dfa fd42 a33f 1cd6 f16f 3729 a93f
000005d0: 99f6 5a75 073a 78bf 4f98 dcd2 1574 81bf
000005e0: e3d9 ef3b 9879 893f f86f 2f50 a813 983f
000005f0: dd06 16ce 51db 863f 9975 bace a425 823f
00000600: d94a 275e 5375 9c3f 8411 912a b909 97bf
00000610: 77fb 9574 2cf4 9ebf c880 0522 1a62 a1bf
00000620: 79d7 3a87 2d89 9cbf 6fab 9083 4884 a1bf
00000630: 041f 359c 767c 79bf 93b1 58c8 4a7a 95bf
00000640: 8e33 4a1c 9b2d b73f 21d6 8dd3 587c b63f
00000650: 9aaf 1c0e 6cf9 8c3f d28a 911c 829b 803f
00000660: 570d 9c64 b378 953f 17ef 296e aaef 853f
00000670: 62c3 79f8 1a25 72bf 7bb4 c39d e49b b13f
00000680: f868 a170 7160 8e3f 1a63 3802 6210 833f
00000690: 471c 6082 5b7c a03f 2300 4f80 9d3b 843f
000006a0: 3b03 f216 de59 a63f 6908 a467 96c4 a23f
000006b0: b4c0 d133 f885 91bf 256e 1858 d75f a13f
000006c0: a957 520b 056e 9fbf 1b80 44fa 0bf3 993f
000006d0: d0f0 53c2 fe11 983f 864f 10ec d923 6abf
000006e0: a727 5a0f e6ea a5bf ec77 8067 67e6 a5bf
000006f0: cede 3911 8230 a9bf 3dc9 2ba1 f334 aabf
00000700: 4c3f e1a9 27f8 93bf 2c90 60e9 9f3c a03f
00000710: 77aa 41da 7f27 b33f 53e4 a299 4d89 8f3f
00000720: 4185 e495 1c23 b33f ff38 855c 2d22 ab3f
00000730: f2bb 6912 7bf7 af3f ba60 952d c0d4 b33f
00000740: d400 8cad f528 b43f b492 de58 db00 953f
00000750: ad82 e256 25a7 b03f 1d3c a4e2 f780 b03f
00000760: 0407 b261 2539 933f 33d0 688d 5e4b b23f
00000770: bed1 8b52 2947 b93f f68f 3793 6acb a63f
00000780: d222 6964 c286 9b3f cf8d dee0 f8e6 b03f
00000790: d076 588f 3b38 a53f d6b0 ee96 af05 a33f
000007a0: 2fec 9a35 8a3b b33f b640 4060 3461 b33f
000007b0: f947 928b c652 aa3f e4e1 e6f2 6890 a63f
000007c0: 7c89 0136 b2e8 a53f 12cc 66d2 6d00 b33f
000007d0: 1a8c d7ae 4873 67bf d34a 6681 5ae7 89bf
000007e0: 2fcb 20fa 9501 73bf 4159 410b 53a6 aebf
000007f0: a3e9 c4ef 63f3 9cbf be8e 310c 0346 9dbf
-0.08996865504705368 -0.12224438203564725 -0.09963763780827603 -0.10466513472786648 -0.10984762559694725 -0.13050119005949018 -0.08846549550607237 -0.09191052117400898
-0.1287310191650858 -0.09538199359052234 -0.08546508341578035 -0.12218830006851923 -0.11416603040347609 -0.07620242543768842 -0.12237973002832828 -0.10485863858933152
-0.0674940871905989 -0.09888294447429523 -0.06583081004467695 -0.11111074010073903 -0.10331098905129116 -0.09116336632646219 -0.06550978835748512 -0.046887692377465276
-0.12328426123807842 -0.07568944984024024 -0.040565191355033864 -0.005195337346164945 -0.016712725117247893 -0.02902623549229378 -0.09061533556381568 -0.0648168763133304
-0.07157781551255046 -0.092702261871736 -0.005533721630285739 -0.002873150877968919 -0.036727868649041095 -0.09612968362573772 -0.07506211083792091 -0.03218070490412501
-0.07671449414775287 -0.07412866782416418 -0.055990294147369224 -0.062467763146903055 -0.013042530065206599 -0.06670880463575105 -0.02308270890780918 -0.049807609964654255
-0.031192271111169616 -0.05327168714359492 -0.07672267467482405 -0.08085664004937852 0.005065049570964885 -0.052654648335754645 -0.045070303386909816 -0.06256694465746147
-0.006806978460617105 -0.050377284147718346 -0.05065168430341009 -0.014668022815761073 -0.0008477669624133437 -0.05280467437941342 -0.038758291280034274 -0.033897962473964774
-0.047802140615847956 -0.07028691461985784 -0.05729219961186964 -0.08403660573695125 -0.03670963795144872 -0.024395481314690496 -0.040373706332250875 -0.06360603900784184
-0.07209088217928275 -0.053138006366795124 -0.055292185420262735 0.030334714053046337 -0.007500635163831722 0.041884280217269934 0.0035591206303371985 -0.013860716733104675
0.028050771712495294 -8.506756469637754e-05 0.050216400327950814 0.001173843113319421 0.011276560839322108 0.050005551110810925 0.06729017430642964 0.016304735573642395
0.05168653317900563 0.023417707819482003 0.02148149796351795 0.02960611224395956 0.05095389760276681 0.0011217999580976487 -0.010305241592221681 -0.0059431417482887945
0.0022486031268915975 -0.037402898108110545 -0.0369207163810518 -0.013213978863321369 0.006934755446578331 0.045128506498122806 0.048002124904177525 0.07080598184171923
0.021104154745424576 0.04704511347197275 0.014519221923566028 0.061814832256644046 0.04852996991270322 0.004331694244085804 0.06539524718057647 0.024853790206498118
0.0362072416229969 0.06746349311444287 0.009735039495681405 0.0030345349194959457 -0.00608478591420925 0.07051972540967288 0.04605979316009697 0.054746028612448094
-0.0067256746168714455 0.018729887873049935 0.01227991245752695 0.014515190910891469 -0.019610044720328252 -1.9635317236740062e-05 -0.0038550278960195845 0.00018445302620515318
-0.015696846354916152 -0.04449648570981624 0.021618321267386286 0.017398446939955237 -0.013719341948359895 0.0254976239386208 -0.0010144426071245366 0.001010563760763273
0.010694478701454384 -0.013389211340873801 0.05277616845475943 -0.03668238718751459 -0.03834016289817132 -0.01654908524362858 -0.009344827979145966 0.02087606645825502
-0.036814936700023684 -0.03409841434960593 -0.023381478459508876 0.0023243824398032575 0.02587826337081282 -0.03201058056392196 -0.007567527105771546 0.0203244899412784
-0.017507963408852144 0.01079413326470501 -0.05244452544839825 -0.040315249513993984 -0.025975847802782545 0.0019645041939735076 -0.0730725049943359 -0.062237543770506776
-0.08311523271186153 -0.05933098254561429 -0.05672849096087437 -0.04366425504969397 -0.08365581472954346 -0.08290626588146094 -0.06855634394888005 -0.09862830954060248
-0.021763900142579083 -0.02185658413799526 -0.0936169585966679 -0.0970186762715603 -0.11314687597163889 -0.04031201139402949 -0.08780795235603127 0.08211321607388383
0.04701176077169555 0.04670254208938102 0.04466683842974266 0.011835114584402711 0.040959775404954886 0.029902002408004013 0.055832191116504136 0.02690008186832733
0.037620484165697334 0.04914258233558774 -0.005914715895128397 -0.008522196290481924 0.012438954667214957 0.023512487310526325 0.01116050634550752 0.008860862311219008
0.02779131185691139 -0.022498028967917985 -0.03022832357009572 -0.03395158448506802 -0.027867041949057623 -0.03421236616153222 -0.006222213097607957 -0.02097431991403338
0.09053964081449647 0.08783488430875554 0.014147609882989621 0.00810910844501703 0.02096824933597693 0.010711032378132352 -0.004429917673051205 0.0687849888961
0.01483238816233666 0.009308591549641632 0.032198772110910094 0.009879332044761274 0.043654384900042996 0.03665609374185481 -0.01711261574058716 0.03393433523544002
-0.03069312936403149 0.025341212415810426 0.02350614605983098 -0.0031909233371240657 -0.042807759641689196 -0.042773467430592266 -0.04919821224478725 -0.05118523924274363
-0.01950132345547155 0.031712529409816476 0.07482146338012706 0.015398603678806 0.07475451144684532 0.0529951262893622 0.06243500327843056 0.07746506798628419
0.07874999510750352 0.020511081027182868 0.0650504433747396 0.06446790011635568 0.01877268227372665 0.07146254494074426 0.09874208703315099 0.044520693274335985
0.02688125360353661 0.0660243557927551 0.041444646118390716 0.037152754949916364 0.0751272564765919 0.07570197439077017 0.05141277745964596 0.044070510531529355
0.04279095563176136 0.07422529589420915 -0.002862588843286951 -0.012648303102456826 -0.004640184257413789 -0.05986270439523134 -0.028272210606908776 -0.028587386721837353
