dogs/pair-data/Golden Retriever/Border Collie/weights/conv-3-W_conv-3.weights.npy (npy, 32848 bytes, 1 tensors)

array f8 [16, 16, 4, 4]
000000 94 d4 c4 f2 ad 21 72 3f af a4 66 17 28 9b ab 3f
       0.004426650510415037 0.053918125969468426
000010 a7 ef 4b d2 fb 06 a9 3f 41 e7 b1 4b 55 9a a8 3f
       0.048881406231856155 0.04805246876726566
000020 47 fb 37 26 91 36 ad bf 4b ef 28 44 81 a4 9d 3f
       -0.05705693809067341 0.02894784906878493
000030 3a cd c3 fb e7 c5 8d 3f 68 fe 7b 55 f0 a9 80 3f
       0.014537632342103469 0.008136632546210623
000040 5b 0c 12 45 cf f4 aa 3f 5a ba ea 21 85 72 aa 3f
       0.05264899938722386 0.05165496863388759
000050 92 f7 b0 9a 12 75 ab bf 3f a9 4c 80 98 10 27 3f
       -0.0536275686103941 0.00017597066484970923
000060 68 ca 42 e8 6a b9 a9 3f 1d 72 ce 5d f8 48 80 3f
       0.05024274907318188 0.007951679575676935
000070 5e 16 62 ea 74 d6 b6 3f f1 69 e7 0e 66 50 bd bf
       0.0892098495697495 -0.11450803626886576
000080 ba bf bb 28 48 88 55 3f aa 5c e2 20 01 65 a7 bf
       0.00131423041142041 -0.04569247747820644
000090 95 3a 7a 82 3a 14 a6 3f 00 09 9b d3 db 3c a3 bf
       0.04312308161489856 -0.03757369001461264
0000a0 9b 4d 35 de 29 fc a8 bf 08 12 28 91 18 75 84 3f
       -0.048798855185533806 0.009988967828584286
0000b0 0c 2e 39 ab 5c ea ad bf ac ec 2d 8e 75 c4 55 3f
       -0.058428665066994595 0.0013285778047407533
0000c0 93 b1 bc c2 bc aa 9f bf a1 46 19 b8 71 0e a2 bf
       -0.03092474878865088 -0.03526645061778067
0000d0 86 38 b0 03 00 c8 a3 bf 65 b1 a9 1a 9f b9 a5 bf
       -0.038635254335631905 -0.04243180466150668
0000e0 51 92 e3 68 b5 0f 81 3f 33 80 35 bc 79 c8 a2 bf
       0.008330743087250488 -0.03668575689766875
0000f0 db 98 70 10 40 8d b7 bf 27 8b ce f2 60 5f a0 bf
       -0.09199905778277488 -0.03197768176985099
000100 e6 12 4b ac 17 43 ad 3f 39 c4 9a df ad f8 95 3f
       0.05715249994458364 0.021456448338259746
000110 b8 ca 4f 0b 15 66 b1 3f b8 fb 12 da 1d dc b1 bf
       0.06796390081562265 -0.06976496290279399
000120 fb cd 52 cb b4 0b a4 bf 92 9b 91 14 43 42 a3 3f
       -0.039151811427839044 0.037614914189183626
000130 cb 21 3d ad 77 b4 97 3f f1 c1 d0 a4 4b 7c a0 3f
       0.023149366329819714 0.032198299283098815
000140 95 7d 2e 47 b7 83 a1 bf 4c 77 76 d6 51 3a a7 bf
       -0.034208037795220005 -0.045366818837676876
000150 88 ae 65 c1 21 4a a4 3f 70 aa c5 56 d7 36 a8 bf
       0.03962808118634792 -0.04729340490560652
000160 72 c0 3c d8 d2 19 a3 3f 61 8e a0 49 a7 de b7 3f
       0.03730639352431887 0.09324117229021446
000170 92 1a 9a 7d 67 71 b4 3f ad 10 14 60 c0 88 84 3f
       0.0798554116864614 0.010026457721785976
000180 a5 72 15 bf 1c 50 ba bf dd 5e 5d a3 0f c8 a8 3f
       -0.10278491654521334 0.04840134495924329
000190 a2 a2 b9 af d1 78 a2 bf 65 db 9b 1d 2f 67 a5 3f
       -0.0360780264862275 0.04180285679279087
0001a0 61 24 06 49 fb f8 7b bf c4 88 5d 6c f8 aa a3 3f
       -0.006829244215972614 0.038413775661653854
0001b0 6c f1 60 1c 9c 17 81 3f 07 8b 97 68 12 b1 a0 bf
       0.00834581338505621 -0.03260095144994151
0001c0 e2 58 b2 21 7a 6c 96 3f 00 51 0a 2f 6a b5 83 bf
       0.021898182207757418 -0.009623364983135207
0001d0 ea bd b6 71 cf 60 85 3f 7e 68 4a 24 39 ad 8f 3f
       0.010438557298441748 0.015467115802767713
0001e0 65 ee 90 9d 28 72 8e 3f 68 f2 11 2c 4d 0d a0 3f
       0.014866177853142657 0.03135148203816557
0001f0 84 c1 1b 56 3e 75 af 3f 00 72 33 fa 64 a7 be 3f
       0.061441371928483896 0.11974173649236519
000200 67 30 a8 a2 57 a7 71 3f f1 c6 44 21 c5 12 a1 3f
       0.004309980703066519 0.03334632903205471
000210 1a 07 62 26 58 04 a3 3f 54 df bb a6 32 91 8e bf
       0.0371425196508552 -0.01492538043338213
000220 8f eb 9e 72 d0 98 a6 3f f6 a1 eb 26 d3 de aa 3f
       0.044134630195421846 0.05248126840689686
000230 76 d3 99 98 fa 58 9a 3f 52 31 4f 99 21 7f a1 bf
       0.025730052532213908 -0.034173059429664435
000240 00 81 3d 04 7d 05 96 3f c8 34 51 eb b4 04 b7 3f
       0.02150531137829237 0.08991556878136742
000250 99 04 29 f5 08 30 9a bf 53 36 2d 72 75 35 7e 3f
       -0.02557386394824288 0.007375201009222804
000260 51 c0 64 11 a6 38 a9 3f c1 8d dc 53 53 ad 77 3f
       0.049260320304143186 0.005780530451179045
000270 7d a7 ec 29 20 c4 aa bf 6c c4 ec 8a d9 39 ae bf
       -0.052277569883087495 -0.05903510876522308
000280 d7 56 52 22 20 d4 a9 3f a9 55 dc f7 9f f4 9b bf
       0.05044651431050589 -0.027300357344832858
000290 c8 5c 4e b6 8f 15 a8 3f c5 9c ed 37 fc ef 9b 3f
       0.04703950024048137 0.027282658494553375
0002a0 01 73 3d f4 1e 7b b4 3f 8f dc fc 06 68 d7 62 3f
       0.08000367606059557 0.0022999793799516953
0002b0 64 40 f4 80 0c 02 a6 bf 94 03 ba 94 36 09 96 bf
       -0.04298438142916508 -0.02151952059512359
0002c0 bb 0a 3f ce 44 d9 b3 3f a3 ab 69 6b 8a af ad bf
       0.07753400836285611 -0.05797989426795105
0002d0 b8 a2 73 31 54 a5 90 3f 62 fe 2a 4e b3 bd b5 bf
       0.01625567962483629 -0.08492584856412003
0002e0 ac 34 01 52 73 88 a9 3f 7d 1b 62 98 4b b3 87 3f
       0.049869159469929286 0.011572447383753954
0002f0 d7 70 23 6e a7 e7 b4 bf 2e 92 68 e3 fd dd bb bf
       -0.081659759892719 -0.10885607530560357
000300 52 28 2c d5 67 7a b3 3f 9d a7 62 9b 49 a4 ac 3f
       0.07608651117712498 0.055940914361897166
000310 56 f0 a3 4e 3d 03 4f bf 3e 39 57 3b 72 7b 96 bf
       -0.0009464310981282069 -0.02195528495013232
000320 3a 68 c3 5d 91 d4 99 3f 0a 02 72 74 66 91 a2 3f
       0.02522494444642851 0.03626556559993695
000330 97 91 7f 5b 1f b1 9a 3f 45 2b 4e e6 40 82 a8 bf
       0.026066293677915544 -0.04786875544876649
000340 c6 54 56 c5 04 63 96 bf 41 77 08 d2 6c d3 b4 3f
       -0.02186210112048028 0.08135109069595804
000350 93 b5 93 d1 ca 32 ad bf 63 de 64 5e ba d3 91 3f
       -0.05702813919365748 0.017409240733483943
000360 2e 5a f1 00 5f 8b 88 bf 0e 8d 22 83 af e9 a1 bf
       -0.011984579292556221 -0.03498600459831823
000370 12 73 f0 93 41 95 a8 bf f8 e4 dd 9f 05 c0 9b 3f
       -0.04801373415850753 0.027099693186277002
000380 b5 07 a7 e8 bf 23 c4 bf fc 7a 90 f9 9d 28 ba bf
       -0.15734099254592385 -0.10218226759796417
000390 ff 53 86 a3 b5 54 c2 bf b0 c4 0f be 3a bf ac bf
       -0.14321012959103993 -0.05614646501624898
0003a0 68 1f 9c a4 98 0b c0 bf 6c b3 0c 2d 40 a4 97 bf
       -0.12535388982382334 -0.02308750414811149
0003b0 54 91 dd 07 5e 1e 89 3f d1 81 ee e1 87 89 b2 bf
       0.012264952292476629 -0.07241105333242294
0003c0 00 33 29 88 69 d5 a1 bf 2d 34 80 8b 3c 7b a0 3f
       -0.03483133113022596 0.03219021990671709
0003d0 8f f0 5c 17 72 52 a3 bf b7 91 8e fe 66 74 a4 bf
       -0.037738385536131173 -0.039950579236833254
0003e0 46 aa d9 62 03 cc 91 3f 93 46 30 8b 4f d7 87 bf
       0.017379811199513172 -0.011641141352842587
0003f0 12 c1 11 b2 50 ff a1 3f 33 e5 e7 14 28 ff 92 bf
       0.03515102552126072 -0.018551470066062236
000400 a2 cb d7 a8 80 f2 b7 3f 9d 98 1c 8c 31 23 96 3f
       0.0935440456594692 0.021618627716769912
000410 11 d8 d1 0a ac af 63 3f 93 e1 1a 75 af 61 b0 bf
       0.002403102893874916 -0.06399056061753176
000420 a2 57 7d fa ba 98 86 bf cc 1b d1 8e 8f df 86 bf
       -0.011033497590385914 -0.011168595834659366
000430 3e 33 f6 0d cf bb 92 bf 92 21 6b 1f 42 4e b2 bf
       -0.01829455874171803 -0.07150662676861533
000440 89 4c b3 5d 18 78 14 bf db f9 e1 cb a6 1b a2 bf
       -7.808350294462493e-05 -0.035367214572932425
000450 82 3e e9 0d 73 20 a2 bf 23 36 11 03 7e 54 9e bf
       -0.03540381951154094 -0.029619187295159343
000460 1b 44 ac d5 fc 33 83 3f 1c 4d 26 6d 10 b1 ae 3f
       0.00937650229528413 0.059944642375876905
000470 9c 5b 21 99 d6 16 8f bf 90 79 8e 11 58 fd ac bf
       -0.015180279300848025 -0.0566203614646269
000480 60 a3 fc f8 f6 b5 90 bf 38 76 2b 01 74 8b 9b bf
       -0.01631914038367499 -0.02689915902271009
000490 20 50 f1 45 56 fa 9b 3f 91 2d 2c 1c d7 f4 83 bf
       0.027322147387465745 -0.009744339511164298
0004a0 15 db 57 d5 30 ab aa bf 2c 4e ad f2 4b 75 91 3f
       -0.052087331812734096 0.01704901379282668
0004b0 00 f7 9b cc 63 1a a7 3f f7 98 53 52 d2 d2 a7 3f
       0.045123213507379134 0.046530315923336056
0004c0 d5 1b b8 ab 48 c1 9d 3f d3 8b 71 ce 33 0d a4 3f
       0.029057631951243074 0.03916322608053915
0004d0 52 c2 43 ff a8 18 7b bf df 2d cd 60 c4 73 70 3f
       -0.006615314621953932 0.0040166541119321655
0004e0 3e 25 2e 26 5e a1 93 bf 8b 3e 02 b2 95 93 b6 bf
       -0.019170256691301228 -0.08818946453015479
0004f0 35 e9 cc 94 96 3c 83 3f 3f 81 1b 68 1d bc 80 bf
       0.009392906585720876 -0.00817130063973137
000500 72 80 43 42 c5 55 ad 3f ac 01 64 26 f2 bc ac 3f
       0.057295002306774104 0.05612904280315276
000510 65 77 78 9c 96 c0 ac bf f4 0c dc ee 9c 25 8f bf
       -0.05615683231393013 -0.015208459891715688
000520 ef f8 47 c4 55 5f ac bf 11 df 4b 40 2f d2 b4 bf
       -0.05541484852800404 -0.08133216209159523
000530 fa 35 af 47 93 3e a0 bf 2f d1 63 00 b1 24 b1 bf
       -0.03172741174749301 -0.06696611651915839
000540 8a 85 88 a7 32 08 97 3f 17 e5 c4 6b b7 a4 a2 3f
       0.02249220988790549 0.03641293707409881
000550 b8 ce 9a 05 fd f8 af 3f 2d f0 66 a7 6c 07 7d bf
       0.062446505483788994 -0.007087158612588279
000560 55 f6 8b 46 a8 eb a9 bf bf 85 f1 c8 c7 e3 b1 bf
       -0.050626047717724866 -0.06988190322728992
000570 e5 6e c9 70 cc cf b3 3f e1 cd 9d 1b 34 ff 76 bf
       0.07738950494370618 -0.005614474817650956
000580 64 e6 74 4f c2 fe a0 bf cd 26 9e 9e 2e d1 bc 3f
       -0.033193657111451086 0.11256686565880188
000590 5c 9d 21 dd bd 61 8b bf 62 73 68 00 6e ab 84 3f
       -0.01337002116288371 0.01009260119195127
0005a0 bb 5a 4c d3 76 2f a8 bf e4 e1 e7 a1 b9 14 a7 bf
       -0.04723712281536537 -0.04507999516858144
0005b0 29 b2 80 58 71 3a 7f 3f 6f 6c 6b 10 f4 68 88 3f
       0.007624094731039346 0.011918932677352083
0005c0 3b 1b 99 1d c6 d6 9f bf 70 ac 6d 8a fd 72 9e bf
       -0.031092734867594656 -0.029735528539657385
0005d0 98 5c d3 3c 81 ec a0 3f ed 29 4d 17 37 54 87 bf
       0.03305438868999849 -0.011391096495249687
0005e0 ca 97 47 b4 2f 7f a0 3f 99 f4 68 b8 3b 0a a5 3f
       0.032220354801935594 0.04109369875048081
0005f0 2e b0 25 3a ed 7a a0 bf 2c e0 16 63 7f 80 88 3f
       -0.03218785605244566 0.011963839732615687
000600 5c 05 48 06 c9 b0 92 3f 0a bf d9 da f4 ee b1 3f
       0.018252507217771594 0.07005243628531957
000610 fe 76 36 75 5f 3e 84 bf b4 49 8d d1 2b 60 7d 3f
       -0.009884591831731179 0.007171794096239404
000620 ff d5 f4 cd 52 9b 9d bf 6a 9b ae 99 b3 b3 87 bf
       -0.0289128244596295 -0.011573222281936874
000630 32 35 f8 07 b6 12 5c 3f e5 cf df cb a3 81 a2 bf
       0.0017134454391255047 -0.03614532340716873
000640 9f 24 d3 5a 49 b0 a8 3f 85 5b c0 3a 8b d1 8c 3f
       0.04821995958043001 0.014071548204851467
000650 bd 94 91 60 31 aa 8e 3f e2 d3 f8 dd b4 00 75 3f
       0.014973054656545743 0.005127626907371204
000660 78 94 20 4f 3d f6 a6 3f f2 4e 26 3a 69 7d ac bf
       0.04484740820797922 -0.05564431032976626
000670 86 08 d0 6f 9e 29 b1 bf fa 27 bd 9c a6 58 a5 bf
       -0.06704130391884364 -0.041691977151074824
000680 86 e7 cc f9 18 d2 b2 bf 7b dd 82 8e e9 2b bd bf
       -0.07351833437578933 -0.11395129899289273
000690 93 b6 e2 c4 ec 6f b9 bf 9e 24 e0 fb 74 72 88 bf
       -0.09936408812310508 -0.011937059342033426
0006a0 40 ce 7a b6 55 38 bc bf f2 8a f7 af 11 11 bb bf
       -0.11023460106917415 -0.10572920366352515
0006b0 83 54 7c db b3 66 93 3f b1 40 33 d9 f9 23 b0 3f
       0.018946466704694586 0.0630489497446003
0006c0 88 18 19 94 75 ca a2 bf 0f be ac 5f 52 c3 a5 bf
       -0.03670089180791175 -0.04250581186203927
0006d0 6b 14 78 5f 6b e0 91 3f 24 82 a5 24 dd e0 b0 3f
       0.017457654668778504 0.06593114990892751
0006e0 16 31 52 6c be 61 88 bf 4f ec c4 20 d2 69 a7 3f
       -0.011905181580254037 0.045729223728323214
0006f0 cc 1c e9 61 d7 16 ba 3f 38 9a 04 f9 09 00 b8 3f
       0.10191103115458872 0.09375059442081912
000700 b7 ef 2d d1 53 63 aa bf de 2b ad 53 5b 97 ac bf
       -0.05153905800304364 -0.05584226032677696
000710 f5 01 e2 7e 5e b6 9f bf f8 18 ac 8e ef 97 9b bf
       -0.030969120497049436 -0.026946776469253003
000720 00 29 79 df 6c 3a 8b 3f 67 d4 32 04 66 b7 ad 3f
       0.0132950311373361 0.05803984452487825
000730 15 e2 d9 1e 76 62 26 bf 7a 2d 5c 93 96 82 a9 3f
       -0.00017078105831892844 0.0498244337923905
000740 01 72 f4 ef d3 8c a7 3f 4b bd d2 e5 72 3b 9b 3f
       0.045996306458821586 0.02659396674851892
000750 67 b1 a3 96 a1 59 75 3f fc cc 64 4e 22 16 b6 3f
       0.005212432102990361 0.08627523816976529
000760 be 99 cc 11 0a d1 a0 bf 1d 54 8e 45 3f a3 a3 3f
       -0.03284484355235716 0.03835485195228492
000770 52 2d 2f 49 73 06 ac 3f f5 ac 51 04 1a 19 a6 3f
       0.05473671215403421 0.043160260226466386
000780 9a 76 c4 78 63 a6 c3 3f 32 30 68 a5 71 95 bf 3f
       0.15351527592513464 0.123374083406987
000790 61 e1 16 83 03 b1 a6 3f 07 44 67 a6 99 ec b0 bf
       0.04431925749981037 -0.06611023247320712
0007a0 a8 4e 87 8d 99 72 89 bf 6e eb 04 cf 6c af 7c bf
       -0.012425613051994702 -0.0070032358492494295
0007b0 5d d4 2c 39 ad b1 b1 bf 8c 17 9b 33 0f 49 a8 bf
       -0.06911738057972756 -0.047432398843326146
0007c0 db 67 68 c2 47 25 87 3f b3 e1 6f 24 3a 13 82 3f
       0.011301575298649105 0.008825735318155425
0007d0 f9 2f 0f eb 73 3d af bf 65 33 9e a8 e9 ac ae bf
       -0.06101572269798789 -0.059912969430206776
0007e0 4e 40 aa 44 1c d2 85 bf f8 52 dc 35 d9 b9 9d 3f
       -0.01065466007756313 0.029029268181221618
0007f0 74 d2 ff 2d 93 f8 9f 3f 6a bb ab 0d 41 07 a4 3f
       0.031221675570082444 0.039117844504167845
