dogs/pair-data/Golden Retriever/Border Collie/weights/fcn-2-W_fcn-2.weights.npy (npy, 1680 bytes, 1 tensors)

array f8 [2, 100]
0	0x3fc3815411a4b22e	0.15238428937426945
1	0x3fd170ea6941766b	0.27251682547453154
2	0x3fcad8e5489f9784	0.2097441296202157
3	0xbfb8d9df0fb1de5f	-0.09707445271657765
4	0xbfc83bb12c30a5d7	-0.18932165773121198
5	0x3fc01b287a662755	0.12582879997745047
6	0xbfd23a7d28bbafc3	-0.28481987932059044
7	0x3faf194cd0471e41	0.06073989908651046
8	0x3fce88e8ece6927a	0.23855315749564793
9	0xbfbcf81e33e7288b	-0.1131609799114434
10	0x3fc205f7c7751859	0.14080712546473498
11	0x3fd4788f7f590f3a	0.319858431208775
12	0x3fa5a8bae083bba1	0.0423029326501514
13	0x3fbda29b4222d0ac	0.11576242794655184
14	0x3fc7b99cc487a4ae	0.18535194011864092
15	0x3fbf0b56c6b3de8d	0.12126676894319584
16	0xbfc9695b0fbe83f9	-0.19852770107993914
17	0x3fb3feb8580645a3	0.07810547017131468
18	0xbfbab0fdc67e0d0e	-0.10426317306523833
19	0x3fb438ee729fdf5d	0.07899370478105312
20	0x3fccd893f3cc86d1	0.22535943416828855
21	0x3fd496d1837457af	0.3217052253470411
22	0x3fa7fb24c51d41d0	0.04683794885807269
23	0x3fbceb14c2765bec	0.11296205279937482
24	0xbfbaced8de558a4e	-0.10471873691634778
25	0xbf8fbba2d3c2d671	-0.015494606101451343
26	0xbfc3aa4a367beb5d	-0.15363433513979433
27	0xbfc973856a8a807d	-0.1988379259319152
28	0xbfc0aed7a30cf40f	-0.13033576451735526
29	0x3fc5f83c127b2fe4	0.1716380205383522
30	0xbfbf6d94613315eb	-0.12276580212627379
31	0x3f9477d6f12ea9ad	0.01998840186176103
32	0xbfb3f0ddd6226197	-0.07789408185852263
33	0xbfb131a9b9e322fa	-0.06716404712927818
34	0xbfcfae6ac0c28c10	-0.2475102845392887
35	0x3fc700d58c5724af	0.17971295692976727
36	0xbfc8214d2f19383f	-0.1885162811253753
37	0xbfcbaf87bbb23ab6	-0.21629425682882236
38	0x3fc18638625dbe14	0.1369085769942876
39	0xbfc7c1065150f247	-0.1855781456996672
40	0xbfc263a5b4a18a95	-0.14366599388002457
41	0x3fd0fb49f2f33dff	0.26533745503999734
42	0x3fb5c88dd3cef092	0.08509146138288973
43	0xbfa69115e5a0c221	-0.04407566478801451
44	0xbfc9c717f0cb0de6	-0.20138835198859723
45	0xbfca35e05fbab389	-0.20476917909891437
46	0xbfcb00fdb1cc724b	-0.21096774274419014
47	0xbfb2bd252aa3346a	-0.07319862643199007
48	0xbfc0f2f3c1239971	-0.1324143117009942
49	0xbfcf31d88395e406	-0.24370867180894623
50	0x3fc2afe41599b22d	0.145992765948351
51	0x3fb2e9f402e1eafc	0.07388234205602012
52	0x3fc8feb7c37e09c7	0.19527337117695096
53	0x3fd00f6fc06159c7	0.25094217097412436
54	0x3fd06c99c4d0cd91	0.25662845821644803
55	0x3fbf09315fc8e134	0.12123402203076666
56	0x3fc6ed33c563d4f2	0.1791138376062587
57	0xbfc5413e16877d0d	-0.16605354404507758
58	0xbfaaca1f872dd781	-0.05232332730422141
59	0x3fba73cacab3d03a	0.10332934807576147
60	0x3fd17f9eadbe6578	0.2734142967907114
61	0xbfc2e047e2f40f6e	-0.14746950704295209
62	0xbfcf095191709532	-0.24247188188125218
63	0x3fb4a55eec2ff2a2	0.08064835802356154
64	0x3fbcd50ad5b95799	0.11262576787825508
65	0x3fbbd67228d6ed16	0.1087409352975793
66	0x3fcc699b784b37d8	0.22197287915918085
67	0x3fc33978c260891d	0.15019139758175806
68	0xbfbe3ee59e0411dd	-0.1181472311764717
69	0x3fc93a882efc5093	0.19709875387400597
70	0x3fc7466f6e40a017	0.18183701404018457
71	0x3fcd15ff57a86da2	0.22723380832836165
72	0x3fc2f942848f1cfd	0.14823180649384674
73	0xbfb67de5798f0074	-0.0878585263990333
74	0x3f9b7019e78f5968	0.02679481960134336
75	0xbfc9deceddf419a8	-0.20211206281255767
76	0xbfbcc76dac9f56ac	-0.1124180361215063
77	0xbfc6ef27f6668ba5	-0.1791734650733733
78	0xbfa5d784de7eb43b	-0.04265990463259369
79	0xbfc8a6c8a890981b	-0.19258983832077167
80	0x3f843bb717b0f25a	0.009879522715089784
81	0xbf959d270aeb209d	-0.021107301751528074
82	0x3fc4b9d1d69ff7b1	0.16192076663713587
83	0xbfcba1bb3f13cee9	-0.21587315158796308
84	0x3f9cddf0095fbf54	0.02819037492002903
85	0xbfc4afda59830dc2	-0.161616605479237
86	0xbfc22ac58b836992	-0.14193028747724817
87	0x3fb0cb8999112286	0.06560573565469427
88	0x3fd16dc3ed0283a3	0.2723245443867716
89	0xbfc3ad633744b805	-0.15372886847166015
90	0x3f93d4aa2363d099	0.019365938577678852
91	0xbfc01a71ec33b2d8	-0.12580703767107226
92	0xbfb543ffe452e8b1	-0.08306884121239723
93	0xbfb6aa3121e9c7fd	-0.088534422664253
94	0xbf62591e1c0211d8	-0.0022397602152201927
95	0x3fc63ad6dcb592af	0.1736706330949764
96	0x3fb4d1fefcda0fca	0.08132928536548359
97	0xbfcaae185fd913ee	-0.20843796424938382
98	0x3fc0a3216dc9825c	0.12997835026455362
99	0xbfcb8a4928e33dcb	-0.21515764709918836
100	0xbfbe74c50674e0b5	-0.11896926314955432
101	0xbfd17e278d802de0	-0.2733248597948812
102	0xbfc202322f2a38ab	-0.14069201758360825
103	0x3fbc15694b3d1d32	0.10970171057589509
104	0x3fc6b048192c2be1	0.17725468854072715
105	0xbf92e9605b1fcf78	-0.01846838527849523
106	0x3fc68e7a5a8580b8	0.17622308177943125
107	0xbfabe06c9536f679	-0.054446595396695004
108	0xbfc598f2cf46d809	-0.16873011704382204
109	0x3fc42b8c27e99944	0.15757896374561586
110	0xbfc92b475da3dd87	-0.19663326332350214
111	0xbfd2b6a8814a9178	-0.29239857317067885
112	0xbfbbad3c48647b4e	-0.1081121136416929
113	0xbfbd1b6ebfb699ac	-0.11369983845233972
114	0xbfbf3636bc5bc257	-0.12192098711580833
115	0xbfc0cdc39dca150c	-0.13127942280349492
116	0x3fd0bda8f81e1ede	0.2615759299301156
117	0xbfaa97020e1fceef	-0.05193334982314279
118	0xbf78ad7679b7b135	-0.006024802012216936
119	0xbfc10019ad8504c2	-0.13281556103360087
120	0xbfd02f4e7e54c652	-0.25288736664797284
121	0xbfd3010f19f7ebc0	-0.29693963561993186
122	0xbfbe87aa78cc3f98	-0.1192575974384894
123	0xbfb13ec85fb8ea96	-0.06736423813792167
124	0x3fc6db20be1554b1	0.17856225282108576
125	0x3fafdeb733bafea9	0.062246060433151236
126	0x3fb71b357eb2b1a3	0.09025892585004285
127	0x3fc986016440d2ab	0.1994020213620805
128	0x3fc61d0a500772e7	0.17276123912497285
129	0xbfbcf6d565a9d96c	-0.11314138156908421
130	0x3fd01ba23584ec2b	0.25168662287223026
131	0x3fb7269a50acbd9b	0.0904327818832286
132	0xbf803815bd627732	-0.007919473497448235
133	0xbfa326cb23402e41	-0.03740534596735446
134	0x3fcb9d82bdb43c4d	0.21574434531109646
135	0xbfc1dc3dec8d86cc	-0.1395337491076617
136	0x3fc228e21c47f843	0.14187265759386677
137	0x3fc3ebfeffcb1050	0.15563952913191992
138	0xbfb52059299c3e9c	-0.082524845751545
139	0x3fc71080d6805d74	0.18019113992407265
140	0x3f626fea6b763aab	0.002250631190413207
141	0xbfd0f96a80f2d36e	-0.2652231463683198
142	0xbfa2ec3ff107ecb7	-0.03695869271538171
143	0xbfa27050a15083e0	-0.036013145152771875
144	0x3fc2ec6458843913	0.1478391105851605
145	0x3fc3c2952d5155ec	0.15437569344309965
146	0x3fd0093711a439d0	0.25056244585803444
147	0x3fa3c99724bb9ca2	0.03864738772772937
148	0x3fc490413001d007	0.1606523022088597
149	0x3fca7b0e144c32c2	0.2068803404912583
150	0xbfa18c50abbec1f8	-0.0342736444139326
151	0x3f97218afbd0e968	0.022588893527634296
152	0xbfc7b090b91f04e4	-0.18507584609145689
153	0xbfce9bf9337cd0dd	-0.23913493169823755
154	0xbfc77aacac349232	-0.18343122871842038
155	0xbfb467f1a4916a26	-0.07971105830930778
156	0xbfcadeaf363d78b1	-0.20992078922694682
157	0x3fb3a44f218a1313	0.07672590798217653
158	0x3fa43a24659b08df	0.03950608959486756
159	0xbfbebab4bd2be8cf	-0.1200364076466116
160	0xbfcda06243a30f1e	-0.2314570265062849
161	0x3fc8d7c1b06696c6	0.1940843688327531
162	0x3fcbe511a92ed227	0.21792813073047165
163	0xbfc4bc087201c155	-0.16198831145039586
164	0x3f677b5baa989287	0.0028664388999167264
165	0xbfc242f55e9c9edd	-0.1426684104892421
166	0xbfd467cf93f88f06	-0.3188361115482937
167	0xbfc3ad332bc12fb4	-0.15372314106423135
168	0x3fc66180dd4ad18f	0.17485056691442621
169	0xbfc0055e09e61bd6	-0.1251637981733597
170	0xbfc96faf390d0f11	-0.19872083936399368
171	0xbfc25a4d6b7ba9c7	-0.1433808111972452
172	0xbfac7da8db73a4fb	-0.05564620665411187
173	0x3fc04e06c369e0d0	0.1273811773460296
174	0x3f687fcd36a2abf2	0.002990628058872507
175	0x3fcf061d0a64d639	0.24237406737818093
176	0xbf988c4096a0fd30	-0.023972520059257707
177	0x3fd1b18a37753a29	0.27646117606937765
178	0xbfb0a9ec2361cb48	-0.0650928102857452
179	0x3fce2aa90a11d441	0.23567688934022793
180	0xbf739f2f3930dcc8	-0.004790482012189297
181	0xbfb3ec96d705921c	-0.07782881497912125
182	0xbfcf97894afa0ba0	-0.24681202088330867
183	0x3fbfeed050c3b308	0.12473775836742729
184	0xbfb4bdaf6214166f	-0.08101936478132087
185	0x3fcf96656fa00aea	0.24677722883651337
186	0x3fc7f3842ffb9068	0.18711902945426861
187	0xbfbd2d7649f60529	-0.11397494607628701
188	0xbfd0c94cf6134f7d	-0.26228641539386627
189	0x3fc6d7256b48595d	0.17844073999794832
190	0xbfa7830a59df9b21	-0.04592163416946549
191	0x3fc79d34764c7923	0.18448501373581747
192	0x3fc5166dcb4e4754	0.16474697520294035
193	0x3fbdd2dc97cc88da	0.11649874406842589
194	0x3fa46522ca04d931	0.03983410564471724
195	0xbfc3ba9d9b45d3d9	-0.15413255769422454
196	0xbf9fb02163947c1f	-0.030945321753389373
197	0x3fcfdabcd3b55434	0.24886284196205255
198	0xbfbd7bd63caf6fe6	-0.11517085057806717
199	0x3fbf66a576ea9b96	0.1226600089381534
