dogs/pair-data/Boxer/Border Collie/weights/conv-3-W_conv-3.weights.npy (npy, 32848 bytes, 1 tensors)

array f8 [16, 16, 4, 4]
-0.06404296166857174 0.029611529797158136 0.004575427648289399 0.09015360795548179 0.05112651112995569 -0.04191740991820108 -0.006659257660425015 -0.026598290888490486
0.10447422190659315 0.10932004912364116 0.055427702900573 -0.10336550200601695 -0.09675019302778572 -0.05392355091394934 -0.08110210179069162 -0.045674695118886284
-0.04267177704796867 0.012292223084409507 -0.07881125839690248 0.05276336462443181 -0.053112797414205465 -0.08980613195669684 -0.05023205597303517 0.006383851979786499
0.1062306099739703 0.06048473459092527 -0.07272843807967122 0.0164181952799294 -0.04714628524039642 0.06490900507544438 0.14823899826954506 0.07042296598150391
-0.018754054464625088 -0.013394381075138993 -0.012231640919020232 -0.027973787238388663 0.03129363701451948 -0.0183673244539813 -0.05400664727204604 -0.282331330283213
0.0010849350591925781 0.058896976327624584 -0.11017102518087646 -0.18946504344659554 -0.10770074114396765 0.02293682358525862 -0.02144914893087842 -0.1627761856212011
0.050659178560849186 0.08620188357698408 0.09216891971345909 0.12805827403559208 -0.05619942138117159 -0.003116087063638825 0.023308131926814545 0.058321702632418745
-0.015044226836489842 0.051168418421540816 -0.03409551412339151 0.002612766414438576 -0.08882925093452705 0.04900679833909323 0.0515743433740186 -0.06040966637001307
0.020371788014753492 -0.04416416615488336 0.017472569067728084 -0.05258278405824229 0.009318299115221279 0.05529472453387462 -0.006553573877938641 -0.006194875958621562
0.056037412909981085 0.04379475848762752 0.1323258878323432 0.06833479254195726 -0.03723728711754666 -0.012155570079951192 -0.052080476007184795 -0.042838758780317496
-0.0629557064758166 0.037213052494622034 -0.018994256755432447 -0.024090097596337425 0.009348092605047075 -0.05561442879581993 0.06387908997258931 -0.08095232087166952
-0.06659096655883176 -0.05474307651523819 -0.053134907929830916 -0.13263266756502098 -0.15091440784395654 -0.04025948809615354 0.08858933101519864 0.10587368582512742
-0.027225346033660107 0.026512728891727965 0.05831044960219852 0.0017019835468595084 -0.0446409828871928 -0.020383416179132714 -0.043928064904740445 0.08985656962618627
0.07107246531764035 0.09918433991130401 0.0393786545711368 0.13080383580234173 0.03361357887118435 -0.00824581608486231 0.0413445430976388 0.05950941428332803
0.03360427514611188 -0.038585485515088246 0.05894642344713637 -0.10322501813621804 0.06934344266204724 -0.0003482514674580865 -0.02495083138108303 0.0015617890082469665
0.029629141588397707 -0.023683734594182194 -0.09690930350427254 -0.06599659240234049 0.11481311079622904 0.004487252001933457 -0.1674931250130642 -0.08985308773726468
0.11519241952400791 0.017547133727257056 0.0006050957735075315 -0.05494622382976678 -0.03715534430879187 -0.001849902958939352 -0.15711526053260547 -0.13001912651812908
-0.00504224775755803 -0.004329212938427816 -0.09076906608962969 -0.050251518558223116 0.053571771237840446 -0.01282367293507832 -0.04046305199447444 -0.04424544164617697
0.01805894980251153 -0.09259889861537697 0.009201597317920229 0.15472826841287013 -0.05773736499923618 0.05281596982640531 -0.002533117045187782 0.014721904043149159
-0.02649979229777101 0.0043071542059875635 -0.09916608072896702 -0.12324086677387158 -0.08405565270644513 -0.04966407852383726 -0.10570733494760567 -0.0982381996321703
-0.06456228353953272 0.06116938797754911 0.05802531989564666 0.16402718012059112 0.0572379912127249 0.14522321684449876 0.03685047971269123 0.13918621364250042
-0.03684151234901366 0.00017182054941909647 -0.06449164378014564 0.10688772896486479 -0.025440075563526815 0.0736305132042564 -0.003587008309876419 0.1860437683100785
0.023564059051599855 -0.048563216266092855 -0.03914036948239886 0.035666134620695664 0.04307970516583026 -0.0252213074134668 0.10738582367004387 0.023121124399674058
0.07587051227024622 0.0005027854295778678 0.1474700382225471 0.05552622065551612 0.0203728722511868 -0.044348127002410635 -0.06289796489932126 0.026506787728240923
-0.08478815052625265 -0.06581175905325098 0.023681817472698694 0.10175947168821729 0.047631114863718266 0.02690232716252284 0.025952394663406077 0.02868530578914798
0.16381490477759167 0.058727851746923965 -0.07855646393490907 0.05227152354958904 0.08182824763804283 -0.15585157791513476 -0.010325177689464296 0.04304065296950159
-0.05878519821485318 0.04880485860784012 0.0995655470078459 -0.015993028827410806 -0.0972939604222966 -0.02105228820579509 0.02205488545813668 0.034052096816028325
-0.10382987644971048 -0.0070706972487172845 0.027219910422952045 0.017991927905172574 -0.10679373681051314 -0.013363709574755458 -0.023291213576265082 -0.011612205263387746
0.06799163991471605 0.1900208553068628 -0.0006743067161509194 0.019989065036931177 -0.041465586093619375 0.0020059026458600694 -0.03472385904005984 0.10484716430439572
0.05456148096094675 0.08022904137545432 -0.0030015302248001734 0.08179012879254369 0.1090140998630624 0.1432694867018444 -0.026075074505483173 0.08156747933015186
-0.03697868011307297 0.02520554303402089 0.00019332869098207333 0.1000326209897159 -0.18790899708768813 -0.012744722793343028 0.03939543365414927 -0.02533723365115489
-0.04403104529926101 -0.002273200219662723 -0.01511121664260743 0.03376933096070065 -0.03637512461100644 0.06394779070822429 -0.04486980172825573 -0.03725034596190826
00000000: aace e799 1e65 b0bf eed7 4020 7c52 9e3f
00000010: cd78 d501 afbd 723f d902 c98d 4e14 b73f
00000020: bf02 860a 412d aa3f 57a1 76e1 3276 a5bf
00000030: 38e6 dfdd bc46 7bbf 7474 fb15 953c 9bbf
00000040: 3726 5d96 d2be ba3f aa7c c813 66fc bb3f
00000050: e42f 8016 0561 ac3f e384 a65a 2976 babf
00000060: 759f efe2 9ec4 b8bf 87b7 511f de9b abbf
00000070: 2df0 d37a 1bc3 b4bf a9ad 9473 ac62 a7bf
00000080: 9336 c43d 13d9 a5bf d532 2441 aa2c 893f
00000090: 9e0d 5f81 f92c b4bf 974b faba cc03 ab3f
000000a0: 8c42 c9bf 9931 abbf 58f9 bbdf 88fd b6bf
000000b0: e3e4 3a1b 04b8 a9bf e16a 9c37 f425 7a3f
000000c0: 121e ace3 ed31 bb3f cd55 f3e9 daf7 ae3f
000000d0: d895 0ab7 549e b2bf 8584 256f eecf 903f
000000e0: 0e85 78d2 8e23 a8bf 8fd2 0366 e09d b03f
000000f0: 969d c7d8 7ef9 c23f 2223 c74f 3d07 b23f
00000100: e232 5f4a 4334 93bf 32d3 5765 836e 8bbf
00000110: 9df2 c90d e70c 89bf 2e29 5615 29a5 9cbf
00000120: 30bb 1937 b805 a03f cc25 6147 e2ce 92bf
00000130: 8c9f 995f c2a6 abbf faf6 8c6d b711 d2bf
00000140: 87b3 3d26 8cc6 513f 6024 5296 be27 ae3f
00000150: 4c60 1e16 2b34 bcbf f44e abfa 6340 c8bf
00000160: afe2 f798 4692 bbbf 62f4 b02c c07c 973f
00000170: 9599 bd04 c4f6 95bf 80c4 e79c d9d5 c4bf
00000180: fa77 52f6 ffef a93f 4616 d19e 5311 b63f
00000190: 3880 e0df 6198 b73f 8b87 7ba9 3664 c03f
000001a0: 3bc3 c5a9 2bc6 acbf ac43 f480 e886 69bf
000001b0: 1614 6d41 16de 973f be13 e89a 57dc ad3f
000001c0: 6ff6 0cf2 81cf 8ebf 9bc8 6a37 bf32 aa3f
000001d0: f056 339c f774 a1bf 70cf aa49 5e67 653f
000001e0: 0525 b187 83bd b6bf 2ad0 4b48 6b17 a93f
000001f0: 864a 35cc f367 aa3f dbcb d70a 04ee aebf
00000200: a43c 238d 57dc 943f aca6 9482 af9c a6bf
00000210: 5d58 e442 54e4 913f 68be b973 21ec aabf
00000220: b03e a2ef 7815 833f ff54 0713 974f ac3f
00000230: 7b85 a497 ebd7 7abf 8326 525a cc5f 79bf
00000240: ae04 9a8f efb0 ac3f 8593 e13e 446c a63f
00000250: d7b8 5300 0ef0 c03f ee8a 2593 637e b13f
00000260: ea26 b904 c410 a3bf 1238 a9ff 04e5 88bf
00000270: 7004 6cca 4aaa aabf 8ee6 ec37 f6ee a5bf
00000280: 5f03 697c dd1d b0bf 50c0 e5d6 960d a33f
00000290: 463e 4efe 3a73 93bf 07ba 5515 13ab 98bf
000002a0: 7335 26c0 1725 833f b43f ba91 7e79 acbf
000002b0: 7a9c 544a 615a b03f bbda ad92 4ab9 b4bf
000002c0: 3e47 9407 1b0c b1bf a878 a1d6 4807 acbf
000002d0: 0450 aba7 7f34 abbf 3b58 c974 1bfa c0bf
000002e0: 0eae 17cf 2951 c3bf 800f 7441 e49c a4bf
000002f0: a21b 7c57 caad b63f 0d3b 20b2 891a bb3f
00000300: 1ef0 580b f6e0 9bbf 431c 121e 2726 9b3f
00000310: 6bed 1c04 deda ad3f ca8c 03eb a2e2 5b3f
00000320: c6a2 1fd3 2edb a6bf f503 7be7 63df 94bf
00000330: 01ec 4844 bd7d a6bf 380e e013 d700 b73f
00000340: b973 2f1a ce31 b23f 16c4 3118 2564 b93f
00000350: 6547 1663 7029 a43f 4e30 7b1a 2ebe c03f
00000360: d410 e88b cc35 a13f c577 4eb3 2ee3 80bf
00000370: 30e1 f1a8 1c2b a53f 1351 4d98 0478 ae3f
00000380: a344 845d 9434 a13f a371 c60c 7ac1 a3bf
00000390: 5ade d7c1 392e ae3f 0429 066d f46c babf
000003a0: 75f0 6cea 7dc0 b13f 7837 dca9 b0d2 36bf
000003b0: 67b7 28f3 b58c 99bf 80d1 ac2d 9e96 593f
000003c0: e5db 8508 1a57 9e3f 2adb 1d86 8c40 98bf
000003d0: 029f 3a51 0ccf b8bf 72f7 0316 27e5 b0bf
000003e0: 8996 055c 6464 bd3f 0731 8e89 3961 723f
000003f0: 9f33 1e2b 6a70 c5bf 1bb3 46a9 9c00 b7bf
00000400: 3e4c 9a1a 407d bd3f c909 fd35 e0f7 913f
00000410: d9df 7147 e9d3 433f 316c c654 e921 acbf
00000420: 3113 5b79 0606 a3bf 601b 672d 0e4f 5ebf
00000430: e353 d854 5a1c c4bf 1cfb 1f7c 77a4 c0bf
00000440: 1000 7913 2ea7 74bf 0bb7 ce3f 82bb 71bf
00000450: 83ea 573a a43c b7bf e655 9029 91ba a9bf
00000460: 761f e95a c26d ab3f eb51 f73e 4c43 8abf
00000470: 8375 06ba 92b7 a4bf b41c bca9 56a7 a6bf
00000480: 5b23 359b 0b7e 923f a1db 32b9 8fb4 b7bf
00000490: 7353 697c 49d8 823f 60cc 4cca 22ce c33f
000004a0: 4c9d db7c c08f adbf 4acc 38de b10a ab3f
000004b0: 1873 b6db 54c0 64bf 608f 3383 8426 8e3f
000004c0: 4431 14f5 c222 9bbf dbb8 41e7 60a4 713f
000004d0: 0679 9ac1 f262 b9bf 9010 53a4 b68c bfbf
000004e0: a209 6bd7 ab84 b5bf 917a 17f2 916d a9bf
000004f0: d21a 8cca a20f bbbf e959 a37e 2326 b9bf
00000500: be7c 5b60 2787 b0bf 6f83 c211 9851 af3f
00000510: 045f 95a6 7eb5 ad3f fbf2 22b7 d7fe c43f
00000520: f3dc b148 4c4e ad3f ebc7 7ba3 ac96 c23f
00000530: 8874 6aea 10de a23f 9905 d395 dad0 c13f
00000540: ee2f 5905 e4dc a2bf fa4d f447 5785 263f
00000550: 6ba8 e63c 8682 b0bf 3a70 3f84 fe5c bb3f
00000560: 2864 3692 f60c 9abf b831 3306 73d9 b23f
00000570: a06c 346c 8062 6dbf 0319 423e 48d0 c73f
00000580: 5e56 f33b 2d21 983f 138a 4d23 47dd a8bf
00000590: 61b1 c2dd 340a a4bf de8e 8ae3 d442 a23f
000005a0: 00fc 9d09 8b0e a63f 7447 034a 9dd3 99bf
000005b0: 3684 b728 a37d bb3f bec9 9264 10ad 973f
000005c0: 1875 eef8 3f6c b33f 9a71 0c7d ab79 403f
000005d0: 7f21 a757 4ce0 c23f 4b64 92cb ee6d ac3f
000005e0: e67f 2d50 a0dc 943f 7f79 3a36 ccb4 a6bf
000005f0: 1c40 3abe 141a b0bf aac3 a869 9824 9b3f
00000600: 8f3c 991d adb4 b5bf 2071 d318 0ad9 b0bf
00000610: 7c67 38de 0b40 983f 9f89 f5a2 e80c ba3f
00000620: 5c2f 3901 1b63 a83f 42b6 659d 488c 9b3f
00000630: ea2f 54b9 4393 9a3f e5e9 f548 ae5f 9d3f
00000640: 79fd 4e05 e3f7 c43f 9018 3cb5 9311 ae3f
00000650: 0566 7dc3 461c b4bf 2aae 5048 55c3 aa3f
00000660: e68f 7e2f b2f2 b43f c676 16cb f1f2 c3bf
00000670: c85a 03e4 5d25 85bf c613 cea9 6c09 a63f
00000680: 31b2 a4ef 1719 aebf 5091 364f f3fc a83f
00000690: 2601 35b0 207d b93f 3a61 1cff 7960 90bf
000006a0: 6cb1 1cca 41e8 b8bf c440 6625 bb8e 95bf
000006b0: d5f4 094f 8e95 963f 27c1 5ec4 466f a13f
000006c0: 8c00 b343 9894 babf c12c 17d7 29f6 7cbf
000006d0: 473a 4444 89df 9b3f 0261 c7d7 796c 923f
000006e0: 1dcf 0497 d556 bbbf 1b52 9dbc 6e5e 8bbf
000006f0: 8478 60e2 a6d9 97bf 62bb b9ce 23c8 87bf
00000700: 02ca d56d e667 b13f 12eb 8c77 9a52 c83f
00000710: a135 8ca5 7e18 46bf f7e7 7172 0378 943f
00000720: 6ef6 5c30 fa3a a5bf cde9 69c8 ae6e 603f
00000730: e499 ef5d 53c7 a1bf 1c06 c485 43d7 ba3f
00000740: c67a b280 7bef ab3f 43a2 e5f4 e389 b43f
00000750: af3e e944 aa96 68bf cab2 4ca8 32f0 b43f
00000760: 9ef8 b619 59e8 bb3f a516 f38f a756 c23f
00000770: fc9d f7a0 6cb3 9abf 69e1 2338 9be1 b43f
00000780: 0644 789b deee a2bf df41 095c 7bcf 993f
00000790: 855c 6fcf 0857 293f 291a afe3 bc9b b93f
000007a0: dfd1 8eea 660d c8bf f77f c0bc e719 8abf
000007b0: b807 5066 a32b a43f 177d 9cf7 00f2 99bf
000007c0: aa56 23b7 3c8b a6bf 2307 3913 3f9f 62bf
000007d0: d41c 432a a1f2 8ebf 4d03 2bb8 364a a13f
000007e0: 7f34 2fa5 c29f a2bf 5647 bee5 e15e b03f
000007f0: 1171 00b6 2cf9 a6bf 0398 5733 7a12 a3bf
