dogs/pair-data/Boxer/Border Collie/weights/fcn-1-B_fcn-1.weights.npy (npy, 880 bytes, 1 tensors)

array f8 [100]
0.0006798898431518996 0.004583511424723129 0.02460954551978767 0.022825867036473473 -0.00886489117957153 0.021747287370724074 0.028996389730652695 0.036665739899339155
0.030393946231744285 -0.0329773610403888 -0.020506929778484347 0.024586384142656126 -0.0286280429244268 0.0019115817077609864 -0.024737944104510034 -0.025471370767473057
-0.006862751962356277 -0.023391174276445215 -0.0257331356875013 -0.025810457237597943 -0.028955838899554016 0.004412392852495387 0.000935615958627302 0.005239832175134945
0.046423511815603044 0.0279148652868279 -0.02718169980524252 0.014415661731908077 0.032105537994986735 -0.003436222858980829 0.026132353632979867 -0.018461632799940134
-0.016988576162276014 -0.007631534592101832 -0.034623790595975944 0.01525844815013417 0.018882126334940158 0.025798902694789697 -0.0048745470825282316 0.0047776106311469
-0.025396108264263275 0.022636493476244128 0.03799706232702204 -0.02221075155137266 0.019903501039767714 0.032288676193973104 0.027804094890477395 -0.0096227439847164
0.028133773723439916 0.018430049606117285 0.014081072491762374 0.0252381459390943 0.034554733468254765 -0.01938303260782391 0.019925458941418454 0.02759028572692232
-0.013775257244025169 0.01237892774922625 0.029277865721943533 0.014951126605132928 -0.023848125010243672 -0.034526736690748884 -0.008462693721727846 0.007773745663797128
-0.005066029077681725 0.027386728075073242 -0.022550013109794334 -0.03401430146338957 -0.012843318623049414 -0.0090141685447374 0.005089428406068403 -0.006954027636214696
-0.015711396270832297 0.013595705105266222 0.01809313098833582 -0.04099773945474463 0.03573689642125502 -0.01169132317167035 -0.006578748484770861 -0.04066646710076243
-0.011612753147374987 0.00879492494469077 0.014112291891390698 0.019274518513000702 0.024541086450148727 0.013735831425438026 -0.018883370225998338 0.03283524229236257
0.011570846142017798 0.013067842527934448 0.014466101259628746 -0.0167097358090091 0.03129949332195483 -0.008164752765879796 0.041389072206310044 -0.007886828931478258
-0.02224543171518668 0.025238781029080778 -0.04054890245137334 -0.01914668466041911
00000000: 0a7f 1352 5447 463f 7f6f b8fa 28c6 723f
00000010: 4128 b5a4 3e33 993f 9baf b201 aa5f 973f
00000020: 2b43 978d c127 82bf 02ca 22c0 eb44 963f
00000030: 4a82 61c6 3ab1 9d3f ebaa 8013 dac5 a23f
00000040: 9d34 3f34 971f 9f3f aa8c 5a9e 68e2 a0bf
00000050: c2b7 f5c2 c4ff 94bf 8045 474f 2c2d 993f
00000060: c682 6f70 ab50 9dbf 8a22 c83a c151 5f3f
00000070: e3b9 9853 e754 99bf daeb b8c1 2a15 9abf
00000080: df73 d2f3 1d1c 7cbf 4025 2122 dbf3 97bf
00000090: 512e ce80 c959 9abf 0ed1 eb76 0e6e 9abf
000000a0: e545 6874 99a6 9dbf 7726 faaf ba12 723f
000000b0: 745e d2f8 83a8 4e3f ad7d 42bd 5c76 753f
000000c0: 76e7 0692 d2c4 a73f eeab eae5 b695 9c3f
000000d0: b952 dafe 84d5 9bbf 2b8c 825d f585 8d3f
000000e0: f2fb 6a17 2370 a03f 1588 a219 4826 6cbf
000000f0: 8a76 e290 70c2 9a3f 540f 6d34 9be7 92bf
00000100: 631f 170c 7465 91bf dca6 dc77 3e42 7fbf
00000110: ebe9 8ba0 35ba a1bf 241e 573e d23f 8f3f
00000120: c89b 590c d655 933f a421 630d 076b 9a3f
00000130: 151a d644 55f7 73bf 80ea 9e16 b091 733f
00000140: 3743 c3f9 6f01 9abf eed2 b45c 052e 973f
00000150: bfc7 13d8 5974 a33f 2583 214e 6abe 96bf
00000160: 8ab4 2a58 9561 943f fc88 9130 2488 a03f
00000170: fa77 ff38 ad78 9c3f 3b75 b2d5 16b5 83bf
00000180: 7790 3898 19cf 9c3f 64a8 49b1 53df 923f
00000190: fcfe c18e 89d6 8c3f d22a ae4d 07d8 993f
000001a0: df17 5674 28b1 a13f 7c74 974c 25d9 93bf
000001b0: 9173 0bea 5667 943f 38a7 89bb a040 9c3f
000001c0: 3d4a dbba 3336 8cbf d162 bd8e 1f5a 893f
000001d0: 14f7 164f 04fb 9d3f e28e 753e b29e 8e3f
000001e0: 9aac f593 a46b 98bf fd46 d909 7dad a1bf
000001f0: 15c6 2a86 e354 81bf c17d 4bf6 5cd7 7f3f
00000200: 84ff 58d3 1dc0 74bf 3d21 b535 440b 9c3f
00000210: 64e1 52c3 5917 97bf 9f59 c390 526a a1bf
00000220: f232 aa0b 994d 8abf 1a5f cd38 0576 82bf
00000230: 7a4a f308 a7d8 743f a34c 5e94 d37b 7cbf
00000240: a281 a1f4 a516 90bf 0e6e 58a6 10d8 8b3f
00000250: b132 8277 0187 923f 930b 56dc a7fd a4bf
00000260: c497 c742 1b4c a23f 51b5 5ad5 9ef1 87bf
00000270: 4482 7359 51f2 7abf 87b7 7b34 3cd2 a4bf
00000280: c63f e057 6dc8 87bf 6ad6 10d8 1203 823f
00000290: 6939 29c1 e7e6 8c3f ec4f a30a b3bc 933f
000002a0: 3cc7 d86e 4c21 993f 5285 0b16 8821 8c3f
000002b0: 4f56 3c86 2956 93bf 0197 9ae7 c7cf a03f
000002c0: 59d8 22ae 74b2 873f f346 4b22 50c3 8a3f
000002d0: f15f 7c3e 67a0 8d3f 3448 4c63 5b1c 91bf
000002e0: 23f9 65b8 7c06 a03f 3d02 e090 aeb8 80bf
000002f0: 8f65 13cf f230 a53f 2a86 a342 f826 80bf
00000300: a3fa cea6 81c7 96bf 6f77 71ec 31d8 993f
00000310: f2ad d563 d3c2 a4bf f9f6 c541 309b 93bf
