dogs/pair-data/Boxer/Border Collie/weights/fcn-1-W_fcn-1.weights.npy (npy, 320080 bytes, 1 tensors)

array f8 [100, 400]
000000 2f 71 01 0c 61 0a 88 3f 08 af 44 0c 78 1e a0 3f
       0.011738546542055943 0.03148245954284162
000010 c9 2c 5f 6b fb 34 7d 3f 2a e0 6b a0 bf a3 b6 bf
       0.0071306057997830375 -0.08843610445535491
000020 bd 40 6a 49 47 d8 95 bf fc 18 ac 49 b8 2b a1 bf
       -0.02133284936513812 -0.033536681168742505
000030 16 07 0c e6 d1 df b0 3f b3 a8 26 75 ab f2 82 3f
       0.06591522089368271 0.00925191832796588
000040 c3 1b 29 eb 39 8c 80 3f 45 d6 18 c0 23 ab 85 bf
       0.008079960335761421 -0.010580329227290916
000050 78 8f b5 dd 22 31 97 3f 77 e6 03 b0 64 48 a8 bf
       0.02264837721067134 -0.04742731712935904
000060 03 15 f6 f9 85 a5 ae 3f 60 46 fc e2 03 fc 47 bf
       0.05985659290585412 -0.000731946847709785
000070 32 80 b4 4f 3a 82 52 3f b2 e6 6a 08 98 17 a2 3f
       0.0011296815344579267 0.03533625700715727
000080 d1 42 df 4d 7a 7c 7d 3f 67 4d a2 47 cf 99 9d bf
       0.0071987893588391786 -0.02890704989165496
000090 1a 4b ed 5a 04 5b a8 bf c0 ce cc 54 53 6d 8e 3f
       -0.047569404696920795 0.014856959367171796
0000a0 8d 9a bb 29 1d ae 7a bf 14 79 6b b7 a4 28 9a bf
       -0.006513704221765904 -0.02554566735749926
0000b0 71 26 84 fe b7 ee 85 3f ed a9 f6 85 9d dd 85 bf
       0.010709226088255282 -0.010676603937857155
0000c0 ec 39 7c c6 14 36 80 3f e5 59 7c 9d 15 1c a8 bf
       0.007915651614465134 -0.047089267229399025
0000d0 32 88 9d 52 df 04 8d bf 94 76 e1 be a3 da 97 bf
       -0.014169449528427778 -0.023294981503900816
0000e0 dc 18 80 ce b3 c4 90 bf 67 86 cc 72 79 a9 a8 3f
       -0.016375359991820257 0.048167987121144056
0000f0 8a 74 06 24 95 10 94 3f f6 58 ce 17 03 b3 b4 3f
       0.019594507526211426 0.08085650759889859
000100 65 3d d3 93 1c 38 a4 3f 12 6b a7 1d 79 c6 a4 bf
       0.039490597767889914 -0.04057672965037375
000110 0c c3 e9 32 7c fd a2 3f 50 90 ca e5 6f 58 70 3f
       0.03709018823145102 0.003990590190969881
000120 df a7 a6 f4 9a 18 93 3f f7 2e c7 4b 16 33 a2 3f
       0.018648549253761245 0.035546013593913565
000130 45 db c0 fb 3a 0b 98 3f c1 b8 17 fa 2a e8 87 3f
       0.023480340591244504 0.01167329383585203
000140 75 67 af 0d d7 83 8f bf b8 09 bf 69 8f 9c a1 bf
       -0.015388183694017713 -0.03439758458945924
000150 50 26 11 8a 78 d0 91 bf d5 3e 8f 9c de 89 a1 bf
       -0.01739681570714985 -0.03425498639228201
000160 50 d3 0b 9b 9f 3f 99 bf 83 b6 ef 5f 06 cb a2 bf
       -0.024656766737240432 -0.03670520707224247
000170 07 ba a5 0e 48 13 a3 bf 52 46 2f e8 a9 11 ac 3f
       -0.037256480968483933 0.054822263329367474
000180 47 36 f3 90 19 d0 8a bf 30 79 d8 9a 8d 29 98 bf
       -0.013092231498741514 -0.023596012664819088
000190 a5 bb 92 a7 97 db aa bf 1e a4 32 23 48 da b0 bf
       -0.052456607061109474 -0.06583071574517915
0001a0 2c 1b 73 f7 7d 89 9b 3f a9 06 f1 2a d7 e7 92 bf
       0.026891678074004208 -0.018462526317540782
0001b0 79 6c 93 80 97 08 8e bf 64 41 d5 df 11 78 72 3f
       -0.01466482506878307 0.004509038755103088
0001c0 cc d0 14 7f 5d fd 94 3f 30 27 eb e6 26 f3 7b bf
       0.02049776161330001 -0.006823684655225468
0001d0 c5 0e 38 7b 9b 1c 73 bf d0 04 88 44 23 66 a4 3f
       -0.004665953968927721 0.03984174930156714
0001e0 31 32 85 7a 5d d6 78 3f 43 54 31 e2 58 da 99 bf
       0.006063809538613672 -0.025246990972238825
0001f0 98 37 bf a4 1b 43 87 3f 53 a1 83 90 75 1f 82 3f
       0.011358467068841624 0.008849066231463231
000200 5f a9 91 a3 98 f7 a1 3f 2b 2a bb af 15 41 9d 3f
       0.03509213444415837 0.028568590975547686
000210 49 5d 19 dd 55 74 6e bf bd 08 8f c5 3d ed 76 bf
       -0.0037175824188967793 -0.005597344680554337
000220 83 27 8b c3 17 84 b0 bf b7 17 e5 bc 2f 45 ad bf
       -0.06451557659161548 -0.057168475922068245
000230 8b 45 bc 8a 31 15 7b 3f 32 cd f5 b9 e5 eb b7 3f
       0.006612008593735462 0.09344325819056534
000240 8b 23 5c 71 f0 c8 91 3f c7 33 a0 54 7c 48 a9 bf
       0.017368084830227153 -0.04938114674596466
000250 ee 6b 13 f4 a2 bc 9d 3f 4f 21 29 db e6 70 92 3f
       0.029039903781136127 0.01800881111765423
000260 a1 32 c9 c4 16 4f 82 bf 37 40 98 20 08 d4 8d bf
       -0.008939912681989627 -0.014564574713432516
000270 2b 27 fa a5 a5 fa 97 bf bb 3d 47 57 2b 8a 62 3f
       -0.023417080169145493 0.0022631498816065554
000280 6f 3c e1 e5 ed 1b 8f 3f 1d ac f0 d9 73 52 91 bf
       0.01518998964107096 -0.01691609399510351
000290 52 71 47 33 21 20 a2 bf d9 97 9b 3e bf 8a 94 bf
       -0.035401380071308566 -0.02006052798869704
0002a0 b7 aa 38 82 8e b6 a9 bf ae 95 f5 2a 9a 04 7f bf
       -0.05022092189422749 -0.007572748392111901
0002b0 5a a9 e3 6b 9e 9f a7 3f 94 2a 36 fe 98 fb 98 bf
       0.04613967005737392 -0.024397268787235207
0002c0 4a e8 e5 6e 19 2a 84 3f d0 3d ce 6f 72 1d 78 bf
       0.009845923134651841 -0.005887457865255866
0002d0 ab 8e 03 56 fc 6e 9d 3f a6 09 aa a0 95 48 94 bf
       0.028743689298507274 -0.019808137828030724
0002e0 30 2b 32 2c f8 06 8b bf 6d b0 e1 c7 16 a1 84 bf
       -0.013196886872056973 -0.010072877859976093
0002f0 26 e8 16 1d c7 70 a8 bf 7a c1 4f 3e ad 88 a2 3f
       -0.047735426236116305 0.03619901071204175
000300 60 62 0c 25 ae 22 a2 3f 7a 4c 96 95 05 7d b3 3f
       0.035420839331156584 0.07612643148449819
000310 6f d5 4c 7c c7 c5 93 bf 02 d3 de 23 60 84 9c 3f
       -0.01930915542762562 0.02784872263846961
000320 9c 1b 2a 8a 23 52 a3 3f ce e1 2f 1a 99 7a 59 bf
       0.037736044517308914 -0.0015551085605222006
000330 e4 2c 99 f9 98 24 96 3f 82 32 37 02 88 42 8b bf
       0.021623983606599576 -0.013310492103209674
000340 27 14 e9 3e 71 44 60 bf be c5 e3 cf 6d 9f 97 3f
       -0.0019857608633935433 0.023069110692579768
000350 b9 fd bd ad 5f dc a3 3f 15 fa c0 c9 c5 72 94 bf
       0.03879069324375046 -0.019969072760654145
000360 29 58 e1 2e df 15 a2 3f 96 17 58 56 6c 0d 9a 3f
       0.03532311866062827 0.02544183041575073
000370 97 8f b3 f5 29 9f a5 bf 3e a1 14 5a 51 c3 77 3f
       -0.042229949229095336 0.005801503926058436
000380 27 ce c3 63 e4 a6 a2 3f fa b1 4c d1 0a c4 87 3f
       0.03642953603585069 0.011604389679257022
000390 f2 29 c6 4f 6e 5b 9f 3f 15 15 3a ec 3e ba 87 bf
       0.030622218722365653 -0.011585704406807321
0003a0 0c 65 bd 2a 52 9b 94 bf 57 63 b0 e4 cf e7 89 3f
       -0.0201237524591749 0.012649177710089594
0003b0 9e 84 4c de 27 03 93 bf 44 18 37 01 a7 a5 45 3f
       -0.018566725676582345 0.0006606164410463207
0003c0 53 44 c6 43 1a 7c 6d bf 8a ac c3 cf f5 94 7d 3f
       -0.0035992157920153116 0.0072221376433204785
0003d0 95 11 af f7 bd 8b a2 bf a9 5c 4e bd 1d 8d 77 3f
       -0.036222397312971534 0.005749813241798276
0003e0 16 45 dd 1c 1c d4 86 3f 12 75 7c 9a 89 77 9c 3f
       0.011146754866475688 0.027799749425971028
0003f0 71 68 df dd 68 8a a9 bf 76 ab 79 0d c9 80 81 3f
       -0.04988410671622113 0.008546419833882029
000400 fb 03 a5 ac ae d4 99 3f 09 d9 a8 6d a7 41 94 3f
       0.0252253811715981 0.01978170019921158
000410 09 61 4c 59 2e 10 95 bf 58 10 fc 87 68 d4 a1 bf
       -0.020569538307513322 -0.03482367191284713
000420 d2 b2 b5 c3 df 2f 99 bf 4b 3f 9e ff 50 b9 65 bf
       -0.02459668762223794 -0.0026518423082463652
000430 b6 ba aa 73 1f 4d 96 bf b9 6c 08 58 9e c4 a0 bf
       -0.021778575358150497 -0.032750080343441686
000440 d1 44 af 8b a2 c2 79 3f 3b 11 55 f8 b1 1c a4 bf
       0.006289133972090259 -0.03928142696762157
000450 4d 8c e9 ee 7e f3 8c 3f 6f bf af 05 47 54 9e 3f
       0.014136306444191638 0.029618367883755988
000460 14 78 0c 0b 3b 52 86 bf 76 8a c8 c3 c7 22 64 3f
       -0.010899029993705546 0.002457990804275052
000470 a1 cf 41 06 24 34 a8 3f 30 00 f6 f5 55 6e 8f 3f
       0.04727280212765029 0.01534716755736562
000480 a6 a3 44 b8 59 72 a2 bf 7c bc d6 7a 13 77 73 3f
       -0.03602867483488774 0.004752231686708016
000490 19 90 13 c6 7d 24 9d bf f2 b1 ef e4 dc 48 9f 3f
       -0.028459515776276676 0.03055138728443469
0004a0 d9 42 14 f0 1b 9e a9 3f e5 d2 3a 10 e8 46 94 3f
       0.0500344019475329 0.019801736822688282
0004b0 34 b1 e6 41 10 55 86 3f c5 79 78 f1 e5 8a 92 bf
       0.01090443326105426 -0.018107979644008915
0004c0 00 a0 1a 51 90 e9 8c 3f c3 2c c5 1b b9 d4 81 3f
       0.014117362475488449 0.008706518325786288
0004d0 03 f5 05 27 a7 6f 40 bf 9f 47 aa 55 07 bd 45 bf
       -0.0005015913175580314 -0.0006634031118031186
0004e0 75 62 09 35 49 96 99 3f 0d 05 5f b6 35 43 7d 3f
       0.02498735796175074 0.007144174398434855
0004f0 a1 4f 6a 8d ff 8f a6 3f c0 9e 1b 56 93 60 31 3f
       0.04406736947308266 0.00026515576438022534
000500 77 78 19 15 aa 63 74 bf c8 c3 06 9d 4c 5f 92 3f
       -0.004977859863713011 0.017941662868626
000510 4d 39 9a ba 07 69 94 3f 3c cb 54 86 08 00 56 3f
       0.01993190838271035 0.0013427813767747506
000520 12 f4 74 72 ea 44 97 bf 82 90 ac 72 93 2b ad bf
       -0.02272383044804733 -0.05697308325605467
000530 e5 4a 39 4d 8b 42 69 bf dc 1f 6d d2 42 fa 8f 3f
       -0.003083488534494238 0.015614053770732932
000540 51 3a eb 37 17 51 ad bf dd b9 c6 64 e9 10 a4 3f
       -0.057259297920258086 0.03919152598551865
000550 45 49 86 5c db 35 a7 bf 87 69 30 66 18 61 ad bf
       -0.04533277039003506 -0.05738140342164671
000560 db eb ac ef 71 14 7c bf 3f 6e 95 d8 86 21 75 3f
       -0.006855435431869029 0.0051589267180492384
000570 00 17 b8 58 b5 3b 90 bf 94 81 a8 a2 68 0e a2 bf
       -0.015852769412979306 -0.03526617990087569
000580 8d cb ae 21 c8 ba 8b bf 62 2b bc 91 2e a5 97 bf
       -0.01353985169212082 -0.023091056485138657
000590 1f 72 62 07 91 e8 8d 3f 8e c4 31 5f 64 bd 98 bf
       0.014603741681917857 -0.024159973440366182
0005a0 ae 89 b3 98 60 8f 8c 3f 9c 02 5f 2b e7 0a a8 3f
       0.013945345554422808 0.04695818333084853
0005b0 1f f9 16 45 a8 3a 9d 3f 28 69 37 0b e9 21 81 bf
       0.028544072358038904 -0.008365460066603506
0005c0 fc 0c 9d f1 3a 9a 6a bf 80 03 7b bf 8d 13 85 3f
       -0.0032473708387513716 0.010291201978704256
0005d0 64 bd ee f3 8d 33 8b 3f 34 0b 8a 8d 79 36 86 bf
       0.013281926161509978 -0.010846089965757956
0005e0 ce 04 30 90 c0 2b 95 3f ef 81 ce 9f e3 50 98 bf
       0.02067471389819247 -0.02374606764681347
0005f0 3e 34 8d 27 db a7 54 bf 88 58 55 67 25 ab a1 bf
       -0.0012607231312416057 -0.03450886618036103
000600 50 70 6c b6 db 69 92 bf f6 89 c2 17 f9 1d 99 bf
       -0.017981942185642474 -0.02452840049284962
000610 db 00 0b db 6e 9f a8 bf 94 ed d3 60 c7 8a 86 3f
       -0.04809137748589062 0.011006887094928065
000620 10 b2 55 67 05 84 9d bf 8d 48 ed 7d 77 31 85 3f
       -0.028823933059742457 0.010348256617053653
000630 17 7f 03 40 56 78 a3 bf e4 2d 9c 5e f8 f5 91 bf
       -0.03802747279564594 -0.017539864325085378
000640 28 ef 1a 2b 94 83 6e 3f 95 e0 af e3 b6 9a 9d 3f
       0.003724851027838389 0.02891050114337242
000650 f4 01 0a db 87 8e 35 3f 3a 37 2e f4 e5 df a2 3f
       0.00032893006122239267 0.03686445813865054
000660 bc f0 b6 97 5b e9 9f 3f 60 a7 42 6c 50 5b ae bf
       0.031163626799511887 -0.059290421691300166
000670 f8 2f a0 7c 41 a3 87 3f 06 b4 d0 97 96 f1 ae 3f
       0.01154185449197341 0.060436922104010235
000680 e7 35 92 68 45 04 93 3f 58 64 0e 88 db da a0 3f
       0.018570980556026042 0.03291975055544388
000690 0d c3 a1 1a cc 89 88 bf ac 1b ae 99 d4 ea 8f bf
       -0.011981577456226878 -0.015584622325844531
0006a0 06 82 25 8b eb cf 75 3f 96 6e 3e 02 f0 0c a6 3f
       0.0053252411765645265 0.043067455552969466
0006b0 48 89 cb 7b 4b e0 a8 3f 05 56 3d 97 e2 7a a2 3f
       0.048586233960821235 0.036093789064278105
0006c0 dd b6 52 b7 3c 90 84 bf 9a 19 75 58 6f 63 71 bf
       -0.010040735573365317 -0.004245219176772253
0006d0 a4 7a 22 dd d1 14 96 bf ca fd 15 3a 81 c3 9a 3f
       -0.021563796159734708 0.02613641659763547
0006e0 9a 30 32 c0 b1 3b 62 3f b3 b5 55 8c 07 52 a3 3f
       0.0022257301039357415 0.03773521030494056
0006f0 9b fd 7f a8 f5 b5 97 3f 28 10 aa 12 f8 54 3b 3f
       0.023155058297559355 0.00041705185382334914
000700 d4 72 4c 9a bc 55 83 bf 2c d1 dd fa c2 3d 74 3f
       -0.009440873583622368 0.004941712990206331
000710 95 63 68 ab 9b 44 84 bf d1 53 7c df 3f b2 72 3f
       -0.009896484535646436 0.0045645232237534064
000720 dd 66 2e b3 85 54 60 bf 88 c1 2c 24 b9 7b 90 3f
       -0.001993428356809142 0.01609696658414486
000730 ed 73 1d 7a 5e fe 84 3f 5b 78 f3 5b 80 bf 8f 3f
       0.010250795461326201 0.015501978689311515
000740 7b 14 60 45 2e a9 af bf 63 78 c7 35 13 fa 7e bf
       -0.061837621658960416 -0.007562708892207312
000750 26 7c bf f2 be 2a 9f 3f 89 3c c1 e6 14 c2 90 bf
       0.03043650013557566 -0.016365362724454022
000760 df 7e 2d ba a9 a7 97 bf 19 0d ed 07 85 b8 97 3f
       -0.023100521076570565 0.023164824112666602
000770 ae 6d db 49 e6 29 a1 bf 83 1f ff e0 e0 de 9a bf
       -0.03352279330803341 -0.026240838749600492
000780 7b 46 fe 72 13 88 98 bf be 24 6b f3 8c ca 71 3f
       -0.02395658864367654 0.004343557919761652
000790 ad 44 ba fc fc 44 6e bf 8c 18 b7 ad 95 e9 a8 bf
       -0.0036950055271708 -0.04865710969493006
0007a0 5f 41 9f 1f 7f 76 83 bf 56 d6 66 14 2c b8 91 bf
       -0.009503358032731666 -0.01730412363550323
0007b0 33 71 cc a8 59 ec 9d bf e7 32 2d 86 4b f0 9f bf
       -0.029221917083405557 -0.031190090240943127
0007c0 c6 1b 5b 60 dd 8c 89 3f a9 15 41 ca b8 27 89 3f
       0.01247570944123123 0.012282794639882537
0007d0 3f da 98 05 c9 b0 9d bf e3 4b 3a 03 da 5d 95 3f
       -0.028994694677942908 0.02086582798672144
0007e0 a4 82 52 35 df 16 a7 bf 10 b8 87 97 b6 9e 94 3f
       -0.04509637380511336 0.020136692999521755
0007f0 4b a1 5d 77 75 2b 8f bf 66 82 03 9b d7 de 85 3f
       -0.015219609933141106 0.010678944032805403
