dogs/pair-data/Hound/Poodle/weights/conv-2-W_conv-2.weights.npy (npy, 102480 bytes, 1 tensors)

array f8 [16, 32, 5, 5]
0.03242563089094386 0.0435308580514208 -0.0020903609885826115 0.012691138915186681 -0.008780063635265392 0.09008575344807292 -0.03067765835760595 -0.024003778667080884
0.00898864967298439 0.017566504187754475 0.029765728932498854 -0.03349265627505818 0.049583640151615656 0.10607451139972929 0.08010414330437561 0.07257541575591038
-0.023600226695251074 0.04913913608357419 0.0006134009571183249 0.008279538936600776 0.07579585909676727 0.053532822801786936 0.020357943406873025 -0.035803449220862475
-0.037349530223813925 -0.07102597209796001 -0.054753313348768186 0.014300294839168918 -0.07969234430031767 -0.043584484896703184 -0.0526245072933691 -0.03405664821034461
-0.05646926071926748 -0.026914780644732843 0.054007531147494875 0.002594055962512397 0.013482889360078203 -0.010614377123130446 0.013082673188546414 0.007849750562348226
-0.02957941088336902 -0.0063907724560493505 -0.062122053158931524 -0.032138467607266914 -0.018171706027067146 -0.00026840937827849473 -0.05564267857132218 -0.018938861283627845
-0.00439251173931276 -0.049457758987341956 -0.09585069028404784 -0.05465310449182226 0.012418005130076256 -0.006480906108520764 0.018338092108741332 -0.0036211166702198815
-0.002856574803303111 -0.049670544991752566 -0.0018933924371168495 0.06434282578001825 0.020353063634337545 -0.016493693017836146 -0.0048549805750522975 -0.010465395343641217
0.06367478104505521 -0.019151677301693218 -0.020863376978410054 -0.02689232704599992 0.013518828929777883 0.003992164883434621 0.002438377477946544 -0.05690472238400542
-0.0019231638181073352 0.031072087047947592 0.04231366819931146 -0.04923217295650448 0.04918561345703216 0.06185404414869001 0.032590781314499453 0.017533497328653485
-0.04019595692335318 -0.020651674142605103 -0.0008161313148915921 0.0531018818605443 -0.03754346869448482 -0.0180435922808169 -8.141776926557425e-05 8.046519842117978e-05
0.028125325454751344 0.041397957601335106 -0.017967827921624012 -0.008515055133676843 -0.05779652304393155 0.038834233970625485 -0.04547584168059167 -0.08796305818538042
-0.07084889283852233 -0.025416766194897796 0.07674314573574745 0.024125483795548245 -0.08848256799383167 -0.050558096938958796 -0.01724616162403281 -0.0222694827736707
-0.02156436599125276 0.01661028020716853 0.030276884089568485 -0.00524154330179878 -0.005331808175586613 -0.007494200769070543 -0.06353694564154229 -0.02420495962274124
-0.05263843538819009 -0.049560814037046805 0.05632072751005772 -0.018513538698452355 -0.020416020502954674 -0.05322454627124177 -0.037163292682050084 0.02397170996717646
-0.04916080783533238 -0.022648665935326554 -0.03577000326799451 -0.01738320759591971 0.030763030643298744 -0.022605225684831965 -0.0587104176059118 -0.027191595101102736
-0.008145586769752949 0.008157993455098097 -0.07585107325461408 0.020989600491932277 -0.023401058950595972 -0.06701456498954415 -0.023488975798712907 -0.07198510608460179
-0.13125229959695797 -0.10073594300060133 -0.014159063974341548 0.013614117476628036 -0.03722852528648268 -0.039715188901249324 -0.024469258029743587 -0.011316643048718524
-0.015932296151669825 -0.04780946256712052 -0.10746143279010276 -0.0828494839511763 -0.07513232512167145 -0.05216213041541601 0.03499599901023576 -0.0052972822666998
-0.06326285918723695 0.010599336561904477 -0.05249125081850206 0.0805004744814968 0.040737935691763004 -0.002545713433435525 -0.0003162488014752629 0.0017040954085581123
0.01931509163554841 0.027898571354068445 0.038999646126806606 -0.01974248695713225 0.02980228991771473 -0.02911383728448042 0.029123484023872836 0.027943615602695794
0.047445963973896894 -0.025080951669085947 0.05805488881086418 0.024511484222979236 0.00944029255675733 -0.0097926389427993 -0.030990779332479672 -0.014989495970981443
0.06328319145429545 -0.028326196148092276 0.02771923478305732 -0.04087446983036839 -0.0010513467765113451 0.05459767647497155 0.02474187544924102 -0.0034135312367074063
-0.012680148378856455 0.05512932284767739 0.003138214981138682 0.01305870489807976 0.005698758585858075 -0.016919424558928267 0.026183274024802177 -0.004222736902616394
0.02990094052581434 0.02354342566479279 -0.05705193114633255 0.021262608012071547 0.039687752803419254 0.05240789819504996 0.014357997870436486 -0.04383339355466832
-0.0979940710910635 -0.044117209809608045 -0.017939928526857954 -0.018730806693106544 -0.03221903748735603 -0.013625104230859175 0.0500188760492324 -0.002956874237680526
0.0031263275905979134 0.028545595866450838 -0.06912071420795922 -0.05399512137486758 -0.0176826484389959 -0.06283501869886172 0.06951202699879079 -0.06861723427109011
-0.0413130335987867 -0.030549191760521933 -0.07267790710515627 -0.04089179993713945 -0.04579037072327263 -0.008125254880655892 -0.051055926126884275 -0.01759994437169071
-0.018128349619430228 -0.014170066373258523 -0.014363010823736089 -0.009026516414480396 0.03239205397333855 0.00648023085137181 -0.007700308697001981 -0.05085196459887634
-0.0748171133922241 0.009106063608718592 0.006392956702296176 -0.027587901786999717 -0.06364966487435414 -0.0794624386268657 0.02639551171175135 0.011372027431803702
0.025824259161258988 -0.003085808446746035 0.024065398746090757 0.04201788062058799 -0.02697064811181496 -0.031514158127525706 -0.020793589228407846 -0.004932703797758011
-0.00838153661301281 -0.006208637294718467 0.0358851886903726 0.08526056503166404 -0.005620940642739945 0.013940818951210228 0.03176763302121543 0.06989074933160852
00000000: 8021 75a0 179a a03f 1535 6537 ad49 a63f
00000010: f144 a602 ce1f 61bf f8be b7d4 cffd 893f
00000020: 3bb3 5c31 48fb 81bf 391e e524 dc0f b73f
00000030: 6282 74cd f669 9fbf 5511 6c51 7294 98bf
00000040: 379c 0b23 a468 823f 543f f723 f4fc 913f
00000050: 420b 3a41 e87a 9e3f 0410 b70e f325 a1bf
00000060: 2153 bce1 0663 a93f 04a9 66fd b227 bb3f
00000070: 2d32 c483 b481 b43f 0d4d 2a6d 4d94 b23f
00000080: fe4f 5667 a82a 98bf 9a83 ddcc c328 a93f
00000090: 5996 6b86 9419 443f 6255 abe7 dcf4 803f
000000a0: bb2a fe7f 5b67 b33f 4e79 6476 a768 ab3f
000000b0: c0d9 9574 b6d8 943f d7a6 f966 d454 a2bf
000000c0: ef1b aa45 7a1f a3bf ffcc 5313 c22e b2bf
000000d0: 8d77 5c54 a008 acbf af54 4215 7949 8d3f
000000e0: 7fed 82ac b766 b4bf ef1a 7da2 b450 a6bf
000000f0: a115 9673 99f1 aabf 82b3 8c7c df6f a1bf
00000100: 8d7f 09f8 89e9 acbf 5eb2 975a 8c8f 9bbf
00000110: 4c4a 0808 e0a6 ab3f 174a bc30 2140 653f
00000120: e962 dbc6 ea9c 8b3f 19da e394 fdbc 85bf
00000130: ce99 e9ab 16cb 8a3f 688b 93af 8713 803f
00000140: e11c 84a9 104a 9ebf 7c59 1eeb 352d 7abf
00000150: c520 5b35 76ce afbf 412f a206 7474 a0bf
00000160: 7326 658c 9a9b 92bf 68dc 6b80 2997 31bf
00000170: db8a 7379 327d acbf f8bd 5877 b564 93bf
00000180: 7a45 48e4 e1fd 71bf a1a6 c402 8752 a9bf
00000190: abaa 11bc ab89 b8bf 70a1 d5e0 7dfb abbf
000001a0: 2b68 526f 9c6e 893f 497d 8dfc b88b 7abf
000001b0: 5327 8387 38c7 923f b316 8e35 08aa 6dbf
000001c0: adff 7aeb ab66 67bf 4ace a0ec 6a6e a9bf
000001d0: 3c66 23a6 7605 5fbf 6f18 757c c578 b03f
000001e0: a446 bbfa 6ed7 943f 8e50 6800 b9e3 90bf
000001f0: 8658 aeec d0e2 73bf c1d9 ec95 e16e 85bf
00000200: 0921 2b8e fd4c b03f 6480 b24e 7f9c 93bf
00000210: 6dbe 3987 355d 95bf b020 b484 a989 9bbf
00000220: 94a4 1181 c2af 8b3f bd5d d599 165a 703f
00000230: 5519 bdf0 a5f9 633f 8b28 41a3 9d22 adbf
00000240: 7622 086d 5582 5fbf 19f2 c176 5cd1 9f3f
00000250: 3dff 2d1a 23aa a53f 2cb6 8499 f534 a9bf
00000260: e99a 7652 db2e a93f d1e8 7c51 55ab af3f
00000270: a231 cb27 bdaf a03f 5bbc 7116 4df4 913f
00000280: bc9e d580 9094 a4bf 5057 3364 b625 95bf
00000290: 56f9 41a7 34be 4abf 6de9 e47b 2b30 ab3f
000002a0: b742 71c4 e538 a3bf 0a6e fefa 047a 92bf
000002b0: be71 0fa0 da57 15bf c57a 2e95 ed17 153f
000002c0: 05ef 11a4 e2cc 9c3f 0cb1 09f4 1c32 a53f
000002d0: c6d0 3685 2866 92bf 210d 955a 5770 81bf
000002e0: 0da7 9780 8197 adbf f3f3 bca9 14e2 a33f
000002f0: 0a6c 8d09 9c48 a7bf 0890 293a bf84 b6bf
00000300: d602 b32d 2723 b2bf 2f04 4f4e da06 9abf
00000310: fe8f 2055 70a5 b33f 01b5 9bcf 59b4 983f
00000320: ceb2 cc27 cba6 b6bf 0839 cd39 c0e2 a9bf
00000330: 6183 a050 faa8 91bf 43d5 d8b0 cfcd 96bf
00000340: bbff c31a f814 96bf ee98 1109 4902 913f
00000350: 153a f54b e700 9f3f 4e1b fd10 2878 75bf
00000360: d60e e25b ced6 75bf c8b1 6733 3db2 7ebf
00000370: 553f 9e0f f543 b0bf d635 ec57 2fc9 98bf
00000380: 5a80 02cd 6cf3 aabf ce8d e7f6 0860 a9bf
00000390: 6639 7c05 12d6 ac3f d2ea f88c 36f5 92bf
000003a0: c5a5 7ff1 efe7 94bf 05aa 286b 3f40 abbf
000003b0: aeb6 5c2d 1107 a3bf 6156 5a39 0a8c 983f
000003c0: 6f9e cbfb 9a2b a9bf e105 f63d 3631 97bf
000003d0: b07d 6d24 7250 a2bf ff07 7f50 e7cc 91bf
000003e0: d8be 270a 5880 9f3f cde4 2304 d325 97bf
000003f0: d391 1ab7 4a0f aebf ecc1 bd0e 1dd8 9bbf
00000400: b636 4326 a2ae 80bf 5e9b b958 23b5 803f
00000410: c3bc fed6 f96a b3bf 7202 ad3e 4c7e 953f
00000420: c2ce 897b 72f6 97bf af5a fcd4 dd27 b1bf
00000430: 83ef 7c7b 7e0d 98bf 64b5 6eac 9d6d b2bf
00000440: e598 2517 e0cc c0bf 3b24 b8ac d4c9 b9bf
00000450: ceb3 b165 6dff 8cbf 17b0 9bea b7e1 8b3f
00000460: 90e1 2a05 9e0f a3bf ea7c f89a 8c55 a4bf
00000470: 6f04 fb1b 780e 99bf d4a6 5b1e 2e2d 87bf
00000480: 27ba af4b 8e50 90bf 758a 545c 7b7a a8bf
00000490: e62f 6aab 9782 bbbf 388f 0fb0 9f35 b5bf
000004a0: e81f 453f df3b b3bf d8a2 72a8 feb4 aabf
000004b0: 80c8 7ade feea a13f 8e91 7d61 9ab2 75bf
000004c0: 08b9 42a7 fe31 b0bf bd33 24df 1ab5 853f
000004d0: 24e6 2e1b 22e0 aabf 12e4 35d9 ad9b b43f
000004e0: 635e 014b 9adb a43f 9888 217e bfda 64bf
000004f0: c205 7e42 c6b9 34bf 5a28 2383 7eeb 5b3f
00000500: b360 93db 55c7 933f f68b 486e 7191 9c3f
00000510: 6e25 57f9 c2f7 a33f eb54 4adf 5f37 94bf
00000520: e383 2bd2 7d84 9e3f d1db fd8b 04d0 9dbf
00000530: 1363 b6ed 8bd2 9d3f 4a11 954c 409d 9c3f
00000540: 81ae 305f d64a a83f 3964 af2c d2ae 99bf
00000550: 7093 a1d1 5eb9 ad3f c5da 74dc 8919 993f
00000560: 6418 5e9e 6e55 833f 5ec2 01c0 290e 84bf
00000570: 2e9b d7fe 0bbc 9fbf cac3 d417 d0b2 8ebf
00000580: ccc5 aec5 5333 b03f fdf6 4dd8 8a01 9dbf
00000590: 0f19 745b 6e62 9c3f b556 539e 7fed a4bf
000005a0: aa56 6601 ab39 51bf 1991 cb05 3af4 ab3f
000005b0: 45b4 9527 ef55 993f 0c2a d1a0 b1f6 6bbf
000005c0: 44d2 c3b4 0cf8 89bf 75e0 5c1d e939 ac3f
000005d0: 5a21 c756 50b5 693f a412 b9b3 85be 8a3f
000005e0: d7a0 10dc 9457 773f 2448 975c 5353 91bf
000005f0: ab0f 8ec6 c9cf 9a3f d672 574e dc4b 71bf
00000600: 3549 b626 5a9e 9e3f 727a 108d c41b 983f
00000610: cfef e424 e935 adbf 9676 2878 ddc5 953f
00000620: 6a51 af00 f451 a43f 3c84 9941 35d5 aa3f
00000630: 1106 51da b967 8d3f 927a 949f 5471 a6bf
00000640: 78bb 89b2 2316 b9bf 1965 a5ea 8796 a6bf
00000650: b400 4339 d85e 92bf dbc7 b228 2b2e 93bf
00000660: 9532 a280 037f a0bf c6ea 9b88 7ae7 8bbf
00000670: c2d5 a0f9 129c a93f df6e c6c4 0339 68bf
00000680: ba2d 4358 629c 693f 31d4 c382 0e3b 9d3f
00000690: 3bd5 ff26 e5b1 b1bf cbaf e5a0 3fa5 abbf
000006a0: 5b34 0273 661b 92bf bdeb 5aae f415 b0bf
000006b0: 2173 a34a 8acb b13f b7e4 2229 e690 b1bf
000006c0: 1222 6960 fb26 a5bf 1a69 1f8e 4948 9fbf
000006d0: 158b 28f2 049b b2bf 4326 cf1e c5ef a4bf
000006e0: f0d2 74e1 d571 a7bf 1766 df3f f9a3 80bf
000006f0: 73c3 f699 0024 aabf ef89 f345 b805 92bf
00000700: 03cf fbf2 3c90 92bf 240b 3e1d 3205 8dbf
00000710: 2090 14ae 5a6a 8dbf ca41 6086 7e7c 82bf
00000720: 9077 eef8 b095 a03f e018 3cb9 038b 7a3f
00000730: e917 5de0 5b8a 7fbf a46f c7c9 4409 aabf
00000740: ca62 33df 3627 b3bf 8b6e 282b 33a6 823f
00000750: c6b0 603f 802f 7a3f 71fe c2bf 0040 9cbf
00000760: e465 092d 584b b0bf f4ac 297f a657 b4bf
00000770: 3cac 40ce 6c07 9b3f 1b3f 45af 374a 873f
00000780: 4605 2ab2 ac71 9a3f 582c 89cb 6847 69bf
00000790: 2f92 5192 99a4 983f 42ae 391e 5e83 a53f
000007a0: a861 5e8e 319e 9bbf 7592 09ad 9f22 a0bf
000007b0: 2f54 cf26 ea4a 95bf 0228 e097 5034 74bf
000007c0: 551a 25cd 562a 81bf a7fc 2262 3a6e 79bf
000007d0: 3f00 ac1f 8b5f a23f 0211 73ea a2d3 b53f
000007e0: 4bb3 bbc3 fb05 77bf f79a cc0b 018d 8c3f
000007f0: 8f7e cbe1 d843 a03f ce14 ac32 5ce4 b13f
