dogs/pair-data/Hound/Poodle/weights/conv-1-W_conv-1.weights.npy (npy, 19280 bytes, 1 tensors)

array f8 [32, 3, 5, 5]
000000 03 72 7b 67 72 8a 98 3f c1 4a 8b db c5 03 b1 bf
       0.023965632978489648 -0.06646381959880455
000010 fa 9b 64 cb a2 00 b2 bf 04 23 de cc 60 59 a9 bf
       -0.07032220330857789 -0.049510025985972234
000020 51 dc 75 36 15 f1 c3 bf 05 29 26 95 48 b0 a4 bf
       -0.15579476508330228 -0.04040743656794813
000030 46 e1 c4 86 01 d7 a2 bf 4d 11 42 90 07 ad ab bf
       -0.03679661531572491 -0.054054485664013364
000040 4c e7 4f 34 a2 b5 c9 bf 65 ad 69 24 95 1a ba bf
       -0.2008555179052628 -0.10196811808571267
000050 8d 13 f6 ce d4 5f b0 3f 81 e2 51 c7 9b 9c 9b bf
       0.06396226933254763 -0.026964601555365512
000060 69 79 b9 55 0c cd b6 bf 1d 5c 5a a0 7a 27 c5 bf
       -0.08906628697284237 -0.16526730375036972
000070 7d 8a f3 ce f3 7f b2 bf 35 21 58 46 37 13 b7 3f
       -0.07226489832422973 0.09013696162594871
000080 8d 15 56 63 d7 9d ab 3f 2a f7 6b eb cd e4 a9 bf
       0.05393860900498302 -0.050573763835912125
000090 78 07 28 e5 6b e9 7c bf 04 9d 2f 53 01 9c 9e bf
       -0.007058545556448574 -0.02989198751666057
0000a0 f2 fc 34 87 43 6e af 3f e8 45 b1 22 91 d8 ab 3f
       0.061388120894202106 0.05438664959423162
0000b0 d5 43 3d f8 0c fa 9d 3f 55 63 b6 88 ab 92 a4 3f
       0.029274180079770524 0.04018150371411503
0000c0 e3 94 11 14 a8 27 96 3f d4 75 23 79 30 10 a7 3f
       0.02163565275659075 0.04504538992635401
0000d0 d3 04 36 1d fe 32 a9 bf 30 26 0f 1a a1 d7 a5 bf
       -0.049217167917058234 -0.04266074603181058
0000e0 2a 38 15 c6 82 c3 54 bf 67 8f d4 3d 4c a2 b8 bf
       -0.0012673165404808542 -0.09622646817711954
0000f0 1b 9d 1f 0a a0 8e 95 3f 8b dc 1d a7 9e b7 8d bf
       0.021051884286774496 -0.014510383105273547
000100 d1 fe c6 3a d4 bd b3 bf ba 86 12 e3 17 a1 c2 bf
       -0.07711531100266746 -0.14554117763059599
000110 9b e3 2c 28 48 d6 b7 bf 07 78 1d 8a d7 91 b4 3f
       -0.09311343174785096 0.0803503715701198
000120 b1 95 37 1a eb b9 a7 3f 44 38 37 13 be c1 b4 bf
       0.046340319586117736 -0.08108127564557416
000130 4b 21 bc 48 98 7f b4 bf 8b b2 4b e9 09 5c 7c bf
       -0.08007194305185299 -0.00692371245962121
000140 c0 97 47 5b 5a 1a b3 3f f0 b3 d7 0d c0 a0 a4 3f
       0.0746208641863566 0.040288926782387935
000150 24 8f a4 ee 9c 2a 8e bf 93 3b 8a bf c7 bb ab bf
       -0.014729715378571102 -0.05416702473768633
000160 14 5f cc ce 45 74 86 bf ea ce 9e 65 17 7c ae 3f
       -0.01096396005009085 0.059540492205455056
000170 c6 ba 05 28 7c 22 9b 3f aa 10 a4 db 96 37 98 bf
       0.02649873728062848 -0.023649556308570276
000180 65 92 db 35 02 e5 a4 3f c5 0b b9 8d 5b 6b b6 3f
       0.0408096972221628 0.08757564744978115
000190 db e0 03 47 43 62 b3 3f 16 c7 e6 d2 e5 3e 7c 3f
       0.07571812137382798 0.0068959214681159255
0001a0 6b b2 ba fd f8 b1 9d bf 8d de 19 d9 a4 d0 6a bf
       -0.02899922417297988 -0.003273317307328777
0001b0 81 53 a1 6c 03 21 a7 bf 1f 27 1a 03 f5 9a 8c bf
       -0.04517374707271583 -0.013967432171984094
0001c0 59 50 65 be 44 f4 ab bf 1d 97 4d f5 a7 67 af bf
       -0.05459799598853072 -0.06133770818159532
0001d0 6e 13 a6 76 19 dd c3 bf 92 87 8c 31 95 4f a1 bf
       -0.15518492024798597 -0.033810293482260736
0001e0 f1 33 c5 93 c5 a5 9e 3f af 6c 58 45 84 16 89 3f
       0.029929244178948215 0.012249978414777677
0001f0 9f 75 a2 23 38 98 9d bf da 22 0d 66 94 0c bf bf
       -0.02890098302360899 -0.12128570071684966
000200 f8 7f a2 d5 a0 27 a4 3f e4 0d 9a 2f d2 a5 b5 3f
       0.03936483962866072 0.08456147825386712
000210 2c dc b6 03 f7 14 a4 3f f6 63 2d 58 c3 45 96 bf
       0.03922244949665585 -0.021750499970355684
000220 03 41 22 bc 57 1d 91 bf 04 62 cd 05 e0 32 6d 3f
       -0.01671349607255569 0.0035642981951407044
000230 c5 87 26 d7 28 1b a4 3f 78 f4 29 01 55 cc 7b bf
       0.039269710792055025 -0.006786663102159023
000240 9c b7 0a 75 6d df 93 bf 88 a6 af 3c c8 24 ba 3f
       -0.019406996029537646 0.10212375146479691
000250 53 e6 54 29 fb 2b bb 3f 23 1d 6a 1b 1d 9c a6 bf
       0.10613984831879834 -0.04415980300569291
000260 85 d3 9c de 21 5f 96 3f af 7a db b6 d2 d9 99 3f
       0.021847275936312655 0.02524499169418942
000270 b9 37 22 a7 58 b9 74 bf 7f 7d 77 ae 3a 17 9e bf
       -0.005059572506196313 -0.029385487459760547
000280 b2 3b 0f 18 ff 33 b0 bf 16 ec a6 6d c7 b6 a0 bf
       -0.06329340302839517 -0.032644493232020164
000290 48 35 f2 50 a3 6a c1 3f 12 ce e1 ec dc 3f b4 3f
       0.13606683208892378 0.0790994718861884
0002a0 44 6b 8d 18 92 81 b2 bf d4 2e 33 b2 00 a5 ac bf
       -0.07228959178375499 -0.055946370842858834
0002b0 5a ad 34 fd ab 6b a9 3f dc 81 c7 83 c8 4d c0 3f
       0.049649595889003265 0.1273737567380654
0002c0 83 6c 9f 6f f0 93 9e 3f 69 dd 31 5f 37 ca a1 bf
       0.029861218274032552 -0.03474591290517532
0002d0 cc ef d7 34 d6 15 9c bf 3e 55 21 57 c0 9c 86 3f
       -0.0274270505669703 0.01104116693401613
0002e0 4d 95 54 7c 66 80 93 3f 9c 51 e3 a0 16 be 1a bf
       0.01904449590542372 -0.00010201466668330886
0002f0 f9 bd 49 70 46 60 9e bf f5 9b 9a 5d 12 77 a5 bf
       -0.0296641355548086 -0.041924070287954786
000300 ce 3e 88 f9 1f 39 8d bf 09 5f 5b 4c 63 cf a5 3f
       -0.014269113352411902 0.042597868987000416
000310 ab f0 da 8d 3b 5c a1 bf 10 9a 5a 47 63 af d0 be
       -0.033906804148018686 -3.978039890084706e-06
000320 7a 7b e6 7e 30 24 92 3f cf 3c 69 e7 22 d2 b0 3f
       0.017716176743870694 0.06570642614063903
000330 2a 59 53 42 1c 3c b4 3f 45 d8 c5 51 fd 94 a6 3f
       0.07904221171643103 0.044105449897799555
000340 ca 2d 4c 06 73 ab 92 3f 87 3f 75 0f 57 7a 88 3f
       0.0182321522325262 0.011952095183602086
000350 67 23 59 45 5f 47 a9 3f a5 96 77 48 84 ee ca 3f
       0.04937265130553819 0.21040395296511352
000360 4d 7a 15 29 54 f2 bc 3f c9 91 c8 61 5e aa ae bf
       0.11307264330887641 -0.0598935598721116
000370 27 34 8f 29 b3 90 9e bf c9 68 52 55 b2 a0 a5 3f
       -0.029848861133178552 0.042241642871162784
000380 ff 09 4c 6b bb 46 c7 3f c7 3d e9 fb f8 0a be 3f
       0.18184607256996796 0.1173549284951526
000390 a7 1a 24 07 56 4a a0 bf e6 1b 1e ee e6 15 81 3f
       -0.03181713902636334 0.008342556134960998
0003a0 51 60 b2 23 80 e8 b2 3f f4 a0 59 14 1a e5 b2 3f
       0.07386017676833602 0.07380831715420638
0003b0 13 ff 79 08 25 f1 ab 3f fd 6e 94 ca c1 a1 9b 3f
       0.0545741627547597 0.026984241475573423
0003c0 45 62 1b 9a 41 44 82 bf 96 eb de b2 1f 0c af 3f
       -0.008919250979873125 0.0606393724296687
0003d0 cd 09 c0 b0 95 d6 b2 3f 48 82 86 c1 b8 26 86 bf
       0.07358680310429762 -0.01081604328720788
0003e0 b6 52 a6 d0 30 1c 91 3f a7 c2 ae 12 1f 0f b8 bf
       0.016709101424185767 -0.09398073392982075
0003f0 0a 20 9c 46 07 5e ae bf 10 cc de dd 9f 91 a4 bf
       -0.05931112992226424 -0.04017352660539342
000400 ee f2 46 81 59 86 a5 bf 36 40 7f 6d 60 70 b8 bf
       -0.042040631323720365 -0.09546473191517255
000410 6d f4 f4 d7 3a 29 c1 bf 90 4c b8 6d af 5e b2 bf
       -0.13407073540466588 -0.07175728253086988
000420 3a ab 5a 63 55 80 ba 3f 6e 66 38 9b ff 72 af bf
       0.10352071452750247 -0.06142424363879405
000430 e0 5e 67 a6 12 53 c5 bf 32 ca ea 16 f0 90 b7 bf
       -0.16659768223939064 -0.09205532607556036
000440 d2 25 6a 80 b3 44 94 bf 08 2c 40 fb be 2a b5 3f
       -0.019793324196631996 0.08268350252198797
000450 92 84 99 c5 79 76 89 3f a4 9c ba da 17 76 b3 bf
       0.012433005659831662 -0.07602070894300766
000460 65 35 28 06 09 87 b5 bf 54 03 e2 f0 e4 63 55 bf
       -0.08409172439879382 -0.0013055549384548186
000470 82 fb 9c c2 f9 df 72 bf 1a d7 12 e5 e2 0b b3 bf
       -0.004608131051837884 -0.07440012066475923
000480 86 a3 28 b6 e0 b7 ad bf 52 8a 42 75 73 30 b7 bf
       -0.058043501125502536 -0.09058305371085254
000490 5b 07 25 ad 38 b1 7e 3f 71 ea 58 b0 20 5d 83 bf
       0.007493230239846794 -0.009454970723813379
0004a0 89 14 88 a9 25 70 b8 bf 97 7c 3d ff 38 fb b4 bf
       -0.0954612292189997 -0.08195835334253086
0004b0 8b 62 65 a7 89 ce b8 bf d4 37 b4 91 09 11 b4 bf
       -0.09690151535813578 -0.0783849697802162
0004c0 ca de ea b1 34 2b a9 bf d2 a4 33 01 2c 89 8c bf
       -0.049157759397926507 -0.013933509623216631
0004d0 d0 b2 7f c9 ca 89 a3 bf 18 c5 27 da ce 5b be bf
       -0.0381606455774538 -0.11858837915476206
0004e0 b2 e8 b5 a2 78 e1 b8 bf 3d f1 e3 82 ff 64 a0 bf
       -0.09719041798044506 -0.032020554282981874
0004f0 61 3a b5 7d bc b2 99 bf d8 be fe 98 72 c0 a9 bf
       -0.025095887348749794 -0.05029638402572595
000500 c8 fd 4e bf b8 cd b3 bf b3 7a f0 2a 59 da a8 bf
       -0.07735781355494631 -0.04854086541330584
000510 19 de 8a 27 46 8c a0 bf 13 42 3c 56 e9 2c b7 3f
       -0.03232020600028935 0.09052904467922245
000520 bf d6 b7 9f ab 49 86 3f 8b 2c 38 a7 a0 8a a5 bf
       0.010882702647886487 -0.04207326928379825
000530 c5 00 27 48 0c 45 9a bf e1 f3 c3 f4 f7 af a1 bf
       -0.025654022125082294 -0.034545658711045986
000540 d9 0d 83 16 df c8 b1 3f 27 25 e3 43 de 20 6e 3f
       0.06947130488975208 0.003677782165230642
000550 5b 91 36 c3 a5 ec b9 bf 37 3e c4 17 d8 cd a9 bf
       -0.10126720443674257 -0.05039859094733539
000560 f2 c6 59 c0 63 cb 9c bf 18 d7 c2 7f fa 86 a8 bf
       -0.028119619956163917 -0.047904804321133365
000570 17 8f 60 70 bb 46 82 bf da f3 4b e1 a4 09 44 3f
       -0.008923973433474992 0.0006115012243693666
000580 65 25 6b 93 49 9d 72 bf 5a ec 1e ed 0a ab 82 bf
       -0.004544532209089657 -0.009115300523140291
000590 a0 f8 4f 28 4b 77 75 3f ef d2 85 3d ac 26 aa 3f
       0.0052407203520471735 0.051076300153828906
0005a0 c0 0f e6 01 08 cf a5 bf 75 c5 fd d6 5e 65 8a bf
       -0.04259514830758304 -0.01288866132356035
0005b0 97 dd af 53 ab 68 9d 3f cb 4a 04 f9 99 97 9a 3f
       0.02871959398541221 0.025968938659455525
0005c0 de af b2 0c 29 aa 51 bf 49 62 f2 f4 20 13 96 3f
       -0.0010781670451178653 0.021557345342986065
0005d0 b1 3e 65 5d 10 e8 96 3f 96 03 48 b9 a5 03 aa 3f
       0.02236962862053699 0.05080907713637044
0005e0 9d d9 e2 61 79 15 c3 3f be 02 ae 6f c1 a0 9d 3f
       0.14909283904644335 0.02893354648722623
0005f0 ab 7e de c1 cb 79 a3 bf e8 aa 53 8f d4 84 b3 3f
       -0.038038604179061984 0.07624557971181967
000600 ab e1 fa b0 24 67 b6 3f 9e c4 da 68 d8 f4 c4 3f
       0.0875113422470181 0.1637220870957536
000610 29 26 ee 5e 0d 22 a9 3f 1d 5b 6f 22 a2 4e 7d bf
       0.04908792289559145 -0.007155068719803007
000620 03 0a d0 14 68 d7 b1 3f c4 de a3 c4 f4 3c b5 3f
       0.06969309337731748 0.08296136666092041
000630 bb cb 2c fd 57 99 97 3f 36 8d 4a 00 a0 4e 85 3f
       0.02304589731938809 0.010403871544730419
000640 4c 74 11 ec 6a bd ac bf 0b ac 0f 83 92 e2 8b bf
       -0.05613264209453259 -0.01361574614016627
000650 c1 d7 39 a1 93 b1 8d bf ff bd 45 3e f5 78 a2 3f
       -0.014498856885648228 0.03607908616220001
000660 c9 ea fc d7 af a0 8f 3f 2c be 8c 90 1b 4a bd bf
       0.015443204668931359 -0.1144120433716515
000670 6b be c7 57 10 82 b3 bf bf 02 09 51 8d 08 ad 3f
       -0.07620336669037335 0.05670587171744534
000680 04 1f 38 65 a5 e2 81 bf 3a 39 90 6d 23 1d 78 bf
       -0.00873307433268123 -0.0058871635346931465
000690 b7 63 55 ab 98 f9 75 3f aa 21 8e b7 43 0a 9c 3f
       0.005364986767141858 0.027382906034775147
0006a0 e6 94 42 8f 9b 6f 81 3f 4e 07 af 54 cb 5a be 3f
       0.008513655957651921 0.118572910475476
0006b0 4d 46 40 0a de 94 9c 3f 9c 11 e2 f2 a4 89 9a bf
       0.027911633849788498 -0.025915696453482448
0006c0 fc 88 2f b9 08 73 b1 3f c7 89 c8 99 fe 02 a6 3f
       0.0681615306962477 0.042991596481687426
0006d0 da 6f 85 1a 05 56 be 3f ec f1 cb eb 74 f0 9c 3f
       0.11850006005755578 0.028261019603620527
0006e0 c0 65 de 60 28 5b ae bf a8 1c bb a2 d9 98 9f 3f
       -0.05928922827224481 0.030856514508539462
0006f0 cd cd 22 ce 7b c5 78 3f 1a aa 5c f3 10 d9 ab 3f
       0.006047710050711652 0.054390458781501574
000700 f3 56 10 c0 36 27 a3 3f 11 c1 cc c8 e6 aa 95 bf
       0.03740855307129989 -0.021159749990318725
000710 78 8b d5 11 74 17 74 bf f8 90 0a 1f 21 2e ac 3f
       -0.004905179402473141 0.05503943923875626
000720 f8 92 23 ce bb a5 9f 3f d1 84 43 ac e8 01 b1 3f
       0.030905661064838136 0.0664353771749291
000730 c3 fe 38 64 a5 9c b8 bf bc 65 b8 ee e0 6c 91 bf
       -0.0961402291950391 -0.017016901560145334
000740 85 84 65 a0 05 15 b8 3f f8 b1 72 38 8a e9 76 3f
       0.09407076993876913 0.0055938147772107635
000750 bc 93 4a 76 5b 99 af 3f 4d 6b b2 ea 8d e3 bf bf
       0.06171689814554024 -0.12456595401674271
000760 c4 05 04 3a 2f 6d b1 bf ba 4d 0a 63 da 3c a1 bf
       -0.06807227293395274 -0.03366739710795792
000770 01 72 0c f1 71 6f 81 bf e6 2a 06 5e c2 7b 95 bf
       -0.00851334587928765 -0.02097991656186595
000780 51 22 da 68 ee 2b b8 bf 65 f8 8c 7b bf 73 a4 bf
       -0.09442033824792274 -0.03994558699786025
000790 cf 6c 37 16 40 dd 95 bf 26 6d a9 62 a1 71 a7 3f
       -0.021351815563190265 0.0457888062416834
0007a0 f3 d4 7c 05 4b df 9e 3f 9f db de 88 8a cb aa bf
       0.03014867039674569 -0.05233414574416106
0007b0 9b 4d 3d 62 a9 0a 81 bf aa 76 59 c6 f2 4b 70 3f
       -0.00832111674359375 0.003978679980347325
0007c0 30 e4 07 7a 7a b3 aa 3f 4d b4 2d 17 68 89 9f 3f
       0.052150561710682886 0.03079760209532294
0007d0 e6 f9 09 36 a2 e2 99 bf cd 08 e1 4a 97 87 81 3f
       -0.02527860121562666 0.008559400532366724
0007e0 bb 41 63 ee 65 e9 bb 3f e1 ec f5 26 3d 91 b9 3f
       0.1090301234246515 0.09987241936862602
0007f0 0d 9b 6a 23 ba bf bb 3f 6a be 5f b1 46 76 b4 bf
       0.10839427342089554 -0.07992975073261169
