dogs/pair-data/Hound/Poodle/weights/fcn-1-W_fcn-1.weights.npy (npy, 320080 bytes, 1 tensors)

array f8 [100, 400]
0	0xbfa54b30e90452c2	-0.04158928722805434
1	0xbf9b1c194be8e1f6	-0.0264743759709933
2	0x3f9f3b7e611e90aa	0.030500387838075106
3	0xbfa3cda9aec7b9c6	-0.03867845781848049
4	0x3fb703425a5eb5f5	0.08989348131463955
5	0x3f52d34c2ff3eaab	0.0011490100876573688
6	0x3f9dc7b4f0758e95	0.029082133461442245
7	0xbfa634c97372a9e4	-0.04337148222232992
8	0x3f84dd98833a18a1	0.010188285355308859
9	0x3f8b38b657e873f4	0.01329176383756623
10	0xbf986676727b2ba5	-0.023828364121793694
11	0xbf809eb36664f259	-0.008115197717978239
12	0xbf913b8c98b33a2b	-0.016828724689555024
13	0x3f94ef7d39812024	0.02044482863883003
14	0x3fadfd28100ba30a	0.05857205577723874
15	0xbf9f86cf92ddafdf	-0.030787700022685157
16	0xbf94022c06bb8ef6	-0.019539535437515597
17	0x3f87061afd527d4d	0.011242113929539466
18	0x3fb7d95975ca89ff	0.09316023946534101
19	0x3fa1e9d656d2c974	0.03498716173034469
20	0xbf92f515a145b162	-0.018513048141742934
21	0xbf682637174c516d	-0.0029479099270110416
22	0xbf723cd353dc34a3	-0.004452538965563554
23	0x3f9b362f2fcd3487	0.02657388428933818
24	0x3fa98c6df6745a89	0.049899517378595944
25	0x3fb27d4528789fb4	0.07222397077623449
26	0x3f875f9e65155491	0.011412847003763356
27	0x3fa3ee65f9c29e49	0.03892821000891595
28	0x3fb2bd00340af1cc	0.07319642324995995
29	0x3fb0107b1feb134f	0.06275147942785718
30	0xbf9d335377b5d94e	-0.028516105824985254
31	0x3faeb08036a6f466	0.0599403444971152
32	0x3f93d9d4ea10f4fa	0.019385649477261936
33	0x3fa3c89582c013a6	0.038639709673624
34	0x3f916fddcbd5d657	0.017028298917884346
35	0xbf9d1ecd37f3c7ad	-0.02843781141286399
36	0x3f9053093307ded3	0.01594175695387785
37	0x3e9ca012f92bd3b1	4.265500532085288e-07
38	0x3fa7fd27c5afc690	0.046853297120731274
39	0x3fa84e8618e7ea1b	0.04747408918406767
40	0x3f99dae9c1401582	0.02524914972311399
41	0xbfa548d039291576	-0.04157114694366275
42	0x3f9422de051ee85a	0.01966425806288217
43	0x3fa140ed9bbbf6cd	0.03369848753025693
44	0xbf9a1e222f688b74	-0.025505575316980125
45	0xbf844fe4256a0cfd	-0.009918005363266586
46	0x3f87ebf2f564668e	0.011680505861068082
47	0x3f9548a67f64e2f7	0.020784951711195068
48	0xbf501df0e59e932a	-0.0009837009915624841
49	0xbf9967d4e77895ea	-0.024810148837920133
50	0x3f9d6433cf8d9b18	0.028702554266966634
51	0xbf80de7d48b02b87	-0.008236864834562997
52	0xbf7b55aa2da7e79b	-0.006673493155625733
53	0xbf9f81b50814d1d0	-0.030768231027836823
54	0x3f51d5b47f09c97d	0.0010885489138244546
55	0x3fa27e144eb8d0a4	0.03611815892182449
56	0xbfa9069987885cf9	-0.048878476900592056
57	0x3f8987d4ed81d234	0.012466109750883005
58	0xbfa502cda7da1a7f	-0.04103701280569271
59	0xbf9e843fe4f68a89	-0.02980136713962137
60	0x3f85f8a4f8380c64	0.010728157830277314
61	0x3f90cd0a8ca007fb	0.016407170136524468
62	0x3f9b57e3f523587a	0.026702462994613964
63	0xbfa214238071be43	-0.03530989592479419
64	0xbf9f8379b3a331d1	-0.03077497633857879
65	0x3f8f6663a10d467a	0.0153320106052519
66	0x3f9660de8dc11213	0.021853902246464395
67	0xbf96beb6f3006cb9	-0.022211893636364197
68	0xbfb15c02ca03d56b	-0.06781022483831627
69	0x3f7ce2a7114af63b	0.007052090270631302
70	0x3f71628e5df2f319	0.004244381066368396
71	0x3fa3a3f22ea9ead1	0.038360183902985796
72	0x3f9578fe90c83100	0.020969369494239665
73	0xbf6cc72caedbfa9d	-0.003512942573137791
74	0xbfaf55c5256cfa71	-0.06120124894959112
75	0x3fb836ce7daebd71	0.0945862824289543
76	0x3fa259586cf53cb1	0.035837901402027035
77	0x3fb0309ef90b261d	0.06324189739384463
78	0x3f9fb1c5be8d727c	0.030951585536387757
79	0x3fa0d89ef0207284	0.03290268594011983
80	0x3f58c94ae59bc46e	0.001512835637580669
81	0xbf63ecd06745fefc	-0.0024322576884400187
82	0x3f86279821ccc455	0.010817707568636129
83	0x3f91c05f0a814897	0.0173354005967857
84	0x3fb3126a3af1772e	0.07449974001926016
85	0x3f932fb5b1573ac2	0.01873668570425014
86	0x3fa3d309d37bdb53	0.03871947008695167
87	0xbf8134bffb80226a	-0.008401393759428905
88	0xbfb18b9beff42bba	-0.06853651626822357
89	0xbfa156f7f0138c86	-0.03386664205188432
90	0xbf9f6e349783507c	-0.030693837878815064
91	0xbfa0d343e7f60252	-0.03286182600550504
92	0xbfa7ec45507cef1f	-0.04672447783965893
93	0xbfa3cf7be60d555c	-0.0386923521352098
94	0xbf8bad72572899b8	-0.0135144169663136
95	0x3f8a38e081767621	0.012803796721352846
96	0xbfac61fdd8597a16	-0.055435116443494234
97	0x3f80559bc20fdb04	0.00797578512172726
98	0xbfa36265abb17b22	-0.0378600856863527
99	0xbf985b75f5f071d0	-0.023786395202579247
100	0xbf9708fb4b7a3475	-0.022495199662945404
101	0x3f99ad4d203bc771	0.025075154392602387
102	0x3fa159daf0277da6	0.03388866597719735
103	0xbf979e8dffcc7a63	-0.023065775621143546
104	0x3fa9a06cc0674d64	0.05005206917453611
105	0x3fa309ddfbe4bb01	0.03718465518828929
106	0xbf96788926263c99	-0.021944182351543693
107	0x3f8d52b2bdf93767	0.01431789057019346
108	0x3f91e9f2ad7c363b	0.017494003142067376
109	0x3f8118641e838479	0.008347303563313912
110	0x3f7fa7cd4e196c25	0.007728387806845515
111	0xbf82cadfe2921ac8	-0.009176014997377094
112	0xbf8270aa74db660b	-0.009003955546563544
113	0x3fae4ccf6922fbcd	0.05917976530462674
114	0xbf208f926a7867c7	-0.00012634908965552928
115	0x3f461c69691ccc9c	0.0006747736644911076
116	0xbf8d4559dbc80a21	-0.014292432803817924
117	0x3fa7065c90b85013	0.044970410028469264
118	0x3fa13844402e2c7a	0.033632405123250345
119	0xbfaa43b0c5a42bf0	-0.051297687650809
120	0xbf649daed323df89	-0.0025165953203404906
121	0xbf8fc53984a1454f	-0.015512894973798068
122	0xbf872dd2a046b953	-0.011317868725055169
123	0xbf9aa750c088d5a1	-0.02602888274323834
124	0x3f6eaeaa001acf97	0.0037453956909647246
125	0xbfa2065d81c1b6aa	-0.03520481308883679
126	0xbfa4f1dcbace1657	-0.04090776233992404
127	0xbfa78c397d6b0042	-0.04599170356732475
128	0xbfaf22e38138e42d	-0.060813054584692196
129	0xbfb59a291bc27409	-0.08438355376934238
130	0xbfa2c3f14c63c5d0	-0.03665117318622502
131	0x3fa17f633dee42e9	0.03417501574506849
132	0xbf8c5d99bef7a0e8	-0.013850403919562784
133	0x3f9dfec8d89149a0	0.029292238443596852
134	0x3f800d1bc67a279a	0.00783750247434849
135	0xbf9e70e5b46e2b2c	-0.029727543962091804
136	0x3fa67160c4566f93	0.043833755461690015
137	0x3fa534b590abcef5	0.04141776457791294
138	0xbf820be83fc50de4	-0.008811773725603218
139	0xbf889a8511ff37e2	-0.012013473140452594
140	0xbf98f6cec0de1fb9	-0.02437899639292571
141	0xbfa0e4917776c367	-0.032993837197301805
142	0xbfa79239917db937	-0.04603748227133269
143	0xbfb50056d818fc4b	-0.08203642631359391
144	0xbfb5cddbb9f43931	-0.08517239847080728
145	0x3f953a703b8fa89d	0.02073073733837615
146	0xbf93c1d184a0c936	-0.01929404613492488
147	0xbf92002b32590621	-0.017578768680556082
148	0x3f65f0621ab19bf5	0.00267810021391623
149	0x3f6425629e91c23c	0.0024592329178221555
150	0xbfb16c1a4be34131	-0.06805576660849934
151	0xbf9dc175525c926e	-0.029058297302201934
152	0xbfa3442b1ab8b547	-0.037629458438781564
153	0xbfaac97b4811e7d4	-0.05231843237648062
154	0xbfa00fea4d0dbd29	-0.03137142363163498
155	0x3f93a9dcc160df8e	0.019202660849458257
156	0x3fa72858a688bbe3	0.045229692772742934
157	0x3fa6267b60a1e119	0.04326234392732626
158	0x3fa62664aa7ba691	0.043261667071260786
159	0xbfaba5ea0915c86f	-0.0540001998987386
160	0x3f8686f75f34eb6f	0.010999615281084478
161	0x3f83f1183e546b09	0.009737195398476855
162	0x3f9293634ba41dd7	0.01814036511589542
163	0x3f8f431340287330	0.015264654536673555
164	0xbf915bb11f1bc001	-0.016951339267450297
165	0x3fa1382a532a672c	0.033631632473044654
166	0xbf6d55daea32139f	-0.0035809779815871435
167	0x3fa97de71f8bab83	0.04978868732526733
168	0x3fb1cb25793d9f98	0.06950601778009824
169	0x3f928a30432ea1f3	0.018105272388909865
170	0x3f9a4eb4690f23b2	0.025690859710980347
171	0xbf8fc5d427bdd2ed	-0.01551404711038048
172	0xbfa72958be2b3fc1	-0.0452373249187299
173	0x3f8ad4304f85a63f	0.013100030352421686
174	0xbf900040a4a29b63	-0.015625963257345343
175	0x3f93d1140398e7ff	0.019352257461129337
176	0xbf8e3dad574dffcf	-0.014766077257945568
177	0xbf9c40cdf5b2e929	-0.027590959664601265
178	0xbfb22aa363541628	-0.07096310782443338
179	0xbfabe0a3a6ab6f50	-0.054448236556452145
180	0xbf7ecc2bb09f0f76	-0.007518931068208326
181	0xbfb0a0b077c73fbe	-0.06495192455554297
182	0x3f971d12a0279140	0.02257184126382694
183	0x3fb11fa21ed0ad3b	0.06688893558810076
184	0x3faf00c1b6a788e7	0.06055264811199539
185	0x3f90b8f4502ac72b	0.016330544846545763
186	0xbfa9062ad484c037	-0.0488751778051441
187	0x3f98b943a5dab880	0.024144227025935994
188	0x3fa96e7ab468e0dd	0.04967101528421989
189	0x3f9d89d5a6c7197b	0.02884610968046662
190	0xbf8a219411e5f80d	-0.012759358211720718
191	0x3f7c11be08e38c92	0.006852857897885605
192	0xbfb3b958cd237068	-0.07704691894781635
193	0x3fa2265e11aa04ae	0.03544897046686778
194	0x3f7c59064ed11625	0.0069208380128365264
195	0xbf8b8d8a70bd0ac7	-0.013453561368469548
196	0xbfa16cea9bc7c9dc	-0.0340340914880419
197	0x3f85dd3841c62d9f	0.010675849444644224
198	0xbf7476de3781aaa8	-0.004996173891508228
199	0x3f882f33728230a1	0.011808778697990187
200	0x3f2fdd80d96ddfc8	0.00024311254375297534
201	0x3f76efe4a36b3c39	0.005599873655866943
202	0xbf880f900b535da0	-0.011748433442717865
203	0xbf726baa24e2f30c	-0.004497208237975735
204	0xbfb6ed720218ea8a	-0.0895606284256393
205	0xbf9771bef87b4e77	-0.022894843975179015
206	0x3fac29b3b313ad05	0.0550056606387788
207	0x3fa56d1675dca948	0.041847898375936554
208	0x3fb05cc2b0856207	0.06391541299434077
209	0x3f7abe320110d72b	0.006529040650141297
210	0xbf935f4a82ebde22	-0.018918194046788746
211	0xbf95bc540590bab1	-0.021226227607423712
212	0xbfb61bbba589a266	-0.08636067191549443
213	0xbf85a27f04ff6d17	-0.010563843097705345
214	0xbfa75b72bdf94a89	-0.045619569482956264
215	0x3fb0d190d3caac77	0.06569771929450662
216	0x3fa4c4ad44bc4c0c	0.040563025131767544
217	0xbf8836dd420a51cc	-0.011823395326509799
218	0xbfa59be094e12b56	-0.04220487420442136
219	0x3f93181f9b67a491	0.018646711216125104
220	0xbfaa3c89654466db	-0.05124310837909515
221	0xbfa8555d308dac71	-0.04752627580349945
222	0xbf9f53077c9f3617	-0.03059016893512564
223	0xbfb894bfd012e180	-0.09601973371434802
224	0xbf930c7e9aea1cb6	-0.018602350430708646
225	0xbfb2d7ec758a2827	-0.07360723371144272
226	0xbfa99333eaf918dc	-0.04995119326899708
227	0xbf94ff9044218d4d	-0.020506147535696063
228	0xbf832dd8ac6d24b0	-0.009364788782152494
229	0x3faf5046deb4d308	0.061159338651497974
230	0xbfb1a08fd0c4c773	-0.06885622832194631
231	0x3fa9895dc7089592	0.04987614683731602
232	0x3fa9846faab26305	0.04983853300763567
233	0x3fa292b0c3326892	0.03627540953421361
234	0x3f9ba39b82f4a43d	0.02699130045690289
235	0xbf86ab598f0f5f06	-0.01106901138147932
236	0x3f9048fa58a436c9	0.015903388653035564
237	0x3fa7adb1314a9ba7	0.04624704100324744
238	0xbfa70ec9e4ce2e09	-0.04503470342669053
239	0x3f7836af94d2bf14	0.005911527504551168
240	0x3f9c9c5feb8035cb	0.02794027209170284
241	0xbf70a18ab2a427ba	-0.004060308254574646
242	0x3f9a33b4548b77bb	0.025587861690716567
243	0xbf933ff92df4e103	-0.01879872649189541
244	0xbfa95d40bc695b2e	-0.049539587974030005
245	0xbf9f52b3d12f853a	-0.03058892215984097
246	0xbf9468a2f4fafc9c	-0.019930406763475447
247	0xbfab6ee45c42537f	-0.05358041406831315
248	0xbfa879d21ffaf4da	-0.047804418948979424
249	0xbf8c50dc561ee466	-0.013826104524797777
250	0xbfa02ab57bb37709	-0.03157584319136048
251	0x3f9724977a0223e4	0.022600523778724027
252	0x3fa7217f518acb47	0.04517743940723178
253	0xbf69d0f471d127a9	-0.003151395254950413
254	0x3f9376745012eb6c	0.019006554972956932
255	0xbf73359358b86483	-0.004689765522493452
