dogs/pair-data/Hound/Poodle/weights/fcn-1-B_fcn-1.weights.npy (npy, 880 bytes, 1 tensors)

array f8 [100]
000000 51 fe 11 b8 92 a4 7d bf 23 0f 28 28 f9 bc ac bf
       -0.00723702728384941 -0.05612925162497919
000010 15 d0 85 ce b0 e3 93 bf 50 09 52 07 51 bc a3 3f
       -0.019423258404870653 0.03854611601220148
000020 15 a8 0d cd 0b 0c 88 3f 4b dd 2a 05 a8 58 81 3f
       0.011741726107818132 0.008469879777620056
000030 28 51 90 a8 54 03 9f bf 7b 0e 36 2f 09 37 9a bf
       -0.030286143101038082 -0.025600570208111222
000040 c4 00 5c aa 26 34 9b 3f 76 8d 4d 84 85 dc 94 3f
       0.02656612791815928 0.020372472953920938
000050 a0 f5 88 db ab 64 ab 3f 39 9c 17 fd ba 8c 97 bf
       0.05350243620749073 -0.022997781465076115
000060 ac b5 27 7f 4a 8c ab bf 26 28 e2 75 f3 a1 5a bf
       -0.05380471040903542 -0.0016255261939783854
000070 2f da ad e1 54 70 a1 bf 17 7c 7f 78 98 e7 77 3f
       -0.03406014685508684 0.005836101139691705
000080 40 27 cc 3f b7 25 b0 bf 80 70 d8 69 82 c6 9a 3f
       -0.06307549769931331 0.02614787837056598
000090 ee b4 70 53 ff c4 ad bf 04 7e 0f ff b1 b1 8b 3f
       -0.05814359563405867 0.0135225206340115
0000a0 4c 4b 19 9f b7 dc 2c bf 33 1a 2f 58 0f 35 94 3f
       -0.0002202009341539475 0.019733657605480025
0000b0 fe ec c7 8e 4a 4c 95 3f 91 39 5f 6b 3e 45 a6 3f
       0.020798840489061547 0.04349703846638698
0000c0 dc 6a 5a 99 36 65 a1 bf 84 dd 61 29 9a aa 8f 3f
       -0.03397532102572651 0.015462116611373096
0000d0 3f ad 8f 3f 66 83 89 3f f9 d4 34 8e 64 72 9c 3f
       0.012457655729994797 0.027780123881901073
0000e0 27 cf 01 c2 6e 62 ab bf f8 47 bf 0e f8 d2 61 bf
       -0.053485356504920305 -0.0021757931590196088
0000f0 80 76 89 6f b1 b8 9a 3f 9c cd 85 32 74 b3 95 bf
       0.026095173294712115 -0.021192374786051724
000100 00 15 1c eb 58 15 9f 3f b8 84 80 a7 05 33 81 3f
       0.030354871129948613 0.008398098158126963
000110 f3 d7 51 2d fc 55 9f 3f e7 9d 47 dd b3 48 a6 bf
       0.030601444498152785 -0.043523426782311074
000120 44 71 f7 82 7f d3 94 bf 04 98 80 f4 d6 00 92 3f
       -0.02033805119377631 0.017581328080403594
000130 84 42 ae a4 af 18 a3 3f 29 9c 76 58 de 9a 65 3f
       0.03729771504652482 0.0026373236357417795
000140 e9 6e f6 60 8b aa 78 3f ca ec 4b 03 c3 e7 92 bf
       0.006022018860132519 -0.018462225986678495
000150 a3 e5 8b e8 38 74 a1 3f c0 b5 92 50 03 be 91 3f
       0.03408983076765117 0.017326404373923188
000160 2c 88 1d b0 04 82 81 3f 19 ac 8f 1d 11 6f 92 3f
       0.008548771500219564 0.018001811436914126
000170 7e 4e a1 ef c7 7c a2 3f b6 18 81 c0 64 32 a7 3f
       0.03610825348064582 0.045306347369249364
000180 1b 3f 39 24 b4 06 aa bf 6a 40 c7 f3 68 fa a0 bf
       -0.05083239500220157 -0.03316047645387317
000190 2d 65 21 50 42 af 63 3f 46 e5 f7 ef 8c 93 93 bf
       0.0024029059577911544 -0.019117548128609906
0001a0 ff 85 5e 0c 4f 6f a1 bf 07 21 55 7a e6 e5 85 3f
       -0.034052343616405516 0.010692406280796719
0001b0 ec 43 72 24 10 0d a0 bf 5d c4 0d 2a 1a c5 a2 3f
       -0.03134966320897789 0.036660020478742374
0001c0 f1 69 c9 d5 40 ac 92 3f 6c 00 ed 67 58 f8 a0 3f
       0.018235219048031884 0.03314472454667414
0001d0 cb 47 dd 80 93 5c 86 3f de c7 e5 6d 9a 09 7a bf
       0.01091876256001347 -0.006356814612773902
0001e0 e6 6c b3 1e 7f a2 57 bf 46 ae b2 c7 ca 34 9a bf
       -0.0014425507932205816 -0.02559201091632548
0001f0 5b 59 f8 52 5a 2b b1 3f 39 a1 56 ef ed c9 a5 bf
       0.0670677616657022 -0.04255622431384371
000200 4c 49 f6 10 dd 02 8a 3f be 47 1d b5 60 01 a6 3f
       0.012700774269238345 0.04297926150196883
000210 a3 bb e2 41 00 b6 86 3f 1f 24 82 b0 21 91 a5 bf
       0.011089326868697407 -0.042122891231948005
000220 b7 7c 3c 58 b9 7c 92 3f 42 7c cd b7 ef 3d 90 bf
       0.018053909311785712 -0.01586126860945237
000230 d6 62 ef ea 01 d7 a2 3f 95 d4 a1 a8 2f de a3 bf
       0.03679662697658663 -0.038804520926455734
000240 d6 8f dc d8 95 c1 98 bf b2 53 c8 15 d8 4c a0 3f
       -0.024175969468288226 0.031836273821830643
000250 ce 1f 48 6a 8e eb 58 3f 79 3e e9 d0 6a 7a ad bf
       0.0015210047505451632 -0.05757459449943964
000260 f3 f2 9c 3d f2 c2 a1 bf 98 a9 be cf 8a f4 ad bf
       -0.034690446873787105 -0.058506334170789376
000270 16 31 e4 43 01 2a 94 bf 27 92 ac 71 51 af a8 3f
       -0.01969148613811552 0.04821257126448968
000280 85 98 b3 76 bd db 90 3f fd c2 5a c1 fb fa a4 bf
       0.016463241929976852 -0.040977351525162554
000290 ae 5a 2c 4b 1f b5 95 bf d5 10 32 e1 76 4b a7 3f
       -0.021198739016734684 0.045497622480100176
0002a0 24 cf 2a ab 81 05 ae bf 6e 2c 65 40 94 94 8d bf
       -0.05863576139873164 -0.014443548407731845
0002b0 70 26 02 71 71 ef a9 3f f3 a0 f0 95 76 64 83 bf
       0.0506549311113077 -0.009468962145618742
0002c0 9e ec b1 2a 08 7d 68 3f f8 67 4f 54 bf e3 a5 3f
       0.0029893073565837166 0.04275319961716656
0002d0 a0 54 07 56 44 93 a5 3f 29 ff a4 3d 5d 49 88 3f
       0.042139182569067346 0.01185868114828244
0002e0 70 9d ad 22 d2 93 91 bf 49 45 e5 19 54 ff 90 bf
       -0.017165454260433533 -0.01659900100759629
0002f0 bb 14 64 6e 30 23 96 bf ba d9 b3 04 d6 a1 9e 3f
       -0.02161861108563266 0.02991423038198502
000300 03 36 30 63 24 db a4 bf 5c a9 5e 46 a2 ba 87 3f
       -0.040734421832990385 0.011586444637789732
000310 2a 14 d9 08 be 4e ab bf 8c 80 9f 41 2e 46 95 3f
       -0.05333513124472973 0.020775530581773213
