dogs/pair-data/Poodle/Golden Retriever/weights/conv-2-W_conv-2.weights.npy (npy, 102480 bytes, 1 tensors)

array f8 [16, 32, 5, 5]
00000000: afdf 8aec eaef 90bf 8762 a862 a5f8 60bf
00000010: 60d2 842f 678e 7b3f 5a9a 576e 0e65 b0bf
00000020: 362a 1f83 e1cf 80bf a7e2 bacf 407e 563f
00000030: a438 5454 9331 a53f 62cb 36d2 ae2e 8abf
00000040: a17d 74d3 4bfa 843f a96c 1eb9 2373 793f
00000050: 31a8 2e89 f4fb 91bf 0147 eb87 7e3d 92bf
00000060: fae3 97cd 9523 83bf b9b0 ecaf 68e5 943f
00000070: 7342 4b4c 0461 a4bf 2a2b 2658 4cfb 47bf
00000080: 863e 0d3c 4cb0 9cbf df96 6431 66ef a0bf
00000090: b92c ca17 ddd8 95bf faf4 6016 f347 47bf
000000a0: 39a0 7987 a515 a53f 71c8 d0b1 9e08 973f
000000b0: 10ef 897c d6bf 82bf 6ac9 b42a 8683 aabf
000000c0: 6d90 f5fc 9ee9 a9bf 486d cbac 25fc 92bf
000000d0: b77e e4e2 07e8 a4bf 7618 4a26 7b8e a3bf
000000e0: 7f45 caa0 4941 85bf 9df3 eceb 6006 ad3f
000000f0: cb3d 50dc bf7d a0bf 6c35 e95e 4cee 9cbf
00000100: 063d e85a 7048 90bf 741a 329c 2fdb 913f
00000110: 6f75 54a9 9299 9cbf c543 b4be 673c 8cbf
00000120: ff63 846b b5fd 903f a072 db29 3c91 873f
00000130: 6fbb fd49 25aa 873f a83c a21d a377 a03f
00000140: 2bd9 41cc cf75 abbf 0e32 44e1 526d acbf
00000150: d32c 4860 9c22 a4bf 7dd8 6fc6 237d a2bf
00000160: 2b5f 723e 78b0 a7bf 6506 391d bdc1 88bf
00000170: 6936 414a 2eea 9cbf 94af 2f84 7df8 6dbf
00000180: 29d1 0613 4eae 943f 5e2e 50c5 7198 783f
00000190: 65fd bf29 b8a5 6ebf a706 736a 0986 87bf
000001a0: 2618 81f9 5448 a33f 7c20 55e0 33a8 a2bf
000001b0: 4051 efff 50fc 96bf 72bc c032 ce9a 83bf
000001c0: 0a4f c23b b387 933f 1244 1658 7792 a0bf
000001d0: 9d91 a0be f445 823f 4d57 7d0b 6688 8abf
000001e0: 9548 5840 2d2a 8c3f 2ea5 7fdf a074 93bf
000001f0: 8de1 9bbb 055d 963f a099 5f7c 4c9e 96bf
00000200: 28d4 6317 e01c 95bf 58ae a4a2 3d21 a83f
00000210: 77d4 723b 23cc 903f 242c bb17 df65 73bf
00000220: edfe d2e2 3d5c 913f 31fc 353d 938a 81bf
00000230: fd39 e5e0 3d7f a33f bf0e 18cd f3db 9bbf
00000240: 04a7 bd28 848e 6dbf 2c47 c302 b958 913f
00000250: 4b9a 7401 d58e 99bf d737 25dd b37c 81bf
00000260: 79f1 422b c89b a1bf 2731 8c74 69cd 81bf
00000270: fef3 1903 b8db 91bf 75eb ce92 d83d ab3f
00000280: 11be 9edf 96af 80bf e433 ca72 9a20 a0bf
00000290: a079 acb0 8b51 a6bf 900d ba12 fe48 a0bf
000002a0: 49b9 22da ac68 5bbf d004 0e00 fe04 76bf
000002b0: 5a6b e27b 65a1 98bf 200c f726 428f 7f3f
000002c0: 2a66 aee5 786f 81bf 2588 80b0 b943 943f
000002d0: bd11 2440 e88e 07bf 524d 48d5 3ed5 a3bf
000002e0: 9d38 bb90 6c26 973f 41da 5e1e 7a4a 8dbf
000002f0: 121d f065 c7e9 91bf 9fa3 6e6e 1083 a0bf
00000300: 4694 82b1 62b8 75bf 066a b7e9 aceb 9f3f
00000310: 977f 2fad 2fea a03f 3862 8d15 41f2 a13f
00000320: afef d11f e32c 813f 0924 9af7 6000 71bf
00000330: 5bd0 06b7 7f06 81bf fead b369 7cbd 943f
00000340: da35 5f1a dbe8 7a3f 0106 3a01 b49e 9b3f
00000350: 0253 8132 a463 70bf 8ccd 6529 9619 8fbf
00000360: e725 29d1 c866 a23f aba5 8d0a 27fb a43f
00000370: 94f5 ce59 2b4c 963f c219 1b88 72c2 a8bf
00000380: a464 9520 887d 65bf 43d4 fc42 0961 87bf
00000390: 285f b366 2408 9a3f 5350 29a6 993c 52bf
000003a0: 4a38 a4b3 2501 6b3f 1cef 5ae2 74aa 72bf
000003b0: ccb4 2f7e da6f 83bf ac54 7eb7 5447 a43f
000003c0: 68e3 940b bcbe 473f 3ec2 67b0 1e4f 71bf
000003d0: 1a27 c490 5b75 73bf b737 111b a784 67bf
000003e0: ac24 0666 4202 80bf f107 c207 3eb9 953f
000003f0: 93b8 8059 9dec 98bf 2ba1 1524 a794 aabf
00000400: b8fd 7bff b46d b1bf 4146 b8ff 011e b0bf
00000410: 870c 20c9 f48b 693f 1812 3d31 699a 9a3f
00000420: cb75 bafd 86e8 acbf a65e 334e 0765 a4bf
00000430: b424 8e80 ef4b 99bf 125e 5aa6 41ee a23f
00000440: 2385 5ca3 009b 73bf 2cf8 35f6 a5b5 81bf
00000450: 099f a106 4f6b a7bf d83a 360d 23b7 acbf
00000460: 1cdc ea47 aeab a73f c21f 146c 46d3 99bf
00000470: d69c ed41 ca1b 8c3f c889 c9ef af0b 5e3f
00000480: 4533 cb84 68f8 a7bf 53d4 728e 1a36 703f
00000490: 9719 b03a 5032 973f e937 ac9a d1b2 96bf
000004a0: 1acd b970 d425 a8bf 9ddd c4ad e78f 90bf
000004b0: 1d13 2236 4856 a13f b728 6096 c35d a2bf
000004c0: 2a40 abf7 3275 91bf cefa c445 085f 963f
000004d0: 50af c1f7 0eae 7c3f 3454 cec3 58ac 903f
000004e0: 22e0 7b4f ee0f 903f 8acb 3bfc 14a8 9cbf
000004f0: 4c55 ed00 279c 7c3f 4b65 9cae e1df 83bf
00000500: 602f beef ad37 813f 9e53 bddb b42b 9b3f
00000510: 0702 0b94 98c1 933f 7ddd 03ea 5a75 9dbf
00000520: fc1a 55ae eea4 5c3f 6677 ff2f f825 813f
00000530: 4b42 a8bd 4ff1 993f e848 b8e4 2113 83bf
00000540: e0ea 7945 5441 6abf b62c 3228 4471 a4bf
00000550: bdce 44de 26cd a1bf 5f4a 6450 f106 7cbf
00000560: d9b0 caf8 28e9 993f a5c7 dbac 51ac 82bf
00000570: a21e 73cc 8d68 803f cc34 3bb7 182e 81bf
00000580: 8a2c d01c f231 a3bf 631e b8a4 7f82 67bf
00000590: 8ad4 60e6 a591 913f 01ea 4ba9 dac4 943f
000005a0: 34eb 0a05 bbe8 753f a8c6 829e 1550 adbf
000005b0: 6fa8 0aaa d897 a5bf 18ba 193c f56b 83bf
000005c0: a65b ada8 b345 9fbf 5cc3 41ce bfce 753f
000005d0: 352a 6032 fc27 a9bf 0033 fa98 aeac a7bf
000005e0: e568 85b7 0b3b 91bf 9fc9 3fea dba6 773f
000005f0: 6327 2f6a 47b1 98bf 4816 e615 721c aabf
00000600: d542 d230 4d53 943f d1cd 4013 31db a2bf
00000610: e4c3 e188 2e03 a1bf 5dd8 241d 2341 8bbf
00000620: 8406 216a 2011 a7bf e0a5 28a7 7df4 a3bf
00000630: 6977 32ca 590e 853f cfe4 3674 53e6 843f
00000640: f54d e5f9 6538 93bf 8598 1d5b bbe1 acbf
00000650: 5c6e a5ba 985f a9bf 30c8 621a 123f aabf
00000660: 9e21 9758 36c8 a7bf 2a6a b97b 06dd 9ebf
00000670: f250 93b6 26ce a8bf 36d4 eea2 cd18 95bf
00000680: 9ba2 51e8 1853 8fbf 4e0f a04b 7d1b 79bf
00000690: 36ac ace5 3a9a 7f3f 7fd0 da70 42f6 93bf
000006a0: 58f2 4c50 28ef 633f faa7 6d30 2877 acbf
000006b0: cb5f 24ae 5fc1 76bf 564e ab9c c70d 80bf
000006c0: ce94 7b37 70e5 9dbf 2948 0bb3 0cd0 b3bf
000006d0: 6d36 33a4 4ae8 91bf e173 711b 6cef 8abf
000006e0: f053 5c1c d926 94bf 6ca6 5058 c71d a6bf
000006f0: 1f21 15ed a823 91bf 59e4 7a79 905b b1bf
00000700: 310f 5443 bcc1 abbf 62a4 e9c1 5577 aabf
00000710: 950b 18da 432b a1bf 8d24 0470 50d7 acbf
00000720: fa4d 5245 06db 98bf c0cb 2d15 3ada 973f
00000730: c71b 70e5 c61e 773f 78cb 45dd d1b4 acbf
00000740: ce56 11d5 2c64 a1bf 2c17 f1d8 3788 993f
00000750: e274 ab7a 55e1 8ebf beb5 2284 ad40 903f
00000760: 757a d844 b172 9bbf a7a1 8bea d881 603f
00000770: 009b 71fd 854f 99bf d5f1 bbb7 5991 713f
00000780: aaf8 b479 52c8 8a3f 40e4 a375 80fe aabf
00000790: 8955 4f49 44e1 9fbf 9125 dd91 75c5 843f
000007a0: 22cb 3945 808f a3bf 153d dc16 8569 96bf
000007b0: 4233 156f 2cde 7a3f 789b ed2f 8ef4 883f
000007c0: f0f7 d0d1 721f 65bf 9bfa f82e ed74 a4bf
000007d0: 91d0 ac11 8569 93bf 6fb7 0fc6 a1cd 873f
000007e0: 9471 b706 e3b0 a7bf 6aae 2367 38f4 a4bf
000007f0: 9387 0922 8e70 b0bf 3610 25c7 8b63 92bf
-0.01654021328678795 -0.00207168866951363 0.006727603024320489 -0.06404199785138456 -0.008209001363771323 0.001372874538828986 0.041393856090608666 -0.012784353056167045
0.010243027105899584 0.006213321250380912 -0.017562695382061292 -0.01781270699104365 -0.009345217072210577 0.020406375634750094 -0.03980267936060935 -0.0007318613791523533
-0.028016272702471777 -0.0330764708799458 -0.021335081650744245 -0.0007104813528326086 0.04118077543972771 0.022493819811821362 -0.009154964137671168 -0.051784699166449524
-0.05061051214104926 -0.018539990111873267 -0.040832754561276934 -0.03819641916656817 -0.010378432483124865 0.05668928985549047 -0.032209392207842656 -0.028252785962015123
-0.015901332424673086 0.017437690647535267 -0.027929584107473312 -0.013787088877991746 0.01659282177670107 0.011507482554798998 0.011554995842485842 0.032162759177589095
-0.0536332070195605 -0.05552157401880119 -0.03932655978504731 -0.03611099049878506 -0.04626823198594673 -0.012088277296359704 -0.02823707893576569 -0.0036585284701597474
0.02019617072228744 0.006004757325182545 -0.0037411305365819152 -0.011486123620105216 0.037661223847451006 -0.03643953431543509 -0.022446885701201014 -0.009572611736159174
0.01907234241714576 -0.032367448332600315 0.008922493045312058 -0.012955472207675145 0.01375232079138681 -0.018999589577935065 0.021839227271784934 -0.02208823689570638
-0.02061796324501955 0.0471286068953673 0.016403723243190584 -0.004735824066027159 0.016953436822176583 -0.008565092378146929 0.03808015222840664 -0.027206239121382533
-0.0036079961045530923 0.016940012735012264 -0.024958923543773087 -0.008538632570573341 -0.034391646653122394 -0.008692573422671558 -0.017439723195355576 0.05320622245877519
-0.008147410106032845 -0.031498743545945534 -0.043590894047372375 -0.03180688837621937 -0.0016729057320322308 -0.005375854671798311 -0.024053178488070294 0.007704981238421588
-0.008513397702517873 0.01978960170539081 -4.493376038009224e-05 -0.038736308608486994 0.022607513745975017 -0.01430220990355935 -0.017493358227537455 -0.03224994037675021
-0.0053027968607795625 0.03117246796123576 0.03303669919091517 0.03505137813653331 0.008386396797724986 -0.004150751855953602 -0.008313176892308307 0.020254081679849982
0.006569724913743491 0.02697259194838431 -0.00400127543988016 -0.015185521257740552 0.03594043305617927 0.04097864154648375 0.02177493796965775 -0.0483585158486224
-0.0026233347640923377 -0.011415550572204341 0.025421684997893795 -0.0011130810240915958 0.0032964454995925473 -0.004557091311365526 -0.009490687347318526 0.039606711768251784
0.0007246416272784608 -0.00422584522174013 -0.0047505928780624766 -0.0028708709510629443 -0.007816809404874135 0.021214455817705816 -0.02434011324674452 -0.05191538157925132
-0.06808024632845544 -0.06295788281593052 0.0031184941262850127 0.025979655866892853 -0.05646154258031862 -0.03983328656766831 -0.024703733655347462 0.03697400241543049
-0.004786493771264308 -0.00864724786401546 -0.045740575370301136 -0.05608472381856239 0.04623169544122893 -0.025220012995333503 0.013724880349128925 0.00183384114566164
-0.04681707974450559 0.003957847343532955 0.022652867872261586 -0.022166514459108475 -0.04716361881301108 -0.016173953991907564 0.033861404998822155 -0.035871612650298194
-0.01704864155436795 0.02184689451064053 0.007001932590451634 0.0162824506292802 0.015685771561919755 -0.027984931845775253 0.006984855993171845 -0.009704363957598125
0.008406981352684972 0.0265339144819624 0.019293197666003816 -0.028767986806057067 0.0017483073109631478 0.008373202290325298 0.02533459277225551 -0.009313835899807235
-0.003204979507981917 -0.039926652819383276 -0.03476830924264849 -0.006842558510714441 0.02530349749092484 -0.009117734992717017 0.00801192073994567 -0.008388703433775645
-0.03749043084834465 -0.0028698437724903754 0.017157165704891265 0.020282188971558316 0.005348902269072298 -0.05725162086436103 -0.042174120671305874 -0.009483257195111824
-0.030539328737485903 0.0053241245660594315 -0.04913318743645726 -0.04623933427237681 -0.01682680423378082 0.005774363558872868 -0.02411376557919399 -0.050998273060980426
0.019849020104234356 -0.036828549957501296 -0.03322740002557348 -0.013307833029653599 -0.04505254073639001 -0.038974692015766754 0.010281278117243624 0.010204936966021453
-0.018769830110000957 -0.05640969741107064 -0.04955746916195089 -0.05126244136899094 -0.04644937354493382 -0.030140019704371003 -0.04844780901626845 -0.020602429456364223
-0.015295214261827275 -0.006129731593322264 0.007715444628767767 -0.01949409307299321 0.0024333751083800807 -0.05559659567991555 -0.005555509329745643 -0.007838782757438139
-0.029195550333402313 -0.07739333506768332 -0.017487684509254132 -0.01315197428464815 -0.01967944369888025 -0.043195943384785135 -0.016737594099397343 -0.06780341115781265
-0.05421245881919246 -0.05169170372102695 -0.033533211109918394 -0.05633021705040973 -0.02427301214318154 0.023293407004029154 0.005644585550732501 -0.05606704546052915
-0.03396740055965851 0.024933693519663055 -0.015078227811893222 0.0158717262171899 -0.02680470450115498 0.0020150410313030834 -0.02471742019079226 0.004289007625399373
0.013077396716308993 -0.05272294460332505 -0.031132761930924544 0.010142248643790793 -0.038204201174173016 -0.021886901397974407 0.0065595374774830035 0.012185202443743867
-0.0025784723825656927 -0.039954578384358196 -0.01895721359615316 0.011622680527547861 -0.04627141434659446 -0.04092575320268284 -0.0642174561594671 -0.017957862882454566
