dogs/pair-data/Poodle/Golden Retriever/weights/fcn-2-W_fcn-2.weights.npy (npy, 1680 bytes, 1 tensors)

array f8 [2, 100]
0.19857950020399628 0.3458259936579274 -0.017458673993931452 0.12792135403361307 0.030742020194437444 -0.34100147632211003 -0.3062821900944863 -0.21352407656599434
-0.21239970260210872 -0.022193265942198417 0.3545241356565792 -0.11440747401572506 -0.2760238106647235 0.045817417316592224 0.289483399041695 0.08932146232987784
-0.1224121652304783 0.08313165199656208 0.015183628011581487 0.267035485929616 0.28469368026602165 0.20184328885609593 -0.23434051784665558 -0.16354325250286508
0.24064447762842156 -0.3419501014821631 0.1914974257002543 -0.27630757772990644 0.20468691658756694 -0.09720097719851954 0.31426001294732187 -0.3066722887828115
0.13732818957301207 0.09526702481768645 0.0394581897617923 0.01935168766292467 0.16420639472911644 0.026735027468242054 -0.24318044687681895 0.24760628617019054
0.1270838735486945 0.07455140397621925 0.19866071640837035 0.02191584684511535 -0.017656183214549197 -0.18508147511953438 0.25923172352426205 0.004692552381541472
0.21500531484963104 0.2593989345153056 -0.19433655872493022 0.09395361193930361 -0.2961474932232385 0.07867473866975475 -0.2776216503602891 0.21660838340349445
0.08505794817784486 -0.09972387974023109 -0.2072247319940391 -0.1524676913185328 0.05749920921631005 0.13550753519437625 -0.13273942145330891 -0.18489603872571156
-0.15856734503389097 -0.053090232891597464 0.2476377460394464 -0.34667635823549264 0.1648580120741767 -0.2867456640080133 -0.0022985859267937703 -0.15984154894066935
0.2252564816421271 -0.2847153026617467 0.22391992578460235 0.21568636074811406 0.2285538507932207 -0.049227774263848736 -0.12501055530808922 -0.14285162183135422
-0.1720607254987503 -0.2818473080344243 -0.22369604157879208 -0.27556618522076715 -0.06268430747210024 0.039637108579449104 -0.23411343207080756 0.34773110345893543
0.07722787326048468 -0.11376170082404381 -0.15701419063449845 0.1624118665866098 -0.029499998068959088 0.2453899265335632 0.21057389737172824 0.108796227831265
0.2547314012334521 -0.06111297337320643 0.1379951221317582 0.3732392946531811 -0.23698222443545028 -0.3601935340357666 0.07510784940211498 -0.12529487597563513
-0.012763234120903563 0.3570353817468378 0.31081492633785585 0.23527926700426943 0.26416157645073085 0.05755753659955874 -0.26125734723823774 0.028163600908367108
0.18660333575338078 -0.12727420078399013 -0.228976724280273 -0.13720709494556063 0.11084614150861324 -0.16665828226717647 0.09676778421212542 -0.22433700394709072
-0.26520861304631493 -0.14585204231810012 0.19604552000382816 0.25214658828541814 -0.2670537398873302 0.3246738632995515 -0.11233119942591115 0.18562345145558803
-0.2548617696431689 0.15045576334990893 -0.33323806155659463 0.3483145030196582 -0.13601162144916315 -0.0324780155828754 0.01065547552483489 -0.09277342112610915
-0.20182344807532326 -0.1611611921244765 0.21895840316568024 -0.23752372337984404 -0.11808349047504114 -0.007749489550536277 -0.15755927667143985 0.0968763403594533
-0.043867029817668185 0.28692119130200544 -0.1610278640447521 0.11272642735331198 -0.2692451166884487 -0.2967726563100124 0.054658333143080745 -0.07807986564071064
0.2715752052090875 -0.11178939377963751 0.26191249193426885 -0.21888490906686986 -0.08657562847391914 0.03942287935412617 0.2150002312148949 0.09336222995860304
-0.13674598667444468 -0.17018513553677428 0.0988005036311365 0.2274656928223843 0.1517198325323799 -0.06763339950081487 -0.30920524832565244 0.29957540550181244
-0.1791640888045937 0.3449256570696903 0.03434410373677649 0.13790570399221652 -0.25818680818723455 0.16840642282275067 -0.27657405282932396 -0.23578189256046903
-0.2563476733200875 0.16997343500636516 0.09544876366417261 0.0764839553940468 0.12856307548215468 0.26755730872986094 0.23999184256588976 0.26830850445967547
-0.0030114424185842645 -0.13880898310175488 0.23511497419042116 -0.3069566195813335 -0.1305750684579273 0.1886801929658738 0.11887917318003378 -0.15194012056750286
-0.11408495159036705 -0.22350828972672906 -0.08864716658831703 -0.09635392112041112 -0.2566139751362273 0.094976332812637 -0.23582299495342177 -0.35874710111832586
00000000: c81e 8495 0d6b c93f 2585 3759 0322 d63f
00000010: 2a83 57c7 afe0 91bf 6967 0418 ba5f c03f
00000020: 2f6f 640d d67a 9f3f 4f3c 2cdb f7d2 d5bf
00000030: 9065 739d 209a d3bf cb38 e1c6 c154 cbbf
00000040: 6897 2dd8 e92f cbbf c716 a7dd d4b9 96bf
00000050: 4569 1200 86b0 d63f 31c5 50e7 ce49 bdbf
00000060: e439 eec5 5faa d1bf 6884 ec69 6175 a73f
00000070: a99d e760 e586 d23f 1aa8 8977 c5dd b63f
00000080: db25 4c56 6756 bfbf ac72 96ae 1d48 b53f
00000090: 4e79 f40d 9818 8f3f 581b bc01 1c17 d13f
000000a0: 59b5 87d7 6b38 d23f e8e9 463a 00d6 c93f
000000b0: 39b9 23be defe cdbf 719a 7d3c fcee c4bf
000000c0: f843 b030 70cd ce3f 94b4 aead 82e2 d5bf
000000d0: d44c 53d6 fc82 c83f cc29 7ffa 05af d1bf
000000e0: b2d2 544e 2e33 ca3f 4bf6 34ca 29e2 b8bf
000000f0: 7827 8307 d61c d43f 5c58 bace 84a0 d3bf
00000100: 107a 8459 f893 c13f c8ab fa73 6b63 b83f
00000110: 442a 2c25 dd33 a43f 71e6 89c6 edd0 933f
00000120: 6beb 9313 b704 c53f b9f8 8852 6d60 9b3f
00000130: c469 2e71 8920 cfbf 3447 b112 90b1 cf3f
00000140: 5ecd 5ecc 4844 c03f 05e1 f201 cd15 b33f
00000150: 24a8 fcdf b66d c93f 960c db95 1b71 963f
00000160: 3e29 ea65 7614 92bf 66ee 5df1 bfb0 c7bf
00000170: b8d5 a7a7 4097 d03f b53e 3770 7f38 733f
00000180: 9467 df4d 4b85 cb3f 2812 17fd fd99 d03f
00000190: 6204 1236 05e0 c8bf 7fd1 9e0a 580d b83f
000001a0: 8eea 8b9d 14f4 d2bf 2aa2 9b15 0724 b43f
000001b0: 1060 3d99 8dc4 d1bf b9f3 60d1 d2b9 cb3f
000001c0: 114f b091 5bc6 b53f ce51 1d12 8187 b9bf
000001d0: 0b1b 6b0b 5786 cabf c171 f4b1 0f84 c3bf
000001e0: 0484 424e 8970 ad3f babd 0298 4f58 c13f
000001f0: 0a16 04f9 9afd c0bf 1b52 be63 acaa c7bf
00000200: 822a 914c ef4b c4bf 664b 039c a42e abbf
00000210: 434e 3ffa 97b2 cf3f 95bd 3a09 f22f d6bf
00000220: f7cb 2b3d 111a c53f 49ca 4b7c 0a5a d2bf
00000230: fb76 3eec 7bd4 62bf 0bff 9e18 b075 c4bf
00000240: 05b7 ee52 34d5 cc3f a296 6688 c638 d2bf
00000250: 6274 157b 68a9 cc3f c79e cd54 9c9b cb3f
00000260: 4510 44a9 4041 cd3f 8244 0901 6234 a9bf
00000270: 4bfd 598b 5800 c0bf ef1d f941 f648 c2bf
00000280: a8b9 78fa 1506 c6bf ab4d 9e4a c909 d2bf
00000290: 38ac 6967 12a2 ccbf f006 5a5a e0a2 d1bf
000002a0: 04a9 902a 140c b0bf 5c0c 1daa 504b a43f
000002b0: 2733 26cf 6df7 cdbf a41e 4af5 3941 d63f
000002c0: 6b50 feb5 34c5 b33f 599c 93a0 7c1f bdbf
000002d0: fa3b e47e 0a19 c4bf 1564 bc7b e9c9 c43f
000002e0: a0c2 c05b 3f35 9ebf 2560 9de6 ef68 cf3f
000002f0: a329 4de1 15f4 ca3f 8aa4 76d0 11da bb3f
00000300: adf6 63ef 844d d03f 719c ff1b 334a afbf
00000310: 631e 48fc d2a9 c13f 7585 0711 27e3 d73f
00000320: e97f d7fb 6e55 cebf 9283 3a2e 690d d7bf
00000330: c6df da9c 443a b33f 37fb 5599 a909 c0bf
00000340: d8af 1f49 9c23 8abf d685 07ee aad9 d63f
00000350: 0fb4 ee49 64e4 d33f 7ae7 9a8a a11d ce3f
00000360: e9cd edf4 05e8 d03f 0eb7 aa72 2e78 ad3f
00000370: af96 8ebc 70b8 d0bf 5e2b 5b43 ebd6 9c3f
00000380: ca50 313c 9ee2 c73f 7df2 fe60 854a c0bf
00000390: 121c 2afb 1b4f cdbf 3901 c988 0090 c1bf
000003a0: fed2 aaa8 6960 bc3f b7f7 f8ff 0e55 c5bf
000003b0: ca59 7f04 c6c5 b83f da20 9e2f 13b7 ccbf
000003c0: 38b1 e98b 2df9 d0bf 6cd0 e79b 47ab c2bf
000003d0: fdcc 7804 0518 c93f 5cf7 9e71 2b23 d03f
000003e0: f7cb c591 6817 d1bf fe33 2fe2 74c7 d43f
000003f0: 65d0 dacb bcc1 bcbf 9daa af5e 82c2 c73f
00000400: e38e 67bd a74f d0bf cb91 8a6b 2242 c33f
00000410: a8c0 0abc c553 d5bf 8148 cce9 c84a d63f
00000420: e102 002d d468 c1bf 5aec 885d f5a0 a0bf
00000430: ed4e 38b7 89d2 853f 74b7 acb9 ffbf b7bf
00000440: f454 86ca 59d5 c9bf 4a8d c710 eea0 c4bf
00000450: 23f7 6336 d406 cc3f f364 f867 2d67 cebf
00000460: 2daf c939 b83a bebf bb4a e2c2 edbd 7fbf
00000470: ab1c 3e02 e72a c4bf b49a 9949 e3cc b83f
00000480: 9c0b e144 bd75 a6bf 6af9 4ab3 ea5c d23f
00000490: a491 e8a0 8f9c c4bf f29c e09e a3db bc3f
000004a0: bd36 b2de 4f3b d1bf 10b5 4cbd 52fe d2bf
000004b0: dc57 9b52 2dfc ab3f 2d26 67c5 0afd b3bf
000004c0: e2c2 31f8 7c61 d13f d2bd 52ce 3a9e bcbf
000004d0: 0d61 d19c 2cc3 d03f a0db 03b3 6b04 ccbf
000004e0: cc16 ed04 d229 b6bf 548b 1453 3c2f a43f
000004f0: 19a7 d9a8 2085 cb3f b394 5a4c 96e6 b73f
00000500: 7f20 507a e480 c1bf b0a8 b263 a0c8 c5bf
00000510: 3b8f ec63 fd4a b93f ed2a d187 981d cd3f
00000520: 21ca 7033 8e6b c33f 5c2a f926 6c50 b1bf
00000530: e8da 53cf 04ca d3bf ff3c 5452 3e2c d33f
00000540: 7545 044f d9ee c6bf b399 2a10 4313 d63f
00000550: 0843 b8e4 8c95 a13f e209 4ae4 e4a6 c13f
00000560: 1d0f 5bf6 2186 d0bf 51e3 3a77 578e c53f
00000570: 6dbe f4a7 63b3 d1bf 35a2 c4de 192e cebf
00000580: 9f30 5412 0068 d0bf 6b43 4584 b0c1 c53f
00000590: e599 6186 546f b83f 2d0e 16d7 7394 b33f
000005a0: e6a2 553e c174 c03f da3b b3b0 a81f d13f
000005b0: 9f4a 907d 0db8 ce3f 8626 f96e f72b d13f
000005c0: 998f 73d6 73ab 68bf 2612 6825 7ec4 c1bf
000005d0: a44f 795a 3f18 ce3f 631f 9960 2da5 d3bf
000005e0: b391 5910 afb6 c0bf b47f 182d ac26 c83f
000005f0: 0dd8 fb90 dd6e be3f 11d4 641c c672 c3bf
00000600: e2de 0be0 ab34 bdbf cf6e 616d eb9b ccbf
00000610: 2e40 61a9 94b1 b6bf 1bb4 0d8c a6aa b8bf
00000620: 9c06 ba05 5d6c d0bf 8304 5373 5e50 b83f
00000630: c51f 7ca9 722f cebf 08a2 b566 b6f5 d6bf
