dogs/pair-data/Poodle/Golden Retriever/weights/fcn-1-W_fcn-1.weights.npy (npy, 320080 bytes, 1 tensors)

array f8 [100, 400]
00000000: 443e 6c2a a670 5ebf 80a8 21e6 9294 583f
00000010: 3784 2dab 3380 9c3f b1ff 777d d4a5 a7bf
00000020: 7161 685a 5cb4 ae3f d8bb 5c8d fda6 883f
00000030: ba69 7cad bfdd 88bf 72cf 6704 a97d 9ebf
00000040: 7814 10c7 5062 73bf a71b 9499 3dd4 8b3f
00000050: be1e 3bbc 1664 a03f 0543 91c9 4393 aabf
00000060: 9047 37e4 a536 a6bf 8c5e 89db 339d a3bf
00000070: 7c02 949b 1217 a0bf 05f0 69dd 097d 9cbf
00000080: bbb5 edb5 e068 a4bf bef2 b67e ac10 97bf
00000090: c79c 910a ff55 913f bc5e 8743 715e 833f
000000a0: 8454 9715 064a 83bf 55ef 3d68 5620 993f
000000b0: c65b 912c 35d1 883f 50d6 c4c6 ea19 a83f
000000c0: f590 7cc2 b920 97bf 30aa 7e32 c5cf 6d3f
000000d0: 79a9 97ce b85c 9f3f 1caa 2101 bd8f 653f
000000e0: 4784 4944 7997 a33f f1f5 d46e 213e a43f
000000f0: b228 5a37 cf04 9ebf 4fdf 7246 7241 a93f
00000100: d1bd 1cf9 9b0d 9c3f 4879 943d 7d07 a23f
00000110: c9f6 35c6 3d1d 8b3f 6d13 dba6 b6b7 7cbf
00000120: e594 479b da81 833f 3176 3617 912f a73f
00000130: abc2 68d6 57fd aabf e619 91aa f488 8dbf
00000140: ddd8 9685 e32c a2bf 1fc4 a03a eb63 a9bf
00000150: c1ba 9972 99d1 94bf 9600 34c8 c437 a7bf
00000160: 4a59 6fa4 0e9c a23f 005f b10b b154 83bf
00000170: 3d54 a95d 34f6 93bf 9b33 644c 2200 79bf
00000180: aa85 6b5e e1bf 8bbf 911e 9200 eb7f 9c3f
00000190: 09f6 ee5a ed8d 9c3f a850 cd02 dcbd 733f
000001a0: 4624 3a22 bfac 98bf d1b7 1413 56d6 8bbf
000001b0: 13d4 7cce de07 8bbf 9397 ea9b f3ae 5fbf
000001c0: f0c6 595b bc84 a53f ec16 ff8b 2b51 a6bf
000001d0: 6901 b2c4 8a00 943f 4387 9da5 e954 82bf
000001e0: d0cc 962a d63f 6abf 7a11 c3f7 a24f a5bf
000001f0: 4134 6d29 b79a 89bf 20c6 1d48 1e6f a7bf
00000200: be57 167e 2bde 653f 462d c5e2 2ef1 803f
00000210: 470a bb6e da78 a33f 1b39 945a d8fe 9ebf
00000220: 55d8 9dce ac44 623f 0ec9 ca72 58ba 643f
00000230: 1c98 25bd d81c 933f 89d9 a4e7 1d3d 7d3f
00000240: af4e 0f17 aa96 9fbf 3c92 bc1e bbd2 a13f
00000250: 6e5d 6818 d46c 743f 1d9d 0ff3 c943 a1bf
00000260: e323 d021 4006 903f 7bbd d0bf 7d9e a4bf
00000270: d48b fa99 f441 9d3f cd56 f401 bc7a 75bf
00000280: b7e5 9013 9023 943f e1dc ef00 f195 a5bf
00000290: a7da 5d36 2655 61bf 05d5 35d2 74d4 783f
000002a0: 7db3 22a7 eb96 70bf 9365 8286 8897 99bf
000002b0: 4288 b9e0 79ec 7f3f b76a 72bb abe1 9ebf
000002c0: fca5 562a 215a 97bf f7a1 94bb 046b 853f
000002d0: d995 b8ad db16 853f 2241 b9ca f988 953f
000002e0: 2206 ed78 cdcf 943f bf38 247b 8d54 9fbf
000002f0: 05e3 d383 aec5 903f b56b 334b 4d62 a53f
00000300: 8b8c e11d 3141 973f 7b77 76d5 c228 a43f
00000310: 688a c943 a2df a13f 2a03 f67b c10c 913f
00000320: a907 c604 f8bb 7dbf de02 7dc8 67d9 8a3f
00000330: 273a 4aac 7728 863f 30cb 7473 c204 91bf
00000340: de7f 3e76 7002 9fbf 3de8 23c1 0a34 9fbf
00000350: bd08 1998 a24c 763f 49b1 e363 b08f a2bf
00000360: 662a 88b5 806f 97bf fb68 66c4 9015 803f
00000370: ad67 59a9 f78d 9fbf 55d3 fd8c 9469 a0bf
00000380: b26f 84e9 5338 583f 47a4 ea39 ce75 93bf
00000390: 81eb 4cc4 e95b 7cbf 24a0 5fb9 4174 a13f
000003a0: e4b4 86e3 9ff1 953f 0260 37ff 5bc7 9dbf
000003b0: d3b0 f5f8 6e6f 9dbf 6493 2bcb d64e 9abf
000003c0: 7bba e435 9a3e 97bf f4a9 5bd7 0941 9a3f
000003d0: ddbf e65a cc1b 8bbf ac1e 6e5e b27d ab3f
000003e0: 5331 b5a5 955c 8c3f e48e 247a d316 94bf
000003f0: c2e6 cfa3 5c09 a43f 18d1 8caa be8b 843f
00000400: a54a 3872 214e a73f 3698 7f8c 0f1f a13f
00000410: 74ac bb0b ccf1 a0bf df13 8640 ae72 803f
00000420: b31d b2e0 18b2 a03f 2358 597a 6cdc a93f
00000430: 7679 c66f 7e08 943f 7717 ddd9 d760 7bbf
00000440: 5043 6e92 aae3 a2bf 86f5 8213 52e4 963f
00000450: 8e7d dd01 6fa4 90bf 0796 616f a2c6 81bf
00000460: ad92 3093 72d6 91bf b452 330e 1416 5b3f
00000470: 0d02 7d9c 12fc a1bf 6510 edcb 32ad 89bf
00000480: d971 b6ef 25ce 833f 87ca edf5 e0f1 95bf
00000490: 5a2f a1f6 c2c6 723f 1a24 2626 13b7 98bf
000004a0: 6486 9dad 6604 a7bf e75f ea92 b02d 803f
000004b0: ab73 9ad4 b97b a6bf 18db 1615 0d95 9cbf
000004c0: 64ef 6691 6390 793f 9e8d b367 0438 853f
000004d0: ff74 adb1 faf1 b13f e442 08a9 6126 72bf
000004e0: fd42 0398 1311 8abf 748c 83e4 ed78 acbf
000004f0: 3a9b 7cc1 6507 933f 04a7 2f9d 7f26 753f
00000500: 1d75 a609 e233 933f 1fa7 8def 4870 a6bf
00000510: 133d 0a85 6399 a9bf 9323 d3c9 ec30 93bf
00000520: 956f 536c bdc1 9fbf 5c6b bfa2 ead8 733f
00000530: d7c7 e324 38fe 863f 6704 70ef 5122 94bf
00000540: fbef fa26 f3fc 77bf adad 9128 ea51 973f
00000550: 2234 ae56 76e2 a1bf 34a7 e6ca 9a40 973f
00000560: fee8 db54 944a 883f d1ae 9783 05a2 983f
00000570: 70dd 9203 55b9 aa3f 370c 8110 40dd a03f
00000580: 1aa6 f098 c5c6 79bf e9ec 7873 5236 aabf
00000590: 03bd b196 361c 8ebf 6d0a 6597 9045 93bf
000005a0: 837a 3b7e 954b 9a3f 7fdc 5cac a02d a7bf
000005b0: c98a c2a6 196e 9dbf 8120 04b9 7392 a3bf
000005c0: 8aed b1e6 09f7 a03f 4cfb 12e2 856c 673f
000005d0: bd22 8e6c fe43 69bf 4d72 19e5 7acb 91bf
000005e0: bc99 e524 4285 adbf 01e5 768d 7aab a33f
000005f0: eb73 ebd3 6ab2 9b3f ae36 607d 3aa4 933f
00000600: e061 c2c4 8e15 94bf 0ab4 91b9 9e4b 803f
00000610: 8373 3b32 726a 9d3f d2e9 6135 bde7 993f
00000620: 2882 bc52 8fbc 93bf 9825 5fc3 d22e 943f
00000630: 8ba0 a371 dd0c 99bf 562d 5d88 bed4 a63f
00000640: 891b bf76 f618 80bf 1138 aa5d 85c1 7f3f
00000650: 5b26 a3c9 c1fb a43f ac59 faaf cef9 71bf
00000660: 519d e446 ed98 ab3f 6da8 8659 a034 b1bf
00000670: 7d2c 892a ca7c 95bf c18d a3fe 95b1 a4bf
00000680: 0a44 33f0 7e3d 613f ac66 7dfc b092 8c3f
00000690: 6c71 6ef1 e42d acbf 2404 ea95 56e2 9a3f
000006a0: 3d45 f2bc 2959 7dbf 2dff 7e12 5eb5 48bf
000006b0: fba5 76f3 a26c 913f 63c7 d3c6 e9fb 8dbf
000006c0: 14ed e7a7 eb67 323f 47f6 a553 bf04 a1bf
000006d0: 461d 6aea ee8c 93bf 92e1 eb8a e0fc a43f
000006e0: 1fff dea0 9c6b aabf 2105 7eb2 d0eb 8d3f
000006f0: 12f0 05e1 5664 95bf 4351 9b51 d32e 73bf
00000700: ac8d 1fca d87d 863f 1eb4 45b4 e03a 7cbf
00000710: d3f1 3977 4885 9b3f ee40 1691 958b 96bf
00000720: 7982 00b2 8e3c 69bf e0c8 c1c1 a042 67bf
00000730: 92e9 cb30 2be6 9c3f 2ab0 8de0 9118 a5bf
00000740: 2bee be95 64de 91bf f0ea 3387 511b 8f3f
00000750: 6331 5920 7c3c 6fbf a2da 712e 94d1 8abf
00000760: 536a e088 9d7a 64bf 7629 6a77 01cd 83bf
00000770: e682 0748 a3c8 843f babf 26ee eca6 aebf
00000780: 4097 3400 b2cc 7a3f f170 3fa9 73c5 9bbf
00000790: 543e 3c3a c018 953f a495 8baf ec69 823f
000007a0: 454e c699 0014 a63f 1949 0b10 4336 9dbf
000007b0: 1549 a38d 5ccb a3bf 63fc 716e a2d7 a4bf
000007c0: 5328 6da1 0c38 a0bf 3528 2c28 2910 933f
000007d0: 3fc1 e98e 4e6d 923f f2bf fddf ac95 a33f
000007e0: 65e1 eeff 2165 ad3f 5fa9 6543 c7b5 a63f
000007f0: 2dbd 95fb 2a43 41bf 1857 9b61 91ec acbf
-0.0018579123222400998 0.0015002665100163626 0.027832801173080148 -0.046187057796486804 0.05996979335413045 0.0120372589841206 -0.012141702157852364 -0.029776230710879266
-0.00473243287797686 0.013588410615296654 0.032013617017182736 -0.05190479121723083 -0.04338568125571307 -0.03830873541727184 -0.03142603062770363 -0.027820734156634348
-0.039862653930736035 -0.022524543031738224 0.016929612178867594 0.009457478402438262 -0.009418532880696391 0.02453742038004177 0.012117782042123337 0.04707273174646487
-0.022585775847930162 0.003639111662740356 0.030627143487359263 0.0026320163242890115 0.038265027604901074 0.03953651884010501 -0.029315221551350752 0.04932744131059385
0.027395665244680793 0.03521338822086989 0.013239367114461402 -0.007011140330807614 0.00952502046943455 0.045284780582033675 -0.052714104578972375 -0.01442137856987542
-0.03549872403839214 -0.04959044542955148 -0.02033080827680567 -0.04534735626111901 0.03634687192213677 -0.0094388801282288 -0.019493883339539265 -0.006103643396511506
-0.013549576467485409 0.027831718358838634 0.027885159182679007 0.0048197359254410835 -0.024096476043755886 -0.013592407662681357 -0.013198605228902626 -0.0019338015551197726
0.04202831854935407 -0.04358802875462495 0.019533317809420057 -0.00895102059047626 -0.0032042677819049473 -0.041623203987486826 -0.012502127601374481 -0.045769640258083166
0.002669415422768189 0.008272520347097367 0.03803141214077193 -0.030269032028678127 0.002230012430056975 0.0025302627094215885 0.01866472868405121 0.007138363662582478
-0.030848176629503395 0.03481087446406092 0.0049865994428935755 -0.03372031299641718 0.015648843826088565 -0.040271691956486465 0.028571912668336655 -0.005244001774618656
0.019666911310400183 -0.04215958725392866 -0.002115797647032142 0.006061989147714946 -0.00405017902282345 -0.024992116174507095 0.007793880543973288 -0.030157740894177745
-0.022804754456648965 0.0104580278153472 0.010297504653020194 0.021030333517331752 0.02032395411084143 -0.030595980301818978 0.016379095836756914 0.04176560919741893
0.022709624718470194 0.03937348228212919 0.034909315848172195 0.01665022200677694 -0.007259339163626346 0.013109980398100015 0.010819373078701023 -0.016619718834770925
-0.030282742707299685 -0.030471962011667342 0.005444178708389366 -0.036252510255368416 -0.02288628681166429 0.007853632920888467 -0.03081500025869104 -0.032055513583066166
0.0014782733397344758 -0.019004080090472077 -0.006923592711980287 0.0340900934969002 0.02142953706941321 -0.029080808117072372 -0.028745397515579207 -0.025691372061277376
-0.022699746646305457 0.02563872696820542 -0.013236614727105628 0.053693365122908204 0.013848466033458939 -0.019618324594502648 0.039133925434680986 0.010032167033934544
0.04551796454702143 0.033440099621472916 -0.03309476512171097 0.0080312360230525 0.03260877364032968 0.05050982469099121 0.019563651630613653 -0.00668415371712238
-0.036893206000178425 0.0223553490075026 -0.016252264489023775 -0.008679646514973006 -0.017419615014790214 0.0016532131056027745 -0.035126287081315245 -0.012537381027535053
0.009670540216398503 -0.021430506716067412 0.00458408505989979 -0.024135874942235437 -0.04495545262649328 0.007899646266466177 -0.04391270370727026 -0.02791233483523134
0.00624121564618094 0.01036075059386726 0.07009856069403851 -0.004431134686925662 -0.012727883411942193 -0.05561011709667066 0.018582906660550715 0.005163668148250759
0.01875260528469368 -0.043825415842390074 -0.0499983882810914 -0.018741321390539033 -0.03101249669712976 0.004845539613564789 0.011227072358881358 -0.01966217063818867
-0.005856466115513821 0.02277341721166486 -0.03493089492904057 0.02270738471421581 0.011860998954479115 0.024055563122529492 0.052195221601716635 0.03293800546136832
-0.006293079247407652 -0.05119569453787582 -0.01470224997885206 -0.018820056190870838 0.025678954915628893 -0.04526998619115207 -0.028740311434954067 -0.03822671540734835
0.033134755526556495 0.0028593649772966964 -0.003084179803810676 -0.017377777321927735 -0.057657305721295654 0.038417653816802406 0.02704779547172002 0.019181169416745796
-0.019613486060366614 0.00795673373996843 0.028726372066433036 0.02529807699509396 -0.019273986267878268 0.019709866690197225 -0.024463138638481523 0.04459185995673447
-0.007860112665992751 0.007752915344680048 0.040983253349236214 -0.00438862550040257 0.05390111437219026 -0.067209264618812 -0.020983847471410123 -0.040417373021934384
0.002104518820126082 0.013951666550997409 -0.05503764578972689 0.026254036808044515 -0.0071651106255939375 -0.000754042562213874 0.01701597796424002 -0.01464064252874992
0.00028085234944770607 -0.03323934455964355 -0.0190923052382719 0.04099179931467058 -0.05160226310499482 0.014609938094283738 -0.02089057682449897 -0.00468332811734157
0.010982221287071457 -0.006892087698685349 0.026875622059820813 -0.02201684663811048 -0.003080633832738319 -0.0028393878729327943 0.028221773961357118 -0.04120307794696061
-0.017449924125442145 0.015188824595033762 -0.003813021120356351 -0.013095052401906063 -0.0024998738144977133 -0.009668361145732201 0.01014831126752953 -0.059867290564738565
0.006542868915209443 -0.027120406346384966 0.02060222964706633 0.00899109755250544 0.04312135579234825 -0.028527305464032347 -0.038660900392317434 -0.04070766065796574
-0.03167762251412456 0.018616335942205537 0.017995097611163798 0.038251306860615744 0.05741220711883236 0.04435560891836831 -0.0005268058659292689 -0.05649236980904798
