dogs/pair-data/Hound/Golden Retriever/weights/conv-2-W_conv-2.weights.npy (npy, 102480 bytes, 1 tensors)

array f8 [16, 32, 5, 5]
00000000: 850a 6caa 451a 9b3f 6edb c220 4e02 5c3f
00000010: 3b6f c2f7 41f0 54bf d765 0d98 ce27 96bf
00000020: d44d 4cb3 2b41 99bf 283e 6f6c eb38 91bf
00000030: 7416 afcf 8cab 9c3f 65b9 8ee2 b595 95bf
00000040: 2b0b ac41 29bb 823f a172 efd8 1a30 823f
00000050: f2e0 7054 7453 933f 6fb0 36af f714 9a3f
00000060: cdb6 1b7d 045c a1bf 5bec fae9 2733 963f
00000070: c20b 87b3 db86 85bf ade2 3f6a fe7b 8e3f
00000080: 4b3b 3baa 63c8 633f d5c5 0b34 de30 773f
00000090: e278 9884 8d95 93bf 5748 aabb 8857 99bf
000000a0: 848c 791b 5020 87bf 1676 c117 688b 94bf
000000b0: 8726 d17e 5d4e 7d3f 675b 70e9 2772 91bf
000000c0: d079 b5de 41c9 873f f169 06ce 4e33 b8bf
000000d0: 63c9 5d1b 5c4e 95bf dfbf 1149 0b7c 923f
000000e0: 372c f9b4 3599 7abf 99de bcc4 6cc6 823f
000000f0: 50b0 c0ed a459 b1bf 2580 6878 1e98 a6bf
00000100: 12b4 73b7 9f65 a13f fe54 298d e32d a7bf
00000110: cc1e 1934 46c8 9cbf 19c3 e7e1 7b45 8bbf
00000120: 6703 56ef db10 9d3f 9a63 037b e8fa a0bf
00000130: 5fa7 0f6e 6fab 9d3f f81e c77d 80b1 8f3f
00000140: 649b d910 9ddc 903f 9f50 d1e3 8cee 6a3f
00000150: f6a8 e1b1 ba3a adbf e8aa 8af7 52d4 69bf
00000160: 26a9 00b3 f425 7a3f c498 2860 20cd 953f
00000170: b38c b5a2 22d0 9c3f 98bb e5a2 e8c8 85bf
00000180: 5ff4 2914 d0e3 97bf fe29 5a07 cc53 993f
00000190: 29f6 c9a9 cf52 893f 4526 950e 1100 a83f
000001a0: 280d cc69 6285 b13f d705 2d1c a78f a9bf
000001b0: a050 982b 01f9 913f 4377 75cc ab89 5b3f
000001c0: a949 3932 5500 6e3f e88b 1e8e 0b80 a3bf
000001d0: f07e be03 f44e 8f3f 1fb7 a232 fdf0 a6bf
000001e0: 38e8 893a a0bb 54bf a4d1 25ee 69ac 963f
000001f0: 3dfb a3af fce7 89bf 151f a8a9 a0fc 8c3f
00000200: 88ae 6afd 4c66 713f 2704 b0c2 4938 9b3f
00000210: 76fb 2c00 bf56 8b3f 1ad4 15e8 2709 74bf
00000220: 2d56 fcd4 71b4 a7bf e04f 9de0 3098 a7bf
00000230: 3abc a489 b1fe 96bf 2c69 47d8 4530 913f
00000240: a365 7aba 02c5 a2bf ccc1 56ba e75e 91bf
00000250: 3c48 6545 a1b5 a1bf e697 44a8 6a98 a33f
00000260: d517 8a66 8c14 a03f 934b ab10 807d a1bf
00000270: 7f57 55c3 6edc 983f a14f 8d9b 236d 563f
00000280: 43a4 07da 8de5 833f 78d4 2db3 5be4 8fbf
00000290: 65ac 34f3 528a 65bf 7e05 0864 d80b 943f
000002a0: 76b1 65eb 7ee3 aabf 7a38 a5b0 8ec5 813f
000002b0: a02c a284 99ee 82bf 1516 bbb0 d1dc 86bf
000002c0: dfca 491a f5dc 9abf 24b3 93d4 1c24 90bf
000002d0: 242e 6549 e0ca 9d3f f929 5319 32f9 953f
000002e0: ba19 b457 d84f 91bf 40b9 37e0 aad4 a9bf
000002f0: 55bd ac55 81e2 7fbf 2342 2686 8a19 a5bf
00000300: e420 b21c 6f2e 84bf 6143 5f41 5f5c a4bf
00000310: 18c5 002c e9a4 8bbf 3d21 19c6 ea12 a3bf
00000320: f8c7 8f66 55a1 a53f 4f27 d658 e1e3 a93f
00000330: c6d5 6803 4098 a2bf 4cb3 2da0 f15e 993f
00000340: b515 8904 5b8d 923f 9185 26d7 bf66 823f
00000350: e21c cee4 a935 963f d92b 11a0 423f 99bf
00000360: b4d5 815b 36a2 9c3f 8475 6601 41fa a0bf
00000370: 3b0c a609 2853 85bf 3441 3373 af6b 95bf
00000380: d90d 9f16 2b6d 983f 23e4 022a fcb3 88bf
00000390: d3fc c661 c985 7c3f cd77 007b 0da6 a43f
000003a0: 807b 87fa 3dee a43f 596e 6c55 b5db a1bf
000003b0: d0dd 2252 1dce 9cbf 99f4 edba 157b b0bf
000003c0: 4fa7 5ed2 67ff 993f 630c 7510 3dae 8bbf
000003d0: b7e3 96e8 28de 45bf 1659 d626 9f2f 9e3f
000003e0: 78fa 9aa8 ed0b 95bf 6827 f554 65a2 96bf
000003f0: d940 1eee e5cf 7e3f 1c08 a46f 0ee0 97bf
00000400: 4a86 0440 9c42 8d3f dbcd 25ae 90e6 943f
00000410: ecc6 7d66 70c7 92bf ce91 95b1 9f20 90bf
00000420: 5aeb b5c4 cb34 b1bf e61f 5cb4 3083 8abf
00000430: fc52 4a59 ba65 883f cb19 9db2 2aef 953f
00000440: dc27 7d6b 18f1 81bf 5bd8 c2ad 062e 95bf
00000450: 79fc 5b56 e443 973f 95bd 53f0 8615 7c3f
00000460: 13b2 499c c829 78bf d0b7 4285 694f a2bf
00000470: 5792 aec3 5231 a0bf 73c3 fa2c 5c23 a6bf
00000480: 7c40 78e2 3df7 8fbf 47d9 aa58 3bc6 78bf
00000490: 4216 e5ec a431 9b3f 3827 4f78 a009 8c3f
000004a0: d0b1 47f0 a271 a33f cfbc 9b4a e3fc 903f
000004b0: d18c 3226 49d4 96bf bc42 bbc9 e678 68bf
000004c0: 1edc 02cb 2fd6 6bbf ef11 db84 c32f 793f
000004d0: 7bf4 63ac 468a a33f b1f5 c5e3 ea35 a03f
000004e0: 52c5 1016 65aa a43f 3c34 6838 bbce ab3f
000004f0: 896f 5eb0 e198 8e3f a795 b529 44fb a03f
00000500: 04b7 634f 1db3 9f3f e8be 1c14 9f05 a43f
00000510: b2c5 2e05 5f86 74bf 19fc 8dc6 1168 a63f
00000520: f5cb f961 5a62 8dbf 22f2 4c47 7033 91bf
00000530: 5061 5faa c669 843f 6364 bda1 ba6b 8dbf
00000540: 16c5 c428 de35 ae3f f3cc 28cd 4372 98bf
00000550: 060f 9a56 56b0 86bf 88bd e64d 2865 a03f
00000560: 3a2c e5ff 1a4f a73f 986c d418 d7e9 853f
00000570: 1d59 3164 0105 64bf 37e5 017b 63c1 a13f
00000580: 420a 440d b7b4 99bf 6341 a2b9 d28b 9dbf
00000590: 991b 19bd 2384 95bf ec0e 5c72 4443 7ebf
000005a0: 0739 fa91 8438 983f e08e 46b3 fd8b 9fbf
000005b0: c643 a7d5 d2bb 9dbf 02e9 94d4 b29f 95bf
000005c0: 261e 0624 a9ba a1bf c8d9 35f8 8cbc a1bf
000005d0: a38e c183 74f0 a3bf 8cd9 48fb 67ad a3bf
000005e0: fade 9357 2493 99bf 62fb f81f 0a16 82bf
000005f0: 58e2 0fd8 53fb a4bf 3d7d 52fb 6f23 a23f
00000600: 3cce f979 2a7c 713f 9ef5 a8d9 69a7 91bf
00000610: e84e 35bd 3c92 963f 6783 b93e 7751 993f
00000620: e10a f252 940f a73f 9f91 80f1 60e0 9ebf
00000630: 4d23 c387 219c 60bf 2558 8e6f 7749 a13f
00000640: f986 0de4 666f 96bf bdcf d844 5f8d 973f
00000650: ed28 8485 750b b3bf 634e fe60 149e afbf
00000660: 9372 9566 02f8 95bf cd66 54db 17ce 9fbf
00000670: bf15 8a93 36e8 6a3f b64b e297 793c b0bf
00000680: 61d0 23f4 a4b5 653f 8e2f 395e ce10 b1bf
00000690: 91b7 d99d 53c5 97bf 836d a69b a621 a9bf
000006a0: 1459 8d6a be15 acbf d9a1 1fc9 0507 9abf
000006b0: b266 8602 2e62 8fbf 5f49 b1df a312 81bf
000006c0: 6f93 2585 743d a8bf 3e0e b55d 92bf 943f
000006d0: 247f 1065 44b7 94bf e4ea bc97 3076 8a3f
000006e0: 78e8 55f9 d57e a23f 875b cc5e b471 9abf
000006f0: b2dd e0f1 419b 9fbf 1fd6 24cd 8dfd 3e3f
00000700: a9b6 c68a bda6 a1bf dbe0 00ca d956 993f
00000710: 6938 78ad 0e85 913f 1d9b 66aa 4f57 a3bf
00000720: 4ee9 05c9 d693 a23f 818c 50e9 1a9a 97bf
00000730: b11e 7c7a a2eb 90bf 9419 9f9d 3f47 893f
00000740: 8f0d 2676 adc8 843f b59f 78e6 6aa9 8e3f
00000750: 10af a155 dc9e 9fbf 16d7 c4a1 6813 8fbf
00000760: e993 ca98 47a8 a3bf 88fa dee7 1df0 973f
00000770: cba7 223a 6593 9e3f 0908 6e6b 5b1c 963f
00000780: e96f cf9d f890 a4bf 2544 69e8 2b74 98bf
00000790: 3a84 0345 2a3c 6cbf 6599 3cc5 ad1f a53f
000007a0: e17d 03ad d974 80bf 2eb8 be0a 071c a13f
000007b0: 7cb0 e36b 8244 913f 2c66 b127 fe6c a43f
000007c0: 2742 4374 b631 a73f b4da 2396 d44a 953f
000007d0: cecb da39 60cf 7bbf c3aa 511f 1b86 aabf
000007e0: 55a6 bf9b ed57 adbf ada0 fc71 757e aebf
000007f0: 8fb5 c491 a88f a7bf 0935 e5de 9c3a 3abf
0.02646740772889668 0.0017095339745034316 -0.0012779850212955707 -0.021636226683176076 -0.02466266900871779 -0.016818693631476617 0.02799816148378516 -0.021078912690137303
0.009146044079448487 0.008880815263119958 0.01887304082285452 0.025470609730902923 -0.03390516307068268 0.021679519325271773 -0.010511127868886198 0.01488493692157652
0.002414889009606657 0.0056618385140025556 -0.019125186174385862 -0.024747978643582105 -0.011292100752319685 -0.020063044023450237 0.0071548130191075926 -0.017037032721499836
0.011614336594615887 -0.09453289537342592 -0.020806731386480048 0.018051315626905647 -0.006493768494304545 0.009167527917824091 -0.06777411274441758 -0.044129326055781605
0.0339784537735356 -0.04527197931444425 -0.028107735566918632 -0.013316123801787637 0.02838462494173957 -0.0331642770922322 0.028974286167716353 0.01547527679294046
0.01646657386154561 0.0032875777965647025 -0.057088693822906864 -0.0031530018280440004 0.00638385377537024 0.021290307873777406 0.02813772314165126 -0.010637109252199115
-0.02332997439451778 0.024733722637884974 0.012364981049581907 0.04687550833712043 0.06844153483330173 -0.04992410868591051 0.017551439557863646 0.0016807725640641403
0.0036622680652637807 -0.03808628187041291 0.015287309993993387 -0.04480735056982454 -0.0012654366238664793 0.022142081413635176 -0.012649511442302969 0.014153723886024797
0.0042479522150348295 0.026581909663949823 0.01334904879842978 -0.004891544232454437 -0.04629855847285245 -0.04608299962879392 -0.022455953622906068 0.016785708737964075
-0.036659322036210605 -0.01696359705755572 -0.03458885166277567 0.03827222160388981 0.03140677215291957 -0.03416061595421307 0.024278383896067176 0.0013687942248070478
0.009715183464282023 -0.015572277455911485 -0.002629434596789037 0.019576436143329705 -0.052516905055059945 0.008677592054166395 -0.00924415527358341 -0.011163366514106913
-0.02623351071310764 -0.01576275870768308 0.02909422347992864 0.021458418651301134 -0.016906147339818857 -0.05045064913780317 -0.007784371579688217 -0.04121048820082176
-0.00985419088671375 -0.03976724312781844 -0.0134981361917164 -0.03725370090666267 0.04224650265668112 0.05056671342306506 -0.03631782571430224 0.024776244546433276
0.018117353584121882 0.008985041383143851 0.021689085569531204 -0.024655381221503212 0.02796254094615387 -0.033159285946776 -0.010412514490559235 -0.020918599516165773
0.023853944068617714 -0.012062044174273428 0.0069635263902789344 0.040329381241675934 0.04088014300554388 -0.03487936656730701 -0.02813001455134928 -0.06437812627514673
0.02538835736746786 -0.013515927376493935 -0.0006673526524344418 0.029478537316742402 -0.020553315559249857 -0.022103865919496896 0.0075224858900499675 -0.02331564480210356
0.014287205413498278 0.020410786275034325 -0.018338924651692887 -0.01574944993389398 -0.06721185257440024 -0.012945538047929927 0.01191278061859568 0.021420161391938735
-0.008760634212780553 -0.020683388095413906 0.022719924708323156 0.006856467346764279 -0.005899222979320234 -0.0357621169253971 -0.03162630690284079 -0.043238525858561604
-0.01560829493885784 -0.006048423597056213 0.026556565245547732 0.013690236732049152 0.037976352530538215 0.016589690617306026 -0.02229418082846452 -0.0029873378351584472
-0.0033980306107781596 0.006149066682784795 0.038164337676769265 0.03166135816989469 0.040362509673637206 0.05431160987436853 0.014940036005832063 0.033167009440869415
0.030956705065299253 0.039105387883294374 -0.005010958836395062 0.043762736785531504 -0.0143477498197395 -0.016797785140839967 0.009967376779898146 -0.014365633068950062
0.05900472877181977 -0.023873385807928704 -0.0110785241297502 0.032021770009460104 0.0455254018184736 0.010699921078915417 -0.0024437930274344836 0.03467856289439413
-0.025103435692481087 -0.028853695469082462 -0.02101188508666105 -0.007388369913090758 0.02365309849715749 -0.030807460848918278 -0.029036802568785956 -0.02111701414580925
-0.034627233169029645 -0.03464165239249756 -0.038943902095323744 -0.03843235914648621 -0.024975364537538326 -0.00883109960625256 -0.04097997677303472 0.03542661612413631
0.0042688044774084576 -0.017240194234764077 0.02204222588382168 0.024724829867753508 0.0450407363178067 -0.030152811756254057 -0.0020275740517700425 0.03376363026397681
-0.021909339589348573 0.023000229432184705 -0.07439360150980052 -0.06175292667390122 -0.02145389319535924 -0.031059620630094643 0.003284556002031563 -0.0634227748690098
0.002650091338290792 -0.06666269111991438 -0.023213678845813105 -0.04908486032510508 -0.05485339213071164 -0.02541741409359752 -0.015323981716210387 -0.008336334480337269
-0.04734386563612857 0.020262038201748427 -0.02023035876129521 0.012920741682696364 0.036123930632087686 -0.025824373518016166 -0.030865698230824364 0.0004728766627012121
-0.03447525328679763 0.02474537177497003 0.01710913594984512 -0.037775506544951855 0.03628417209525257 -0.02304880188979697 -0.016523874975091505 0.012342926976896242
0.010148387115583883 0.014971575888082936 -0.030879442907845223 -0.015173737942500359 -0.03839324703339015 0.023376910474093765 0.02985914389925152 0.0215925487823441
-0.04016854215998917 -0.023880659160855928 -0.003446657712729476 0.041257314993617546 -0.008035374252755413 0.0334169579140141 0.016862905345007992 0.0398940490201308
0.045301152889468725 0.02079326788313081 -0.006789565928261033 -0.051804397175904814 -0.057311463606151726 -0.05955855385246998 -0.04601790217780454 -0.0004002221093245139
