dogs/pair-data/Hound/Golden Retriever/weights/fcn-2-W_fcn-2.weights.npy (npy, 1680 bytes, 1 tensors)

array f8 [2, 100]
0	0xbfd372213434baa9	-0.30384092424621173
1	0x3fdd75d9bf2b1ea0	0.4603180281523951
2	0xbfc4ce46c7ad0753	-0.16254505872535194
3	0x3fd8902d79dc4fad	0.3837999048275787
4	0x3fd32f26695c0bc8	0.29975281037348767
5	0xbfd536eff85d5123	-0.33147811178538883
6	0xbfc87c272e2ffc27	-0.19128885035749585
7	0xbfcb8472f2441e09	-0.214979522985445
8	0x3fd3cd8f8bb963a8	0.3094214310163417
9	0x3fcdcef51eb9e07e	0.2328783416776367
10	0x3f95c6262f4a8ea5	0.021263691555431525
11	0x3f2d5d7276d9d35b	0.00022403738278211735
12	0x3fc1f5200804133d	0.14029312507059358
13	0x3fa7f7588f1400ac	0.04680897471007603
14	0x3fc51cc05a6fecd6	0.16493992248420025
15	0xbfc91419da3be209	-0.19592593341782585
16	0xbfd72e02ab368a30	-0.3621832534792331
17	0xbfc17df3360fd279	-0.1366561902974757
18	0xbfa04298e48fae18	-0.03175809660009693
19	0xbfd8c4f96fbda892	-0.3870223609179756
20	0x3fc87283fcb420a2	0.19099473799747552
21	0xbfda6f7166cee79d	-0.41305193939080614
22	0xbfd6fb8389989778	-0.3591011851989303
23	0x3fc36d3b2e3e2001	0.15177097089713246
24	0xbfdf5d33298c50be	-0.4900634675734742
25	0x3f9469e4f6485f9f	0.01993520501318324
26	0x3fd3cb7ae374c7ed	0.3092944356204715
27	0xbfc7a247e04ec45c	-0.18463991596721285
28	0xbfb30b59d03803aa	-0.07439194997279111
29	0x3fac3cfa0a9605c9	0.05515271548484752
30	0xbfd47bb148d1a52a	-0.32004959212516104
31	0x3fc71a97d074df52	0.18049905470410949
32	0x3fc4ab3412972315	0.16147471339925148
33	0x3fa73085328b9962	0.045292055530626
34	0xbfc5febe4526853a	-0.1718366468094617
35	0xbfd5f37461b02ae9	-0.3429842905031096
36	0x3fcd26b2afd6bb9d	0.22774346910361212
37	0x3fcb5119b2281e10	0.2134124870210461
38	0xbfd188ee1a493ea7	-0.2739825493526759
39	0xbfc622cc0d4b8a81	-0.17293692254232343
40	0x3fcdf12b6286304d	0.23392240820646962
41	0xbfdd55461bfaf49c	-0.45832970364046743
42	0xbfd7972a003832cb	-0.3686013223785209
43	0xbfcc0a5b304a07cf	-0.2190660463130016
44	0xbfd1d7855e01b149	-0.2787793558152499
45	0xbfde3b2000d43679	-0.47235870438530686
46	0x3fc44f73526b32f7	0.1586746361193929
47	0x3fbdf3af578e025b	0.11699958694044581
48	0xbfd1f1d127c1dcef	-0.2803843391661322
49	0x3f9cda08e4bbb58c	0.028175486527222612
50	0x3fde910e08889b70	0.47760344346391204
51	0xbfdffba396ecb94e	-0.4997338270067261
52	0xbfc20ec235e96a80	-0.14107539780055234
53	0x3fd7c4449ee25504	0.37135425106073705
54	0x3fd552159b81506c	0.33313503442810233
55	0xbfda5f4616bf6ed6	-0.4120650503298128
56	0xbfd751a0b1b5ccd5	-0.36435716013438696
57	0xbfdd4400dc538f97	-0.4572755958199592
58	0xbfcc270d5d34bb44	-0.21994177867005693
59	0xbfd736b4451e9a5f	-0.36271387815432904
60	0xbfd779d743280cac	-0.36681157644506857
61	0xbfd51af07e335d2c	-0.32976925205498975
62	0xbfd20579b972e802	-0.2815841971420242
63	0x3fd995e285c671f1	0.3997732454679684
64	0xbfd8faa2b679eddf	-0.3902975828165988
65	0xbfcfd34f00d97f85	-0.2486361269138763
66	0xbfd459c64ff66986	-0.31797941025583787
67	0xbfc9132d94e77f72	-0.1958977677413674
68	0xbfd2ee4a51cc7d1c	-0.29579408634340765
69	0x3fdc1565d0f88e65	0.43880601317707707
70	0x3fd19b4a69ee1934	0.27510319084867096
71	0xbfca6f3fdce4095e	-0.20652006421739605
72	0xbfc20519484bdc9a	-0.14078060178846813
73	0xbf8472bfee8dfb93	-0.009984492747887852
74	0xbfd93aa563b6be09	-0.39420447099379935
75	0x3fcdda8a0f23c3ef	0.23323178996318414
76	0x3fc98d5aec226879	0.19962631731033634
77	0x3fcdbe8d47e16f6e	0.23237768182559243
78	0x3faaf5daa7086d81	0.05265696801162801
79	0xbfbf48c380750453	-0.12220403562697983
80	0x3fcb6502da389d36	0.2140201154263452
81	0x3fd2bb37bbfc5313	0.29267686231587325
82	0x3fb6d456523e4683	0.08917750842945264
83	0x3fb7fb6c08c20341	0.09368014539542192
84	0xbf9feb3e9c347bf8	-0.031170824321744534
85	0xbfc658113eaa39fd	-0.1745626026135624
86	0x3fd4bef9167f5555	0.3241560668660289
87	0x3fd27b0287c0c6f9	0.2887579274857753
88	0x3fcede0cece60f1a	0.24115144316976328
89	0x3fb77446a43584a7	0.09161798008928433
90	0x3fbd803e284d1c31	0.11523807987133307
91	0xbfc344ab203920b1	-0.15053309510608906
92	0xbfcbd7b07f33c985	-0.21751981936501977
93	0x3fc5ad4e0dd5d559	0.16935134578276737
94	0xbfb034170e65ab46	-0.0632948312901763
95	0xbfd074b0f5d78434	-0.2571222687529968
96	0x3fda735f91b9aeff	0.4132918284510509
97	0x3fa8381b0dc5a484	0.04730305235973112
98	0xbfcaab1338030bec	-0.20834579691845023
99	0xbfb8a72ec518eb69	-0.09630100547739819
100	0x3fd3464b232d2554	0.30116537509146224
101	0xbfda0ef0c0a60448	-0.407161892064384
102	0x3fc7244e973e80a5	0.18079550156563076
103	0xbfd31fef8c03cb91	-0.2988242022831225
104	0xbfda62b0f1c6e5de	-0.41227363215474877
105	0x3fd83ccf4deed4a8	0.37871153460157325
106	0x3fc62de146920820	0.17327514596769422
107	0x3fbdbb322366a7da	0.11613763202936359
108	0xbfcce164a3f0cdde	-0.22562845234789014
109	0xbfb6e914d1b596ac	-0.08949403877121637
110	0x3fba1287e91332a4	0.10184525909716996
111	0xbf97d18e4ce50bea	-0.023260329669266534
112	0xbfc4366c74b2d0f6	-0.15791087816399568
113	0xbfc8d4ca9c79f6b4	-0.19399387970400073
114	0xbfd02f2868f432a9	-0.2528782868328486
115	0x3fc16a4648055ace	0.1360557414688714
116	0x3fd6fa1db11979c9	0.3590158681380698
117	0x3fcb4a6ef9d93da6	0.21320903014791986
118	0xbfb1de9d73b26ca6	-0.06980308603890481
119	0x3fd8ffe471ea873e	0.39061843037244504
120	0xbfc4be2e3cb24fda	-0.16205385173509407
121	0x3fdb367e9b634223	0.4252010838945656
122	0x3fd5e6f51ca10047	0.3422215251521305
123	0xbfa5ee2ed4222c79	-0.04283281650085597
124	0x3fde569d992ac7b2	0.4740365978024058
125	0xbfc4d9ea6a15856a	-0.16290025882612308
126	0xbfc8c9ba33343194	-0.19365622997464682
127	0x3fca2771b43a30d2	0.20432874012147423
128	0x3fb71d9b7f0851c9	0.09029552317981095
129	0xbfbe18a7e191e220	-0.1175637174327524
130	0x3fd8d284d46669cf	0.3878490518779047
131	0xbfc019a937af7226	-0.1257831117535641
132	0xbfcf75194ac2e22d	-0.24576107168629005
133	0xbfa99f8270e8ca5a	-0.05004508617675603
134	0x3fc20f9479e873c3	0.14110046341457236
135	0x3fd7ce0b9d4227da	0.37195101125018726
136	0xbfd0ecab7332bb16	-0.26444517373868004
137	0xbfc80ad440a440ba	-0.18783047825173133
138	0x3fd1350c24adb42c	0.26886275846374263
139	0x3fd2207a5921c358	0.28323229507718883
140	0xbfd06b9d6845ff43	-0.25656829054786473
141	0x3fda77eab618ad68	0.4135691431317441
142	0x3fd88ebbc76b3d31	0.38371176218511766
143	0x3fc98132a0f4c8df	0.1992553029936692
144	0x3fd2f4d881ff5458	0.29619419760758126
145	0x3fdf4a3c7b54f06d	0.48890602153892965
146	0xbfd1509cd700b615	-0.2705452060352809
147	0xbf88734688f76b86	-0.011938620619664563
148	0x3fcb41d36b0e47e0	0.2129463455899545
149	0xbf90b91066a30826	-0.016330963386970286
150	0xbfdbd7101963b9da	-0.435001396936881
151	0x3fe0199002f2174a	0.5031204278500152
152	0x3facc4a239cb5850	0.05618769603249574
153	0xbfd95ad2bf044467	-0.39616840986224705
154	0xbfd995553998976c	-0.399739557500985
155	0x3fd8c8b404c15401	0.38724995102285226
156	0x3fd2678b7670230a	0.2875698715802605
157	0x3fde12ec4696fde9	0.4699049653390533
158	0x3fd0bf0142a0e959	0.2616580153150117
159	0x3fd9d77dcbdf9113	0.40377755078795124
160	0x3fd5612f4d81ac15	0.3340566880130507
161	0x3fd8091e3e99980e	0.37555652726439426
162	0x3fd0939e7f6d3213	0.2590099567794663
163	0xbfd7e4b05951cb39	-0.37333306048019527
164	0x3fd2b58734877b60	0.292329598711083
165	0x3fd00c69fd0da804	0.2507576915000984
166	0x3fd439b8e5de9587	0.3160230870074305
167	0x3fc0781838eb2850	0.12866499690273026
168	0x3fcfe532b4eda989	0.24918207010643936
169	0xbfdc1788d372d028	-0.4389364304472587
170	0xbfd2dbc6be1f4994	-0.29466408316252424
171	0x3fc1215a3cd61841	0.13383033724329788
172	0x3fcdbbf56156d515	0.23229853871240694
173	0x3fc233311e782d75	0.14218725192800333
174	0x3fd7b4ae13f4eb64	0.3704028315439045
175	0xbfcd4dd5ea732029	-0.22893785426845284
176	0xbfc4ae02a8f47684	-0.1615603756881009
177	0xbfbd270d26ebb855	-0.11387712669577017
178	0xbfb31247908952e0	-0.07449767378541194
179	0x3fbe35f76507f9a6	0.11801096169072042
180	0xbfb7029203397bb2	-0.08988297060703479
181	0xbfd29d80452122ff	-0.2908631014911833
182	0x3fa0e3cdf9ad93da	0.03298801110103229
183	0xbfca6842d814610f	-0.20630679655801784
184	0xbfb4ae6d1e8dadc0	-0.08078653331693086
185	0x3fd1557b9db8f84a	0.2708424606570402
186	0xbfd4c6afc60832de	-0.32462686862053924
187	0xbfcfe66ee6266d71	-0.2492197631625959
188	0xbfbb795679447ea7	-0.10732021771081666
189	0xbfc5d4779cdfabdd	-0.17054648551797316
190	0xbfce4376d6a74dc5	-0.2364338443863813
191	0x3fc36e5e4b214395	0.15180567425207117
192	0x3fbc84f3deb3316a	0.11140369593630842
193	0xbfbcf9a727e79c1c	-0.11318440174328298
194	0x3fb248bba6c8e230	0.07142231771366236
195	0x3fc02906aed61c2a	0.12625201737339015
196	0xbfd8dd2d90913fd6	-0.3884996330061744
197	0xbfc53bd9ca967156	-0.16588899986244127
198	0x3fc13b062c99e124	0.13461377313411405
199	0x3fcaf8ed42454876	0.21072164283629363
