autoencoders/weights-discriminative-mnist/fcn-1-W_fcn-1.weights.npy (npy, 320080 bytes, 1 tensors)

array f8 [25, 1600]
0	0x3fa2659d23559926	0.03593150192573295
1	0x3fa59d270322cd6c	0.04221460259705165
2	0x3f96556efe2665d6	0.02181027818878597
3	0x3fa02e007cb49b74	0.03160096666606807
4	0x3fa0a4482cc1533e	0.03250337168052518
5	0x3f94ef3868ff9f59	0.020443803223229782
6	0x3f62bf97de1a68b4	0.00228862439764751
7	0x3f59f1652045416b	0.001583431964793015
8	0x3f4002e100a79b3f	0.0004886244435596611
9	0x3f6851dbd5635739	0.0029687207817045394
10	0x3f7627272b34006c	0.00540843296334979
11	0xbf355051ac9a7e4e	-0.00032522195815862665
12	0xbf69d252684b9fed	-0.0031520471114738686
13	0xbf78086409186f4b	-0.005867377055917287
14	0xbf7ddde18d91212d	-0.007291680399312645
15	0xbf81d9c70ba39256	-0.008716158907597176
16	0xbf8024fbcd32e1dd	-0.007883040618580967
17	0xbf42683a3e54ff07	-0.0005617412940992224
18	0x3f832ba57e6d486a	0.009360592766516091
19	0x3f9b29343ba3f0bb	0.02652436841980042
20	0x3f990b9b78ad2951	0.024458340874198573
21	0x3fa6e3ac436747ad	0.044705756404837295
22	0x3f905813e3dd0e14	0.015960989744838797
23	0x3f8617630bc6c64b	0.010786794468773972
24	0x3f6e5bb57d7d3397	0.0037058396082216383
25	0xbf76ba61cc890747	-0.005548841502390384
26	0xbf80e75f4c29cb1b	-0.008253807555978867
27	0xbf6f83dbf4d3cc58	-0.0038470550558656162
28	0x3f5478a21fea54af	0.0012494643448566591
29	0x3f6e380bbd298189	0.003688834121291677
30	0x3f4aba7438983068	0.0008156840787605481
31	0xbf354393b6e5e284	-0.000324462473961819
32	0x3f60cca0cb36c64e	0.0020506992820734987
33	0x3f77cff06276f0e7	0.0058135404610164315
34	0x3f4cf8d9fec580dd	0.0008841576032345939
35	0xbf5c8887aead463f	-0.0017415356657760753
36	0xbf729efccd98a8d5	-0.00454615355696771
37	0xbf6216cdc98cf2ff	-0.002208139351209559
38	0x3f99fae42283f87b	0.025371136290225565
39	0x3fa2765616f6457f	0.03605908422754122
40	0x3f9fbd68bfa4bcb6	0.03099597615908741
41	0x3f98779382fec063	0.023893647070224577
42	0x3f861550df980849	0.010782844375175087
43	0x3f7247952454377d	0.004462797723375431
44	0xbf7d1bf60b298e7b	-0.007106743915389675
45	0xbf8f51be169b1110	-0.015292630257484535
46	0xbf8a75edc5303a6b	-0.012920243816578044
47	0xbf77531836f41c74	-0.005694479549908416
48	0xbf1c6b8a609efe64	-0.00010841400231153539
49	0x3f30f87031677250	0.0002589486988691424
50	0xbf55798b82f1823a	-0.0013107168595284505
51	0xbf4f13dbe9758d57	-0.0009484123028581742
52	0x3f76ead1d67c67ce	0.005595035246892933
53	0x3f6dbedf99b92d2c	0.0036310546109114186
54	0x3f76baf7eca6b849	0.0055494007632842035
55	0x3f877c2e4fd4762e	0.011467325030532906
56	0x3f8a9890f81285dd	0.01298630959564922
57	0x3f93ba225c3c0b8b	0.019264733199644318
58	0x3fa0db72a22e62b9	0.03292425374747183
59	0x3fa9869ec646bed6	0.049855195716529785
60	0x3fa407288478d748	0.03911711327638884
61	0x3f8a8845b0c77a96	0.012955231149075968
62	0x3f7da3d9200c9eb0	0.007236335892947629
63	0xbf651202dcf7e05e	-0.002572064964393702
64	0xbf915c5af83c3feb	-0.016953870202144044
65	0xbf98d69e21500fd1	-0.02425620153736913
66	0xbf964cd64884c1e1	-0.021777485061820093
67	0xbf9371c734ffe483	-0.018988716707074815
68	0xbf91cd75380afc67	-0.01738532213743973
69	0xbf90dde2e8c79289	-0.016471429307687777
70	0xbf7b9719b5ab8d5b	-0.0067358974726830735
71	0xbf710c23d6288ee9	-0.004161968218372649
72	0x3f5e05bfc76419f7	0.0018324253883875688
73	0xbf6216ff50e69d75	-0.002208231605624606
74	0xbf5097961b31d84d	-0.001012703502764295
75	0x3f4cae5328d5180b	0.000875273328042382
76	0x3f64e88527c3fc42	0.0025522804918405593
77	0x3f749d0a12221997	0.005032576884451598
78	0x3f8d753d65f300bb	0.014383773492568577
79	0x3facf37de82bcfbf	0.05654519518967004
80	0x3f9817bde47b6a0b	0.023528067655982848
81	0x3f8a31c7a213c5a4	0.012790259965614954
82	0x3f81e13b1c7fa971	0.00873037510605876
83	0x3f4676ea2256b050	0.0006855624421198223
84	0xbf8b25fa10df6779	-0.013256028785622697
85	0xbf9e172a883e9d79	-0.029385246816358433
86	0xbf9d55be7131ad97	-0.028647399576966128
87	0xbfa31f797e7260dc	-0.037349507031821466
88	0xbfa61a3086c7df05	-0.04316856045983112
89	0xbf92ea54d1eba9f0	-0.018472028076681413
90	0xbf80b2b2dff1885e	-0.008153340777600156
91	0xbf60e3e77cb0fc1b	-0.002061798213190536
92	0x3f22a7905574d806	0.00014232289206866938
93	0x3f6753575c90326a	0.002847357395245266
94	0x3f565fa538d4975a	0.001365577077487376
95	0x3f640a8a0d7fcaa0	0.002446431764832127
96	0x3f66b1d5ffec7d3c	0.002770345657509358
97	0x3f72ba1e5441ad63	0.004572027657654717
98	0x3f87c3bb1af7e41e	0.011603795776851607
99	0x3f9f7d203dc577a0	0.030750755090927506
100	0x3f8c11f4adb40d99	0.0137061229238558
101	0x3f83b3f68a50600a	0.00962059602356648
102	0x3f7e3ac46e08ad53	0.007380263618453969
103	0x3f70a377ae1e8363	0.004062144756887462
104	0xbf9a0d1c19588974	-0.025440634772289042
105	0xbfa3bcc0eb22af4d	-0.038549450591146874
106	0xbfb04e8279c03931	-0.06369796249802985
107	0xbfac34b69a675f50	-0.05508967051326741
108	0xbf9f1a6b34343faa	-0.030374217091832335
109	0xbf7a4f86d08170fd	-0.006423498744052345
110	0xbf7aaa161ae488a4	-0.006509863231516064
111	0xbf82b4462ab25465	-0.00913290803718265
112	0xbf80c3ff9a96a73d	-0.008186337380567838
113	0xbf60e391cf879bf3	-0.0020616386284362186
114	0x3f3c361fb765bfeb	0.00043047212911684227
115	0x3f369aaa373da249	0.0003449121061210076
116	0xbf9114cff3d29ddf	-0.016680955178029918
117	0xbf94f4a20a865e25	-0.020464450733554202
118	0x3f5fcdb207c61543	0.001941131456164883
119	0x3f85d69ee1adaf18	0.010663262617263622
120	0x3f8c90e4f25cff8b	0.013948238989200742
121	0x3f85445ff623238c	0.010384320925725075
122	0x3f8b7bac49c68bf6	0.01341948127885038
123	0x3f86600b5367eff2	0.010925377352570795
124	0xbf8e39288f1113c5	-0.0147574585590834
125	0xbfb0b6c6fb4acbe4	-0.06528895983755906
126	0xbfaf97138c870b26	-0.06169949617789987
127	0xbf952609dbedd225	-0.02065291790809644
128	0xbf61a01a36d17c6f	-0.0021515380854420433
129	0x3f4b27f175abd52f	0.000828736210080427
130	0xbf8b8a71239acd13	-0.013447650813168488
131	0xbf9586d5fb187f39	-0.021022170496620893
132	0xbf984c57406f507a	-0.02372871714381162
133	0xbf93d3600f48c4d9	-0.01936102002418214
134	0xbf736fad99f2d19c	-0.004745176439588408
135	0xbf922945a0e9b17d	-0.017735565134374454
136	0xbf94cea16473bc96	-0.02031948257075252
137	0xbf99cde82a2bb8ab	-0.025199534963512942
138	0xbf56bc9a3d7e2945	-0.0013877397777571504
139	0x3f76a2d593c5af04	0.005526384626459938
140	0x3f9a5462ff1c41aa	0.025712534733487814
141	0x3f9c26340fd5542a	0.02748948427809609
142	0x3f8ed3bf07b628e8	0.015052311346853434
143	0x3f8d68c3bdccde77	0.014359978894943766
144	0xbf9c65a999c17b65	-0.02773156166983472
145	0xbfa794996c6a09c1	-0.04605559776702562
146	0xbfa4b6356409d3cb	-0.04045264097377518
147	0x3f650d48e619d801	0.0025698112302121605
148	0x3f9455f77e8eb3c1	0.019859187221004996
149	0x3f7eea740b3e9a63	0.007547810837343324
150	0xbf80e27db2791940	-0.008244497307839382
151	0xbf90b4fba4dabaea	-0.01631539529506202
152	0xbf8ce5caf601adfe	-0.014110170013927888
153	0xbf8084e98fe6dc98	-0.008066010192904025
154	0xbf75e7c2096cbbee	-0.0053479747355558
155	0xbf90c5f875889b0d	-0.01638019769066106
156	0xbf8e175cdfba7f28	-0.014692998483326017
157	0xbf8cd7526bf9ce61	-0.014082569046173167
158	0xbf67ad6340ebbae7	-0.002890294890100054
159	0x3f6d6f6f2e9c551c	0.0035931750798093975
160	0x3f9b00244263f558	0.0263677278062365
161	0x3f97482e73a84dfa	0.022736287888688957
162	0x3f87c81f1a31aab0	0.011612170206907052
163	0x3f83e537b2826381	0.009714541564152192
164	0xbf9c1e6fad1ad930	-0.027459855022891222
165	0xbfaa41dd25e935a7	-0.05128375137119728
166	0xbfa7a610711d0aa0	-0.04618884449748362
167	0x3f87ec43af9c9bc8	0.011681107327218401
168	0x3f95eef5a59195a6	0.02141937087107739
169	0x3f9c3969f2945962	0.027562766486050612
170	0xbf528b58e2c0a8f3	-0.0011318557763027564
171	0xbf753ddc54804ac2	-0.005185948051819879
172	0xbf5eefd8b54cd4fd	-0.0018882385531474026
173	0xbf69dedc2ab6e0bd	-0.0031580257543418464
174	0xbf6e948f32c527e5	-0.003732948002071789
175	0xbf8d3bcf41215281	-0.014274233985056785
176	0xbfa082b6dfbe74e2	-0.03224727135896345
177	0xbfa405c69c0bc778	-0.03910656599863577
178	0xbf906516ce905e3f	-0.016010624272978054
179	0x3f70fd793ed719a4	0.004147981276622668
180	0x3f9b3a37d194931c	0.026589271704455006
181	0x3f96306581471618	0.02166899301098199
182	0x3f879bde2e83c3cc	0.011527763170734583
183	0x3f7eb7c077c8e246	0.007499458148736487
184	0xbf73cf8a337eb431	-0.0048365972979072394
185	0xbf947796dec131e2	-0.0199874471148166
186	0xbf81c4c35a2138fa	-0.00867607706836936
187	0x3f48f48280dad540	0.0007615697120032863
188	0x3f98cca369d160fb	0.024218133290873727
189	0x3f3a147b9ea241a3	0.0003979493909662906
190	0xbf5715705dcc43b3	-0.0014089200332742912
191	0xbf83f3424a57b728	-0.00974132336974838
192	0xbf7204e71ec43331	-0.004399206937034703
193	0xbf734bd3102fe806	-0.004710983720537248
194	0xbf7ebf2d09848064	-0.007506538320996101
195	0xbf948eacfa51576b	-0.02007551458185423
196	0xbfa7b790ffb2a8d5	-0.04632237550079458
197	0xbf974170d5feda01	-0.02271057420849765
198	0xbf57d3ce12cd473e	-0.001454306834791599
199	0x3f6188ff8dddcaac	0.0021405211727424014
200	0x3f9be3e9e4bbe93b	0.027236609063927757
201	0x3f8b048bff419132	0.013192266204165113
202	0x3f7d828472690d57	0.0072045491893420665
203	0x3f7476a1bfe59149	0.004995948633539201
204	0xbf913fc7359553b2	-0.016844856877770993
205	0xbf9f5f2e0891bfc1	-0.030636519692450074
206	0xbf958cf5fbd5b402	-0.021045535560393354
207	0xbf8ccf8c2cae5b48	-0.014067740548666344
208	0xbf782fbeb91c9df2	-0.005904908191758805
209	0xbf72376ac07214c9	-0.0044473810186264695
210	0xbf764ad0a094da42	-0.005442442846563868
211	0xbf6d260696d366df	-0.003558171147784658
212	0xbf787ea03fc9459b	-0.0059801349385265835
213	0xbf7e50fab188c40b	-0.007401446601350346
214	0xbf803a92f5d9f6cb	-0.00792422116068838
215	0xbf874e6953bd1cfd	-0.011380026691439666
216	0xbf979cfd699ddc4c	-0.02305980641491727
217	0xbf9279352e82a76c	-0.01804049583794358
218	0x3f6c90d389fc5ffd	0.0034870273228868585
219	0x3f71b0c3b2ab8ff8	0.004318966336288803
220	0x3f97e6f80b25447c	0.023342014007827747
221	0x3f77de2068031c8e	0.005827070796107793
222	0x3f7ebbfef019db32	0.0075035055648331895
223	0x3f7d2bf83953c3a5	0.007122010826820101
224	0xbf7a2d8f52d5e9f4	-0.006391105516167606
225	0xbf9d73909a306118	-0.028761157427738743
226	0xbf9f16a0b28c5944	-0.030359755418510007
227	0xbf91c1c18532617c	-0.017340682749450206
228	0xbf82ee413c7bb6f6	-0.009243497522642734
229	0x3f62462632e2332e	0.0022307153768167587
230	0x3f62c0b1ffc44d4c	0.0022891499085148422
231	0x3f4b1d39388536a5	0.0008274583242752943
232	0x3f488e1857589ff4	0.0007493609288689016
233	0xbf72d7167f62a329	-0.004599655038114028
234	0xbf7b890ebeff6546	-0.006722505189793287
235	0xbf85733cc403a2b0	-0.01047370408237333
236	0xbf8176da55091596	-0.00852747509010036
237	0xbf60d157375dc017	-0.0020529464190346502
238	0x3f77358f3e22892a	0.005666312734464088
239	0x3f867848a036d42d	0.010971610440586666
240	0x3f97943ff6d0f1a1	0.02302646583506063
241	0x3f9642cc198f8573	0.02173918634423928
242	0x3f842f3eff25f912	0.009855739747532986
243	0x3f7c969aeab9a23f	0.006979565757867122
244	0xbf80b0fdbf17efc0	-0.008150083917818907
245	0xbf921ac3f4e76381	-0.01768022711062001
246	0xbf9a246ffbce29a7	-0.025529622787453878
247	0xbf967070c04a8c55	-0.021913301216624898
248	0xbf760c46b94f3000	-0.005382801308723373
249	0xbf31226593d674c5	-0.0002614496223374947
250	0x3f6c60eb41214ca7	0.0034641833126812407
251	0x3f7e894f5cc57bd8	0.007455167779283088
252	0x3f7890eb568f4cd8	0.00599758080439302
253	0x3f3a4efc36102029	0.00040143640040968487
254	0xbf74ad6e2ed188d8	-0.0050482086199698725
255	0xbf82c47fa71092f3	-0.009163853917990994
