dogs/pair-data/Hound/Border Collie/weights/conv-3-W_conv-3.weights.npy (npy, 32848 bytes, 1 tensors)

array f8 [16, 16, 4, 4]
000000 28 d0 7b a1 2f 84 b5 bf 8c 41 1d 5b a7 af ba 3f
       -0.08404824917289544 0.10424276327581178
000010 24 3c 09 38 fe 75 9d 3f 31 b1 b1 ba 0a 8b ae bf
       0.028770420236750152 -0.05965455559712252
000020 f4 e0 85 1b 23 84 b1 bf c1 05 75 b1 1e 3b 93 bf
       -0.0684225027270065 -0.018780212002871503
000030 a0 a8 df a8 55 83 a2 3f e8 07 6b 27 e6 f5 6e bf
       0.03615825354047897 -0.0037793631739484364
000040 e2 5d f9 67 ca 57 56 bf d7 7f 44 43 fb 17 ba 3f
       -0.0013637043592974398 0.10192842857622907
000050 18 3a 10 5a d6 96 ad 3f d0 2f 54 c6 f9 63 b4 bf
       0.057791422361436584 -0.07965050785077143
000060 4e 91 e2 9d 6c 7e 9b 3f 4e 92 93 ba 5c 6c 44 bf
       0.026849457870995956 -0.0006232693459905043
000070 16 a3 bd 5c 0e 0d 84 bf 69 04 6d f9 7f 89 a5 3f
       -0.009790527539466558 0.04206466598271492
000080 80 1f 7b 3d c8 bb b4 bf b8 1d 09 61 42 11 9e 3f
       -0.0809903287982916 0.029362713978370286
000090 26 4c c7 f3 39 bc 6d bf 8d d4 6c ae 3a 3e 9a bf
       -0.0036297923927377683 -0.025628010650696132
0000a0 8a 0f ba 2f 9a 13 af 3f 8f 5c 96 ef aa 0a 8c 3f
       0.06069642860987219 0.013692222057939211
0000b0 0c 1c 87 e7 a4 9e 74 bf 23 41 38 77 a0 b6 b8 bf
       -0.005034107358773642 -0.09653666411054877
0000c0 b8 5f 1f 0f 66 59 91 3f cf c0 11 68 8b 9e 78 3f
       0.01694259135533091 0.006010574871752008
0000d0 c8 66 a9 37 af a9 a6 bf 44 1f b7 66 ff 1f a8 bf
       -0.044263339562076676 -0.04711912278031474
0000e0 d4 45 0e 61 44 03 a3 3f 3b 00 81 13 a9 c0 92 bf
       0.03713430104029283 -0.018313066306518726
0000f0 26 31 8a 4d a2 f0 b7 bf aa 0e 1b 0d 4a 11 ba 3f
       -0.09351553338109805 0.1018263132091827
000100 08 17 a1 e5 91 7e 91 bf 10 46 a3 36 99 3b 54 3f
       -0.017084388390023825 0.0012349125122920225
000110 64 d8 de 57 88 31 99 bf 48 fd 31 41 39 06 25 3f
       -0.024603014338673637 0.0001604027644112971
000120 f3 f2 8d 53 b6 75 ad bf 92 92 a1 b3 6a 9c 8b bf
       -0.05753869790985346 -0.013481935126216347
000130 c2 1f 75 fe d8 f4 be bf e9 db 6c 9f fd 23 b1 3f
       -0.12092357838002868 0.06695542471139472
000140 80 fa ee 7a 7b e5 ae bf e0 08 57 95 11 bc a6 3f
       -0.060344561344654046 0.04440360019681733
000150 f3 5b ef f4 eb 56 ae bf 38 22 ac c2 ec 2a b3 bf
       -0.059256909989635086 -0.07487373116249152
000160 95 3a 23 8a d7 b2 40 3f 3f f2 ab ca 1c 84 bd 3f
       0.0005096008719876639 0.11529712627447795
000170 45 a7 95 e1 15 ef 73 bf e8 c8 d0 c0 70 f6 9a bf
       -0.0048666815504050985 -0.02633072068074052
000180 b0 88 11 f9 fe b7 58 bf 55 43 53 0c f1 7e 92 bf
       -0.0015087118120154334 -0.018062368752740216
000190 d4 85 9f d4 e8 b3 b4 3f 01 f9 b9 0f 6b 3e b8 bf
       0.08087020102495696 -0.09470242628046678
0001a0 d4 1f 4a 98 2e 06 a0 3f 69 f3 15 9d 3f 18 69 bf
       0.031297165002854094 -0.003063320393890502
0001b0 60 62 3b 68 15 de 9d 3f 0f 0c b9 a7 64 34 6e 3f
       0.029167494284452977 0.003687092392085762
0001c0 ad fd 7f 65 86 80 b0 bf 29 c4 46 0a 15 17 9d 3f
       -0.06446113565470198 0.028408364059661437
0001d0 60 15 0f 48 83 15 ae bf c0 13 ab 8b 15 e7 a7 bf
       -0.05875787977815139 -0.046684907245015506
0001e0 1b 50 53 dd 5e f9 b6 bf 1b c3 57 ce 0f e8 77 bf
       -0.08974259284451629 -0.0058365456984439635
0001f0 b4 35 5b 99 d7 ac 9a 3f 1f b3 e2 24 4c 4d 82 bf
       0.026049965605855 -0.008936495662362596
000200 80 cd aa a6 00 45 30 bf 28 79 0c 78 38 1f b8 3f
       -0.00024825349707243566 0.09422638827206653
000210 49 8e a8 a1 2a 73 84 bf 9f 03 8b bf b5 30 b0 bf
       -0.009985287722037788 -0.06324325491278991
000220 0e e4 f6 17 69 18 79 3f a6 5c ab 28 45 69 bd 3f
       0.006126795312803258 0.1148875450411305
000230 90 d5 b8 3a 12 af 9e 3f 1d 5f 27 ad 7d 43 ae 3f
       0.029964718660456635 0.05910866488164699
000240 f0 d9 25 c8 e0 7b 91 3f ab c1 09 2d e8 80 9b bf
       0.017074119773917873 -0.02685892844096009
000250 e0 c5 75 7f 09 45 8c 3f 04 b3 cb cd 9e 01 a7 3f
       0.013803552820465137 0.04493423711924119
000260 0f cb b4 4e f6 92 b2 bf f8 4d 64 8a fb 5b a3 bf
       -0.0725549642709604 -0.03781114639619071
000270 28 12 ff 2d 1e 03 93 3f 25 38 95 fc 5b 30 a9 3f
       0.018566581303973845 0.04919707735335547
000280 94 31 af c7 75 87 ab bf fb 6c 44 2f 80 9f 9a 3f
       -0.05376785337975601 0.025999071965185454
000290 1f c7 18 58 7f af 67 3f 25 37 19 c6 a6 32 72 bf
       0.002891300887107997 -0.004442836246722402
0002a0 d1 10 21 a4 e5 f5 a5 bf 10 e0 3d 7a 81 1f 9a bf
       -0.042891670499132346 -0.025510809980431814
0002b0 86 6b 42 4f 2b 12 86 bf 32 29 f4 a4 0b 79 a5 3f
       -0.01077684245710998 0.041939128766971825
0002c0 38 9a a4 cb 27 16 bc bf d1 e3 35 76 4b 8a 7c 3f
       -0.10971306535484693 0.006967825672625731
0002d0 92 cd 43 a7 20 73 a5 3f ff 33 4f 67 bd 9c b2 bf
       0.04189397851760214 -0.07270416042520365
0002e0 ec 28 c0 37 80 d7 b0 bf 7f 4e 86 3d ab b7 74 3f
       -0.06578828202342252 0.005057972819844657
0002f0 84 65 01 1f 98 11 a9 3f 50 07 8e 72 85 6f 83 bf
       0.04896235826954423 -0.009490053709445029
000300 2c 3f a6 87 d5 df a2 3f 7c c8 5f 87 00 dc a6 3f
       0.03686396866680605 0.04464723255650058
000310 ca 95 74 e2 91 50 a1 3f 14 f7 62 0c 67 ac b8 3f
       0.03381782426212572 0.09638065388113787
000320 8c d1 6f aa 9e c6 b1 3f 34 98 0e 5b 45 96 a0 3f
       0.0694369474511573 0.03239647614036337
000330 13 6d 51 9b be 3a a0 bf 68 5d ca f8 b5 2c a7 3f
       -0.031698185405469335 0.045262991542751874
000340 cd f1 50 f7 98 3f bb 3f 84 7a d1 0a 60 08 b2 3f
       0.10643917119973097 0.07044029487722453
000350 ff 16 ed 99 ef 7c b0 3f dc 08 c7 c3 00 57 98 3f
       0.06440637119257174 0.023769390057858483
000360 b3 7b ab 40 b2 77 93 bf 04 c2 d8 cf c7 ea 97 3f
       -0.019011292645582944 0.02335655408950467
000370 f2 65 6a 2b cd f6 ac 3f 5a 09 0f 4f dd f3 b2 bf
       0.05657044558502013 -0.07403357677597935
000380 41 97 8d 69 a9 83 71 3f 9c c8 e3 d8 c6 b7 aa bf
       0.004275953070509265 -0.05218335530834503
000390 59 92 66 37 08 dd 9e 3f e9 1e 12 40 7f cb b5 3f
       0.030140045529736124 0.08513636888721589
0003a0 be 68 0f 68 f9 99 a2 bf 20 33 a9 81 f6 11 a6 bf
       -0.036330980255756526 -0.04310579617285826
0003b0 05 e4 df 13 ae e6 b7 bf 2d 1a 4b a4 57 d1 a8 3f
       -0.09336364731997555 0.04847215538534431
0003c0 3b 53 01 71 00 a9 79 3f 76 aa 95 25 38 49 a1 3f
       0.006264688228914401 0.03376174410626202
0003d0 bd 64 a8 28 ad 0a a1 bf ba b5 5c e7 bf 14 b7 bf
       -0.033284579480274946 -0.09016036413659992
0003e0 0c 10 4c e2 5a a3 af 3f 1a f2 73 06 36 47 a1 bf
       0.06179317486206068 -0.03374642208834562
0003f0 1c bd fe be 1c bf b0 3f 5e 31 25 82 0c 36 b8 3f
       0.06541614211049701 0.09457472016692267
000400 5e 34 97 59 2b 4f 91 bf c1 e7 64 35 f4 94 a3 3f
       -0.016903569548777468 0.03824580337318607
000410 20 1c 36 8e ff fe b0 3f 4d 9c 60 01 86 be 9e bf
       0.06639096471745676 -0.030023664316243082
000420 d7 34 aa 09 d6 12 b8 bf ba 62 a6 d6 63 ba 77 bf
       -0.09403741584738455 -0.005792989725158898
000430 3a 7c 8f f8 fb 9d b5 3f 3e e3 a8 1c ec 3c a7 bf
       0.08444189852114983 -0.045386675356388725
000440 86 89 4a 0a 1c 24 a9 bf e8 15 c3 24 ef 8c b2 bf
       -0.04910361886620067 -0.07246298453818378
000450 e6 cd 0c 75 e8 df bd bf 56 d1 ef e3 f3 cd a1 bf
       -0.11669781549135613 -0.03477441937858099
000460 42 6b 77 9c 32 a1 a5 bf ae 7f 90 4d f7 f0 a8 3f
       -0.0422454658507463 0.048713424890819965
000470 a7 c4 10 ce d9 7e 92 3f 7a 68 a6 3d fd 5d 8a 3f
       0.018062022402038604 0.012874582713994654
000480 7e 27 7c 34 c9 e2 83 bf e1 19 2f 5a 29 5b 9d 3f
       -0.009709903635229496 0.028668066148179853
000490 f1 ae 16 d9 ae f5 80 3f 19 74 2e c7 a8 f9 71 bf
       0.008281103134172936 -0.004388484277027004
0004a0 50 f2 e6 76 ad 10 67 3f 18 db 61 20 36 09 ae bf
       0.0028155696847689607 -0.058664027645980166
0004b0 c6 8a c6 91 a7 10 4b 3f 27 35 c5 83 4b 2b a8 bf
       0.0008259599886069828 -0.04720531447910963
0004c0 b8 24 bd 77 8a 29 af 3f 07 ed 7d e0 70 d7 ad 3f
       0.060863806835706524 0.058284308818622725
0004d0 c5 68 cb 92 f5 a7 ae 3f ce 9a 8a c2 bf 4b a3 3f
       0.05987517754484054 0.03768729448102236
0004e0 6c 17 69 0f fc 84 bb 3f 6a 65 7d 14 89 1e 6b bf
       0.10749793411477321 -0.0033104588837146636
0004f0 27 e6 e3 48 f4 bc 93 3f 23 27 5e 1c 40 d7 a0 3f
       0.019275490712038625 0.032892230475296345
000500 26 6c 17 a4 c5 77 9b bf aa e0 a5 d9 8f 79 ad 3f
       -0.026824081554746602 0.05756806880793992
000510 e7 ec eb c0 b9 4a 7c bf be c5 ce c1 bb 14 97 bf
       -0.006907201385497808 -0.022540029243548913
000520 31 aa e3 94 92 e2 a0 3f 65 01 7e 45 2a 60 94 3f
       0.0329786116361287 0.019898090831249066
000530 7f 84 a7 cb f0 76 8e 3f 15 4c 03 61 2d b8 93 bf
       0.014875298705137261 -0.019257267996021527
000540 40 1d 5b 72 87 15 ae bf 7c 6b ce 6b 26 f1 8e bf
       -0.058758003911459245 -0.015108394780147576
000550 94 54 b2 cf 8a 15 b4 3f 0c 0f d2 42 e0 cf 9a 3f
       0.07845370836942528 0.026183609083559253
000560 49 93 0c 93 f2 39 ba 3f aa 17 43 fa 31 1c 75 3f
       0.10244670953813996 0.00515384218687657
000570 a9 82 cb cc 4a 0b b1 3f 31 43 86 4a 6f 26 4d 3f
       0.0665785551059438 0.0008895915425900289
000580 33 09 4d 8b 07 35 ae bf 7f 7a e0 5e c8 b3 84 3f
       -0.058998332743174585 0.010108533282673136
000590 ba 6f f7 9b 9f ce a6 bf 71 59 71 95 dd 12 8b 3f
       -0.04454516199959309 0.013219576953059616
0005a0 a0 c6 41 6f 1a 75 b8 bf 9c cb c9 35 dc 2e ac 3f
       -0.09553685394510092 0.05504501492114075
0005b0 2b c3 7d 55 a7 d4 aa bf 98 8c bd d4 ee 13 9d 3f
       -0.05240366858095621 0.02839635060753362
0005c0 ff db 5f 0f 58 56 96 bf 24 82 07 93 a9 af 98 bf
       -0.021813751161939617 -0.024107598875959493
0005d0 2d 11 d7 9e d4 64 a6 3f f3 82 8d ed 9d 91 af 3f
       0.04373802603689323 0.06165784382642938
0005e0 1e e6 97 3a d6 51 aa 3f 6a 2b 67 8a 2f b8 95 bf
       0.0514056154751865 -0.021210425207566365
0005f0 b0 0d a1 dc b7 7f a3 3f 27 25 aa ce df bf 79 bf
       0.03808378761507514 -0.0062865011665363185
000600 c0 4c 5a 80 9b 9c b3 bf 91 74 e9 5c 91 e8 96 3f
       -0.07660838969813977 0.02237155084218451
000610 ea f7 7d 1b 32 7c ba bf 45 d7 1e e9 a6 74 91 bf
       -0.10345757647698375 -0.01704655454496808
000620 a3 12 a4 8e 93 e7 ad bf af 9f b5 f4 3b 32 ae 3f
       -0.05840741268369711 0.058977006551514825
000630 d1 ec 5f e5 a8 99 b5 bf 54 1b 5c ab 52 b8 4d 3f
       -0.0843759117123455 0.0009069827708295488
000640 65 30 fd 2f 91 a4 ab bf 85 0c 7c b8 11 d3 b1 bf
       -0.05398992262652839 -0.06962691072480894
000650 58 50 f9 14 ec 49 be bf 52 cb 2d 87 e0 33 a5 bf
       -0.11831546318109198 -0.04141141557820184
000660 bc 1c fd d3 c1 79 91 bf a2 8d 90 40 3b 2a b2 3f
       -0.01706602913261855 0.07095690084729836
000670 5c f1 d9 11 4c 99 9e bf 14 ff 12 57 1f ea a3 bf
       -0.02988165720897605 -0.03889558732907808
000680 ce 0c 8f fa 75 96 95 3f fe 98 e9 b7 a6 c5 a4 3f
       0.021081775110144467 0.0405704593184044
000690 da ac 09 7c c4 0a 96 3f cc 00 70 4a 0c 13 95 3f
       0.021525449820200084 0.020580474894814668
0006a0 98 dd 1f a9 c2 fc b7 bf 3c 12 24 e9 7e 6a b6 3f
       -0.0937005675221968 0.08756249610821326
0006b0 39 32 a1 c4 3d 47 80 bf 5c e8 d6 ed ce 8b b2 bf
       -0.007948381961022754 -0.07244580561283115
0006c0 5f 70 ed 58 d1 31 a3 3f be c9 b9 76 58 2d af 3f
       0.03748945436993333 0.06089283417977097
0006d0 2e 3a c7 e3 ec a3 74 bf 48 21 c2 ca f4 0a a1 bf
       -0.0050391438966941714 -0.03328671431615021
0006e0 65 76 25 1a a9 37 b2 3f be 3c 16 31 4f 66 88 bf
       0.0711618126710732 -0.01191388958502981
0006f0 44 98 4d f8 7e e9 9c 3f bb 8e 78 6b 0d 25 ba bf
       0.02823446646234397 -0.1021278750782199
000700 81 ed 90 76 be 3f ad 3f ab 33 4a 0c 41 a3 98 3f
       0.0571269530996359 0.02406026494513795
000710 ba dd 11 f6 d4 47 b5 bf fc 3f 05 44 b3 77 b3 bf
       -0.08312731750071736 -0.07604523096711086
000720 32 49 03 f4 47 8b 91 3f 1e 72 a2 c2 20 ce c1 3f
       0.017132877605783033 0.1391030264247925
000730 74 4c 6c 22 c0 02 6a 3f 42 21 88 56 70 31 b2 bf
       0.00317513967764565 -0.07106687653152213
000740 ed 23 54 62 20 08 a2 bf 8c 04 29 06 7b 50 b6 3f
       -0.03521825027753054 0.08716553593059667
000750 b3 d4 09 7b 24 dc 8d bf e1 01 3d c7 26 98 97 bf
       -0.014580044751009024 -0.02304134932569635
000760 7d 0d f1 7c 61 1d b5 3f 0e a4 79 f6 21 64 b4 3f
       0.08247956562359167 0.07965290324649762
000770 e0 b5 a7 48 0b ee 9f 3f c2 3a 36 6a 88 ea a2 3f
       0.03118150359107641 0.03694559380084207
000780 9c 6c 37 80 ff d3 b1 3f e0 7e f3 72 1f 7a 52 3f
       0.06964108352933568 0.0011277491683400684
000790 fe 91 e9 70 cd 05 c2 bf e6 ef b6 37 aa 8d ac bf
       -0.14080207837390896 -0.05576831750974502
0007a0 38 e3 39 f4 e8 be 6b bf 82 40 ed 24 b7 76 a3 3f
       -0.003386931408212137 0.038015101678525745
0007b0 ae fc 34 c3 c4 8e a1 bf 5e c8 32 e6 ed 2a bf bf
       -0.034292363003708956 -0.12174879903867139
0007c0 8e 42 96 7b 71 4b 91 3f 63 da bf ca 1c 1e a7 3f
       0.016889355819844236 0.04515161490410404
0007d0 af c6 3f ed 05 65 a4 bf eb 9a f0 b0 f2 d1 a3 bf
       -0.03983324547870148 -0.03871115121756027
0007e0 15 9b f2 c9 12 1e 94 bf c4 02 04 c2 9d 1a ac 3f
       -0.019645970893772253 0.054890565808823705
0007f0 b7 fe 83 38 58 f3 a6 bf 7e d2 9d ab 48 f3 ac bf
       -0.04482532205474626 -0.05654360861709494
