dogs/pair-data/Hound/Border Collie/weights/fcn-1-B_fcn-1.weights.npy (npy, 880 bytes, 1 tensors)

array f8 [100]
0.03181151390543077 -0.01987283869951308 -0.011117029634629072 -0.03850737770720006 0.02908534758937353 -0.00969534593555595 -0.035762539548604304 -0.03384097955479636
0.01813328208142023 -0.01953349247632678 0.03044238427112225 0.005751791778590638 -0.028015867506558264 0.022052990871735578 -0.039453243336057424 -0.02623346077767793
0.009070592914231275 2.307109956957033e-05 -0.01724584402832587 -0.018539114031474513 0.028660049711879736 -0.03009727677782332 -0.007465498282804757 0.02705368150586612
0.02341905528069045 -0.04121069276074079 -0.023299620834386348 -0.03168363747647372 0.01278612440312545 0.014884807351431233 0.003919871439212259 -0.009701932203829589
-0.0008369920083330207 -0.02546006099277759 0.0035315366814724523 -0.03745490280643713 0.03341584211701361 -0.014718682156994367 0.04163780753694622 -0.02008999341812128
0.01956466049484332 0.021667019639507727 -0.005712683959202815 0.03014345643107603 -0.022197051401687505 -0.009352224182377489 0.027555182338281612 -0.0024549444039972898
-0.02549036527066689 0.002818399414108232 0.04977318374760391 0.028664471195254573 -0.02242894170282021 -0.035879450996301125 -0.002998133961895596 -0.04019939878269524
0.029427413623462146 -0.006350755504412375 0.02795777119491941 -0.0336891354982961 0.032546964074751765 0.021338344849239046 0.005849181842584014 0.02633150306474924
-0.03186795719406997 0.020230528533762587 0.019732155718293568 -0.028905431253539983 -0.00870925042404676 -0.033170347530917396 0.0034451387753539416 -0.0030924444502252
-0.008059143293424567 -0.00410160756918515 0.015861840276720492 -0.0429754053649099 0.03178558067535149 0.025351116254654426 -0.031530177102448764 0.010383938841922185
-0.00762360758817192 0.00771443192997613 0.014107987245678051 0.011988706411397541 -0.01909687449602276 0.017461262651178987 0.02576780579367275 0.018368124397183622
0.032638905703090436 -0.02253738274309639 0.02757507886763151 0.037383272553147176 -0.00390881655912648 -0.027778567076411312 0.012182277718686787 0.02078641527299019
0.022015194151052398 -0.029873575460231835 0.023799013262123272 0.005993819493926184
00000000: ac5b b847 9949 a03f 4520 2ca1 8b59 94bf
00000010: 20d7 ac75 86c4 86bf 2475 d02f 3db7 a3bf
00000020: ffb0 c1a2 8cc8 9d3f eaa2 bb4d 27db 83bf
00000030: 9ffa 90b3 774f a2bf 2fa8 e7d8 9a53 a1bf
00000040: 0f0e 09f6 8791 923f 6b2f 737d 9600 94bf
00000050: e74b 6dd3 492c 9f3f 7bb5 51d9 308f 773f
00000060: 3fc5 d60a 31b0 9cbf 53d8 4a2a 0f95 963f
00000070: 37f1 b22b 3733 a4bf 3673 67c0 f1dc 9abf
00000080: b728 605f 9a93 823f 688b e0e3 1931 f83e
00000090: 85d2 5f00 e5a8 91bf f015 d9e1 eafb 92bf
000000a0: 5e66 db60 0f59 9d3f f26f d60d d2d1 9ebf
000000b0: 955e 916f 2494 7ebf af64 37d5 f5b3 9b3f
000000c0: a497 2232 2afb 973f 0747 4e63 9119 a5bf
000000d0: 0db8 f815 dbdb 97bf 9e3e 8f75 d638 a0bf
000000e0: 4b6a 3b91 9c2f 8a3f a9d5 4006 ed7b 8e3f
000000f0: 94d0 2c7a 480e 703f 600a 304c 9bde 83bf
00000100: 6745 c2a6 326d 4bbf d0c7 45c5 3312 9abf
00000110: 2649 a651 2bee 6c3f 8dcb 41fd 492d a3bf
00000120: ba2a 1f9a e11b a13f 4d3c 0914 d424 8ebf
00000130: 6ef1 4bfb 8c51 a53f aeab d4a2 7892 94bf
00000140: a947 ee23 c208 943f 0e8f 0313 e12f 963f
00000150: 353f 6fec 2e66 77bf 334f 3d1e eddd 9e3f
00000160: e6fc 59e7 d2ba 96bf 4dbc 1048 4227 83bf
00000170: c9b6 e9fb 6c37 9c3f f5a2 b73d 641c 64bf
00000180: 4f6c cd74 251a 9abf 1eee f0a9 9c16 673f
00000190: 06d8 d3e8 de7b a93f 34ee 5c19 385a 9d3f
000001a0: ebd7 63cc 9cf7 96bf f74d 4199 ca5e a2bf
000001b0: ac7f 17ea 8a8f 68bf 085b 2efe 0395 a4bf
000001c0: 657b 794c 3822 9e3f b338 24f3 3f03 7abf
000001d0: 290f ce43 f6a0 9c3f 0f32 64ce b33f a1bf
000001e0: 9ffe 91e4 fea9 a03f 07ee 1c15 b8d9 953f
000001f0: a35b 8ecb 4ff5 773f 700b 1242 a5f6 9a3f
00000200: 0eb2 e033 ff50 a0bf 58b4 bbc9 4fb7 943f
00000210: e166 f58d aa34 943f 8a96 a4a7 6299 9dbf
00000220: a99e f3cd 27d6 81bf ae3a af2b b4fb a0bf
00000230: 51b7 d9cb fa38 6c3f 57c4 e878 5355 69bf
00000240: 2844 08e7 4f81 80bf 3f4a eee5 d8cc 70bf
00000250: 2fb8 f814 163e 903f 0836 2651 df00 a6bf
00000260: 7a52 f81a 3346 a03f f35f ec9c a4f5 993f
00000270: 40f5 fb2e b924 a0bf 6377 d6ad 2c44 853f
00000280: f2bd 4c94 ee39 7fbf 8e1f 8b0d 2b99 7f3f
00000290: b11b a9fe a5e4 8c3f 1f98 aaef 888d 883f
000002a0: 4f39 aa8d 218e 93bf 037d 2280 5de1 913f
000002b0: faaa b12c e062 9a3f c58e 4cf6 17cf 923f
000002c0: 5bdd 24f1 0bb6 a03f cab0 4627 0a14 97bf
000002d0: 5434 af37 a43c 9c3f 6a02 117a e623 a33f
000002e0: a4a5 99f4 b002 70bf 14e1 7d14 fc71 9cbf
000002f0: dbf0 23a3 05f3 883f c0bb 31b7 0849 953f
00000300: 2d50 93ab 268b 963f 1f13 77b6 2d97 9ebf
00000310: f732 8dbe c45e 983f facb 45ab f98c 783f
