dogs/pair-data/Poodle/Border Collie/weights/conv-1-W_conv-1.weights.npy (npy, 19280 bytes, 1 tensors)

array f8 [32, 3, 5, 5]
000000 ea 9c a8 9a a3 66 ac 3f c0 da ec ee 6f 6f ac 3f
       0.055470574025372546 0.05553769866530933
000010 79 f3 ab eb 66 3a b9 3f b4 b1 70 3d 11 ad a4 3f
       0.09854739431098193 0.04038289904596884
000020 b4 cb 11 ea 6a e0 b0 3f a6 04 8b 9e a3 43 8e 3f
       0.06592434134090192 0.014777448917245483
000030 f2 6e b2 2b ef 76 ba 3f ff 70 45 b0 df 62 ba 3f
       0.10337729279347821 0.10307119420525977
000040 d2 81 64 47 67 f3 b3 3f 27 4d d2 4a 7b d7 92 3f
       0.07793279164298575 0.018400122110120123
000050 0c f2 f5 c5 21 b3 ba 3f e5 4b b0 07 8a 63 a6 3f
       0.10429583628678801 0.043728173674160854
000060 a0 87 a1 1f a6 db bb 3f 11 04 19 58 48 e7 a3 3f
       0.10882032654038065 0.03887392115985489
000070 a5 4d a2 9d 17 8b b4 3f 7a 70 12 b2 da 8d 9a 3f
       0.08024737928854238 0.025931756132749652
000080 6e 9d 92 a8 20 3e 94 3f c2 80 10 2e b6 06 bc 3f
       0.01976824787985037 0.10947741150494308
000090 72 11 cd 1f e6 b7 a3 3f 0a 5c 79 a6 56 12 bc 3f
       0.03851241243549709 0.10965482296283838
0000a0 fa 25 be 31 83 c5 b0 3f 29 8e 84 9c 79 e6 a3 3f
       0.06551380123541853 0.038867760044265794
0000b0 53 ed fc ef ba b4 b9 3f 94 57 16 05 53 07 b0 3f
       0.10041397437173787 0.0626117598934271
0000c0 0e 26 8d f1 30 3f a5 3f 87 76 e9 f2 c2 d0 b0 3f
       0.041497735487222895 0.06568544798343555
0000d0 79 64 d1 7a 60 21 b0 3f bc c1 5d 00 07 49 a1 3f
       0.0630092906807408 0.03376027945967361
0000e0 ea ea 60 f3 d1 e3 5c bf 1e 5e 01 16 4b 3d b2 3f
       -0.0017633009242802818 0.07124776160468868
0000f0 42 b3 30 53 a8 a3 a1 3f a8 a6 46 f1 6d 25 a5 3f
       0.03445173278337289 0.041301189139017425
000100 40 c5 d6 e8 de 1d aa 3f a5 b9 26 15 ba b3 a0 3f
       0.0510091456629973 0.03262120731538979
000110 a1 71 92 dd 61 21 b0 3f 11 ac cd 89 97 bd a1 3f
       0.06300937327836788 0.03464959675951474
000120 be 9e 1a 65 01 28 ab 3f 39 22 ba 07 7f 9b b5 3f
       0.053039592353625306 0.08440393389367608
000130 e8 ef a3 db c0 56 a2 3f 65 4f af a4 34 69 ad 3f
       0.035818125545091395 0.05744328031838001
000140 e4 03 dd 15 1c 2f 83 3f d7 6a 24 8d 0f 20 73 3f
       0.00936719838830586 0.00466924738636961
000150 f2 3c 5a 7d 69 c2 b9 3f dc 6a 3b 53 06 47 b2 3f
       0.10062274275172792 0.0713962510302894
000160 90 f7 e9 36 73 d6 bb 3f b1 b8 c6 e6 47 ad ad 3f
       0.10874099817917071 0.05796265308468785
000170 76 aa 8e b8 78 03 a7 3f 5d cc 4f 81 38 0e a5 3f
       0.04494836094757641 0.04112412050735579
000180 51 fe 81 5a e0 0d b6 3f 03 2d a6 e7 f9 c3 a1 3f
       0.08614923677122845 0.034698304679375645
000190 41 77 49 7f e9 26 53 bf 98 0c f9 89 63 6d 92 bf
       -0.0011689453359830656 -0.017995410247988092
0001a0 15 07 fd 0d 77 72 82 3f 19 60 03 df 10 8c 98 3f
       0.00900738727034737 0.023971809016842458
0001b0 ee cc aa 5d cd 6c 98 3f 5f 5c ea cb 4b 17 83 3f
       0.023852547494880243 0.00932177749682078
0001c0 36 aa 9c d8 4e ca a3 3f 4d f7 48 77 58 ff 9d 3f
       0.0386528624934112 0.029294378548221634
0001d0 0a 53 e4 41 42 b9 aa 3f 6e 16 f9 a2 ee 96 a5 3f
       0.05219466261238466 0.04216714610496984
0001e0 5d 3c d1 97 d3 47 b2 3f 05 39 f0 df 0c 22 87 bf
       0.07140848595121115 -0.011295414527947143
0001f0 12 e4 eb 14 67 87 aa 3f 5a 85 95 cb da d6 a0 3f
       0.05181429033650188 0.032889211036272584
000200 e9 d9 8f 42 2f 4b 52 3f 7e 71 3d e1 8e 3b 74 3f
       0.001116558220244474 0.004939611553563926
000210 f8 3b 28 82 aa c7 a4 3f 22 e1 12 26 b0 d4 a8 3f
       0.040585831058812916 0.04849768128173283
000220 a8 f5 1d 5d ce e5 b1 3f b2 02 47 ba a5 2c ad 3f
       0.06991281293263418 0.05698125742811068
000230 31 29 12 e5 f9 8f ae 3f fa 1a 17 0f 32 86 a8 3f
       0.05969220086361061 0.04789883074004382
000240 33 a3 e4 8a 02 01 aa 3f 4c c0 2b 63 7f 98 b4 3f
       0.050788955168462734 0.08045192881741164
000250 db 0c d1 8e 6d a4 a9 3f f9 fc 96 37 0b 82 a8 bf
       0.05008261078230599 -0.04786715558611294
000260 c2 30 f9 1b 9c 93 b3 bf 2b ff 80 29 2e 37 a9 bf
       -0.07647109682983724 -0.04924911743773771
000270 a7 7e d1 fd d1 26 97 bf 19 5b 18 33 5b 09 90 bf
       -0.022609025112955063 -0.01566069125518785
000280 d0 7d 28 39 7a 74 b4 bf 4b 53 14 0a 91 c3 a2 bf
       -0.07990230460608605 -0.03664830444373609
000290 24 dc b1 70 31 a5 a7 bf 2a 1b a4 78 bb 07 92 bf
       -0.04618219853085062 -0.017607621420235343
0002a0 20 ac 35 7e c5 c9 91 3f 42 63 5d 74 00 c4 ae bf
       0.01737125952551477 -0.06008912487477015
0002b0 9d bc 66 d3 e5 bf a0 bf e6 1d b3 37 66 e7 ad bf
       -0.03271406369764771 -0.05840606145789788
0002c0 6f 1e eb a9 59 b0 a1 bf 87 6e f3 f5 d5 13 9e bf
       -0.03454857062530158 -0.02937254251160806
0002d0 b9 8e 61 1c 63 1a a0 bf ea f1 3e ab b8 ae aa bf
       -0.03145131799172191 -0.05211426821140093
0002e0 25 f0 68 0d da 4d c0 bf 07 35 98 12 d3 44 af bf
       -0.12737584738522503 -0.06107196428284039
0002f0 d6 02 c0 0e 14 d9 8a 3f 83 66 ed b8 01 0e b2 bf
       0.01310935659421501 -0.07052622570827265
000300 68 cb 0a 5e a5 51 b5 bf 38 af 5f 6a 0f 91 b3 bf
       -0.08327706857634853 -0.07643219325080686
000310 6f ee 6f 35 4f 13 b2 bf 4a ba 9d f8 2f cd 73 bf
       -0.07060713820094987 -0.004834353816348067
000320 25 f2 76 a0 15 d1 a8 bf ba 46 c1 52 a8 b6 a2 3f
       -0.048470187986343206 0.0365498162287969
000330 43 60 ae 2e ea 22 ac 3f c4 77 13 31 19 2b a5 3f
       0.05495387859190306 0.04134443973610716
000340 cb 1b a2 93 94 33 b5 3f 8c 21 0b b0 86 57 51 bf
       0.08281830410315576 -0.001058465510299286
000350 1c 87 30 97 ed b1 a6 3f ea af f2 60 70 3e ad 3f
       0.044326233583218605 0.05711699660727716
000360 51 f7 81 0e bb 92 a3 3f 0c db bf 82 a6 e5 b6 3f
       0.038228841324765235 0.08944168750882059
000370 a9 3c c5 7c af 08 ac 3f d9 c7 6e f5 9a cb a9 3f
       0.054753765087860735 0.05038151021962251
000380 51 48 53 76 f2 f5 8d 3f 05 fc 65 a9 f4 86 84 bf
       0.014629263149263634 -0.010023032588604161
000390 60 9d 23 a6 51 d0 b8 3f a3 12 0c ff 52 f1 aa 3f
       0.09692869478350508 0.05262240756386418
0003a0 41 1b 01 06 b3 ed 81 3f 91 f7 71 0a 82 02 90 3f
       0.008754156704652185 0.015634567153476168
0003b0 ac 32 42 88 ed 32 8b 3f 6b 35 29 64 00 b1 b9 3f
       0.013280730934888872 0.10035707898460593
0003c0 a4 89 55 89 a0 b4 86 bf 60 34 4c fd f8 85 67 3f
       -0.011086706343751036 0.002871500308521166
0003d0 72 1f 5f 94 0c 4b 8b bf cb 18 a6 c7 20 6f 8d 3f
       -0.013326738622609222 0.014372116177366575
0003e0 9b f4 26 65 37 a5 c0 3f 01 38 06 56 67 8b a9 bf
       0.13004200400419993 -0.04989169049359533
0003f0 29 7e 88 12 16 83 95 3f e4 66 c7 0c b2 31 81 3f
       0.02100786674611591 0.008395567908269404
000400 89 61 52 7e 38 20 9b 3f 48 8a 31 f1 f9 a5 a0 3f
       0.0264900996304234 0.0325162989545516
000410 0b e1 5f 8d 33 18 54 3f 88 95 10 9a 9b d4 92 bf
       0.0012264731826672783 -0.018389159468048116
000420 dc b6 ba df 48 9f 94 bf 68 5d 9c 36 84 b6 9d bf
       -0.02013887277160263 -0.029016557534388282
000430 bb cc da e6 3e 23 a2 bf 18 bb 73 1b 5f e4 97 bf
       -0.035425153427604404 -0.023332105684796905
000440 c8 6b ba 48 bf 0b 90 bf a4 ad fc cf 56 b2 6f bf
       -0.01566981202504872 -0.003869218402447765
000450 0c 72 c3 d6 c6 62 92 bf cb f5 9d 68 97 c4 78 bf
       -0.017954928262826228 -0.00604685920722887
000460 cc b0 63 fa 17 4c b3 bf 43 93 b4 f9 12 29 b8 bf
       -0.07537984717390883 -0.09437674137423095
000470 1b f0 a2 db 94 08 b2 bf a3 ef 0d 0d c1 12 74 3f
       -0.07044344293802889 0.004900697808689988
000480 80 e6 10 bd 9d ed a2 bf 14 93 2c 93 a0 42 b8 bf
       -0.03696911747870235 -0.09476665108793397
000490 28 1c 37 80 13 41 a8 bf 2f bd 39 18 0e da a9 bf
       -0.04737149181487893 -0.05049175306055031
0004a0 2c 78 5d 17 3f a6 59 bf d1 82 e3 3f 2f f4 a4 3f
       -0.001565515148704853 0.04092548041240252
0004b0 81 fb 95 ac 37 dc 89 3f 83 50 26 ec f0 6e b0 3f
       0.012627062754061448 0.06419282689449983
0004c0 86 24 ac 1e c4 f2 98 3f 2c 0a de 0f bc 27 b1 3f
       0.024363579151245783 0.06701255214105889
0004d0 8b 9e 7e 1a 23 f8 a6 bf e7 64 64 be 5f 11 a5 3f
       -0.04486188600941173 0.0411481780922232
0004e0 8f 59 1f 75 61 a5 bf 3f 3e 2e 87 91 ef ec bc 3f
       0.12361725911555353 0.11299035361224072
0004f0 8a ff 98 15 d8 25 96 3f 5e 62 37 d6 63 79 b6 3f
       0.021628738706794638 0.08778976421252468
000500 3f 5c b8 d1 dc 69 a1 3f 46 09 01 94 53 1d b6 3f
       0.03401079235134618 0.08638498652820656
000510 56 2a 09 a5 79 a2 b9 3f 64 e3 79 aa 4c e1 b8 3f
       0.10013542441553488 0.09718779718413156
000520 47 04 85 34 35 b6 b1 3f 00 fc ae 2d 42 86 b4 3f
       0.06918652088371956 0.0801736222774565
000530 57 98 72 bc ee c9 bf 3f eb 7c e1 82 2f 97 b8 3f
       0.12417499638340367 0.09605690903980572
000540 77 9c 6c 2c 3d 2f b7 3f 41 97 61 1d db 75 a2 3f
       0.09056455931259842 0.03605541928918266
000550 6c 52 76 e9 c0 5b ae 3f 10 69 00 98 72 6b b9 3f
       0.05929377412681877 0.09929577074982299
000560 09 16 a1 4e 7f df 99 3f 3c e1 de 1c c2 d1 29 bf
       0.025266637014530278 -0.00019698614636155267
000570 85 eb c6 78 96 79 89 bf 91 14 32 e0 be 6d ad 3f
       -0.012438941536734091 0.0574779175449659
000580 75 4c 81 f8 60 f9 97 3f 17 98 fc 79 65 76 a6 3f
       0.023412242095514253 0.0438720427903691
000590 41 e4 91 21 21 ab b3 3f f8 ba b3 d6 f9 2a ac bf
       0.07682997769906398 -0.055015380343197806
0005a0 8c c9 20 ef 8d 7c a2 3f 28 75 c0 d8 4e 2a a3 3f
       0.036106524887503516 0.03743215938468786
0005b0 cd 76 f5 89 7c b7 9d 3f 19 38 30 6f cb 17 a6 3f
       0.029020257873859024 0.0431502888896917
0005c0 90 5c 4d b8 94 05 aa 3f 20 82 d7 7a 53 4f 86 3f
       0.050823829171968815 0.010893490015349505
0005d0 65 09 6e 8a 7a ed a2 3f 16 21 e2 7f c9 bc a4 3f
       0.03696806850259086 0.04050283132625247
0005e0 aa 25 e3 6a 1f e1 90 3f fd 1e 82 0b 63 48 9f 3f
       0.016483775042421968 0.030549571587953562
0005f0 80 a1 63 7e cc 93 9e 3f 7b 39 06 0f e4 90 b4 3f
       0.02986068269174913 0.08033585898212962
000600 29 38 7c a4 a6 ad b9 3f a2 e5 be 33 c0 42 b0 3f
       0.10030595317604764 0.06351853621790451
000610 49 e4 23 e7 b4 14 91 3f 38 02 30 70 7f db 84 3f
       0.0166805521084579 0.010184283839408712
000620 9b f4 42 1a c8 0e 9d 3f e7 ac e2 85 27 9b af 3f
       0.02837670002258062 0.06173060902923471
000630 9e 64 f5 88 95 bf 5a bf e9 79 bf 86 e5 e2 68 bf
       -0.0016325912764243787 -0.0030378802239134817
000640 61 c2 7c 8d d7 95 6c 3f ba 74 7b 96 9f 73 af 3f
       0.0034894189847352462 0.06142901145879294
000650 52 e5 7b e2 c4 44 a8 3f 9a ba d9 a9 92 86 95 3f
       0.047399666449517 0.02102116738972857
000660 2e ca d8 78 ba 2d aa bf 27 8f fa 34 cb 5f a6 3f
       -0.05113013005429355 0.043699598519451315
000670 b5 3c f9 b2 db c1 b3 3f 5c 4b 6e bc a0 cc 94 3f
       0.07717679137680274 0.020311843396096804
000680 14 37 d4 91 85 75 73 bf d9 1b a4 2e f6 8d 89 3f
       -0.004750749355719969 0.012477801607486615
000690 24 02 ba 03 2f be 78 3f 31 96 96 d0 ca 4e b3 3f
       0.006040748262990312 0.0754210242508513
0006a0 e6 00 81 13 fb f8 b2 3f 13 2b 18 6e d6 57 a0 3f
       0.07411164499444886 0.03192014783788557
0006b0 b5 52 95 c0 d7 a5 a4 3f e2 a7 a4 77 e8 a0 a0 3f
       0.04032778001661567 0.03247763119209403
0006c0 1f c2 f7 92 f5 bf b7 3f d6 42 0e e6 0e 87 b2 3f
       0.09277281606751629 0.07237332455248277
0006d0 70 86 d2 ae e6 7f 94 3f 39 8d 3b 5c f9 94 9c 3f
       0.020019153995809835 0.02791204095309505
0006e0 ba d9 86 92 f9 81 61 3f 58 51 51 81 87 32 98 3f
       0.002137172170672855 0.023630254047320193
0006f0 35 8e f7 e9 9c db a4 3f f8 45 d2 f5 5e fd 90 bf
       0.04073801380198142 -0.016591533426042887
000700 5b 20 d8 35 37 b1 a5 bf 1f 29 06 43 42 b4 88 bf
       -0.04236767322805753 -0.01206256644288267
000710 ea d1 af 0c e7 76 90 bf 87 35 02 f6 9d c6 b2 bf
       -0.016078577184048294 -0.07334315544195223
000720 c8 0d bb db 15 ad ab bf d4 71 c8 18 0e 6c a7 bf
       -0.05405491168269411 -0.04574626972700782
000730 45 cd f8 81 86 56 ba bf b3 5c fc 3c 85 6a a3 bf
       -0.10288277314321188 -0.03792206162887037
000740 ff 8e 45 5a 55 5d b3 bf 6a 37 59 11 77 d9 a9 bf
       -0.0756429047956395 -0.050487252109276806
000750 18 09 c5 32 7b 3e b6 bf 33 12 d9 9a c1 df b5 bf
       -0.08689088811391732 -0.08544549971072328
000760 e6 4a e4 b1 21 d7 a8 bf 29 b6 de c3 f6 67 35 bf
       -0.04851632401018495 -0.00032663130320540135
000770 c3 a5 00 40 fa ea 77 3f 25 b5 1c 7d 43 e6 89 3f
       0.005839326418973059 0.012646224265689352
000780 21 bb 1a e1 12 a5 a3 bf bf 48 07 6a de 84 ad bf
       -0.03836878774506248 -0.057654333537031636
000790 02 37 de 47 a8 ec 9f 3f 66 f9 93 62 26 70 ad 3f
       0.031176213633037804 0.05749626115174315
0007a0 c9 d5 8a 7a 43 05 97 3f 46 fe 2c 60 90 50 b4 bf
       0.02248101649703019 -0.07935430858651057
0007b0 70 c9 27 cf 3e 75 b2 bf 05 f9 fc 90 65 f6 9b 3f
       -0.07210152204041775 0.02730711648404684
0007c0 db 5c 30 77 05 08 81 bf bf 0b 3b f1 14 79 98 bf
       -0.008316080760819513 -0.02389939043383626
0007d0 13 1a 13 a0 c1 ec 6a bf b0 35 5e d6 03 01 9a bf
       -0.0032867223495458646 -0.02539449687860945
0007e0 b0 dd 07 46 24 12 49 3f 65 28 d8 bc 68 1d 70 3f
       0.0007651021115284064 0.003934296733414032
0007f0 86 bc d6 04 7f cb 48 bf b0 c0 e2 bb 07 6b 95 bf
       -0.0007566805085640483 -0.020916100351940414
