dogs/pair-data/Poodle/Border Collie/weights/fcn-1-W_fcn-1.weights.npy (npy, 320080 bytes, 1 tensors)

array f8 [100, 400]
0	0xbfa9af3d2db42c7b	-0.05016509230525742
1	0x3f7f355f333c75fd	0.007619258761932366
2	0x3fa5a43fc1dbabde	0.042268745817487505
3	0xbfa54b23c1b1cd3d	-0.04158889522013929
4	0xbfa946b5493fae1d	-0.04936758536481654
5	0xbf803c202dc8a548	-0.00792718066903099
6	0xbf9a6ce21847aa48	-0.025805981380395943
7	0x3f91f3e6a830d80d	0.01753197099261432
8	0xbf96fab76038cdd4	-0.02244078182975591
9	0x3f92c2a1d2a02bd3	0.018320587616510963
10	0x3f858ed76f724815	0.010526354874205205
11	0x3fb0ac8fce5d7f0e	0.06513308323109987
12	0x3f83345397e16491	0.009377148697398393
13	0x3fa2479376a88e4f	0.03570233176676806
14	0x3f551f5d58e1e05c	0.0012892161935536195
15	0x3f870042d2f3665d	0.011230966627795153
16	0xbf81ec63e2d259ff	-0.008751659736202731
17	0x3fae7d7208923601	0.059550822778970065
18	0x3f7f90e345486d44	0.00770653512565939
19	0xbfa7c4cac2c061d0	-0.04642327906930499
20	0xbfa46749a0d26c2f	-0.03985052192839366
21	0x3f4ef5a08fe77114	0.0009448083872558876
22	0xbf6d031d49901b94	-0.003541524125924631
23	0xbf974d4a32e796c6	-0.022755774838421748
24	0x3f78660235e4a4df	0.00595665801510245
25	0x3fb409b0c59cc346	0.07827286552925469
26	0x3f8827d8fd038a3a	0.011794753285760174
27	0xbf614be9bc63a8ec	-0.00211139346639754
28	0xbf9ff92d4d9a6c61	-0.031223972188496044
29	0x3f96c367b9bec2bb	0.022229786598191064
30	0xbf9231231dcf8be4	-0.017765568441870175
31	0xbf9f611c22b1d85f	-0.03064388238677684
32	0x3f2427f96bcdb771	0.0001537792176366476
33	0x3f92258bb07f8b60	0.017721350333782637
34	0xbfabc152af4409fe	-0.05420931233858893
35	0x3f975f6df3c512ab	0.0228249721560753
36	0xbfa6d4bccab79d47	-0.04459180807662704
37	0xbf9c58eab4655361	-0.02768294073151212
38	0x3f9e2fafab12086f	0.02947878343230353
39	0x3fa2b9c39c639ba5	0.036573517647233524
40	0x3f9a93d863c0ada9	0.025954609955233163
41	0x3f7055752eecc157	0.003987748858705529
42	0xbf817a7dba45ef1f	-0.008534414527040788
43	0x3fa374daf652fc78	0.038000910347812444
44	0x3f88d0f104f1bad5	0.012117274249445678
45	0x3f577e1aedbfb02f	0.0014338744140287676
46	0xbf984124c41eb89e	-0.023686003179755326
47	0x3f8fe4717581f70a	0.015572439573812175
48	0x3f9444576ec4bed7	0.019791952262663805
49	0x3f94077f52276145	0.019559850110313155
50	0x3f9ab7c3afe0febd	0.02609163056354079
51	0xbf8243d1bdc5c545	-0.008918417552851063
52	0x3fac19aa836d147a	0.05488331655809815
53	0xbf69020dc525e5b5	-0.003052737135644102
54	0x3fa365fa1a006a6a	0.03788739745524057
55	0xbf87437f5b4dd836	-0.011359209989432722
56	0xbface63b33bd1e25	-0.056444025102390584
57	0x3f815ff03c98b8c1	0.008483769273052723
58	0x3fae55bab9862a8a	0.05924781336496661
59	0xbf953f441bc5f17d	-0.0207491533233095
60	0x3fa140f6752abc79	0.03369875126133421
61	0x3f7d049dee604cf8	0.007084481161672367
62	0xbf77758454a08624	-0.00572730723982454
63	0xbfa00ec8b1865a00	-0.03136279265452302
64	0xbf917087fce6a4ad	-0.017030834971283926
65	0xbfa0d22e26328c1b	-0.03285354820516081
66	0xbfa26ab18cbbc988	-0.035970257214915924
67	0x3faf7e519f81301e	0.061510611267834955
68	0x3f9e0f532cfd39f7	0.029355334874077568
69	0x3f9ca922ae104e70	0.02798895060921186
70	0xbf90dde5a0ef8b50	-0.016471469829308305
71	0x3fadaa175278d353	0.057938317124728876
72	0x3fa32691217ea52e	0.03740361722823092
73	0xbfa0e6f26b228002	-0.033011985376333555
74	0x3f94079290422a9c	0.019560136847341356
75	0xbfae3457accaa07d	-0.05899309143325213
76	0x3f9bd9cb7b8c521e	0.027198008933810518
77	0x3fa34701f68c8d7a	0.03765112051612625
78	0x3fa996f24892bd8e	0.049979754790338324
79	0x3f7679175d95c4d8	0.005486575385803515
80	0x3f85b0e0324c71b2	0.010591270003310924
81	0xbf8f78f5779c43d6	-0.015367429459304843
82	0x3f94cefb6376f5f8	0.020320823617785394
83	0x3fa1e6aee9ebf929	0.03496309857836117
84	0x3fa552dc29e47509	0.04164779673940628
85	0xbf9626d46a685b4a	-0.021632498736006846
86	0x3f6b3af7f3f70cd3	0.0033240168411069275
87	0xbf960d8301f77433	-0.021535918231041683
88	0x3f8f7b64a1bdacdc	0.01537207239717591
89	0x3fa10f9f953b6159	0.033322321860114364
90	0xbf502c0e8a19ccbe	-0.0009870664584042256
91	0x3f51e73a962d5ad7	0.0010927269110731408
92	0x3f94404689141fb9	0.019776441685308763
93	0xbfa7dc42f8b235e6	-0.04660233770219317
94	0xbf56617ffef3fbda	-0.001366019245153663
95	0xbfa3b4665d8894b8	-0.03848571674124329
96	0xbf8d62a0754a8ca7	-0.014348271922534584
97	0xbf758a864ba11e07	-0.005259060470116156
98	0xbf9a64d7d92508e3	-0.025775311115702314
99	0x3f8b12b5482c7902	0.01321927668101042
100	0xbf7131af05407897	-0.004197772668730468
101	0x3fa014908e70b1b1	0.031406896007271874
102	0xbf87599b0736b0a0	-0.011401377828257175
103	0xbf9001d3eb91d26c	-0.015631972554233917
104	0xbfa399bf8af768c2	-0.038282380784680395
105	0xbf8d82a2ce80cff7	-0.014409324576355671
106	0x3f9d6ce1cfb9e8ab	0.028735664657212705
107	0x3f8931640ea4e1d8	0.012301236817266067
108	0xbf90b7d4794f7faf	-0.016326255706985367
109	0xbf876752d21a27d3	-0.011427542721566574
110	0xbfa44bf873601a38	-0.03964210899726023
111	0xbf9d011dfbd1aafb	-0.028324573988736095
112	0x3f91826f740cd884	0.01709913392843322
113	0x3f8c3a8a9448991a	0.013783533716445851
114	0x3f99b71a1c3fafa9	0.02511254117409548
115	0x3f7b74fb18b3f510	0.006703358503043391
116	0x3f910273e5cb39e2	0.016610918903831158
117	0x3f9eba1c649bef5c	0.030006831780141283
118	0x3fa2e226ede3b39a	0.03688165334629119
119	0x3f945e621a51438b	0.01989129338864219
120	0x3f91cb53037b1836	0.017377183043912413
121	0x3fa5cfda6560792a	0.04260141837606775
122	0xbf810baf4b48fbae	-0.008323068127649904
123	0x3f9cec776e54ff92	0.02824579821503865
124	0x3fad0211375bee4d	0.05665639687319111
125	0x3faa92ec14dc2d82	0.05190217737807769
126	0x3f9ee570c84a62bb	0.03017212126232736
127	0x3f7ca1241b45415d	0.0069896135722305715
128	0xbf83ce86e698ef3b	-0.009671262657427007
129	0xbf7b758f22cc0598	-0.006703909992894629
130	0x3f81edad1cf12d35	0.008754112668745687
131	0x3f9292c9d5c7f97a	0.01813807837788193
132	0xbf3c8b6c07babcb3	-0.0004355562921131803
133	0x3f66ea495b0b98a7	0.0027972634055571546
134	0xbf83da95ac421812	-0.009694260901834926
135	0x3f7c76fe4675c3e5	0.00694941831839999
136	0x3f7457c5c5bca915	0.004966518925167547
137	0x3fa0184b3ab917df	0.03143534747918841
138	0xbf972a5a6a1ae188	-0.02262250206578778
139	0x3f6a078adc9ff7f2	0.00317742463539527
140	0xbf83afd67f6b546b	-0.009612727893378378
141	0xbf96fb1c07b605e0	-0.022442281695026156
142	0x3f88deeafb13e3ab	0.012143932139666655
143	0xbfa49cbbea6baf6a	-0.04025828587131637
144	0xbf7655dd98b84722	-0.00545298157841659
145	0x3f81b179bc2fe512	0.008639288955225175
146	0xbf895f988a5702ba	-0.012389365884588489
147	0xbfabaf1666056d4d	-0.054070186570892
148	0x3f9553bb4fe3cd61	0.020827223540391574
149	0xbf29ac2978df3334	-0.00019586569072629347
150	0x3f8cfac0e94a431f	0.014150149459312865
151	0x3f6b8240852b8518	0.0033580074462952296
152	0xbf843135ce48665a	-0.009859485967399429
153	0xbf927681a12f9d5c	-0.01803019090939749
154	0x3f91b4241312c62c	0.017288745559829774
155	0x3f88c8e5525dbad7	0.012101928306689142
156	0x3f8681f8fc1c5d5a	0.010990090555010813
157	0x3f9b799d087cb639	0.02683110584546553
158	0x3fa431cae69653ec	0.03944238724503876
159	0xbf85d005fac3dc39	-0.01065067931675233
160	0xbf7d66da753b75a0	-0.007178166724512464
161	0xbf7b7db8f0eba75c	-0.006711695123820718
162	0x3f800bdafd890878	0.00783511244037903
163	0x3f99c0618e5067ba	0.025147938071405675
164	0xbfa04b25828eb637	-0.031823322474661735
165	0x3fa820a04104967e	0.04712391656566427
166	0xbfa5bd0a21ae5cf8	-0.04245788251062693
167	0xbf7855a09c25c95c	-0.005941035635588978
168	0xbf840293980e691e	-0.0097705393580339
169	0x3f9856818417d38a	0.023767493903466476
170	0x3f7bd71bc9012c6a	0.0067969403608670684
171	0x3f65d4d4ed19f684	0.0026649626459505655
172	0xbf86291e063e50c6	-0.010820612493070658
173	0xbfa4ceff3a55c8b2	-0.04064176165674506
174	0xbf8cbbbe33828e7a	-0.014029966303787268
175	0x3f924fabe3c42aa9	0.01788204744029068
176	0xbf9479c5671c62de	-0.01999576989973916
177	0xbfa77124a846bc18	-0.04578508905557771
178	0xbf9edd10f24f2a49	-0.030140175618536245
179	0xbf96efc8aea177c8	-0.022399078043569692
180	0xbfa94ba8a321be42	-0.04940535537104697
181	0x3facad44bf4b8868	0.05600943408150344
182	0x3f93b56b206f4e23	0.019246744017278893
183	0xbf94e4c5909f4629	-0.02040394492343559
184	0xbf979b784031b2f3	-0.023054007452105684
185	0xbf8df319ecfaf86d	-0.014623835129324381
186	0x3fa5d0d185df379b	0.042608783332624266
187	0xbf80abe83b5b5ec4	-0.008140386878423007
188	0xbf9079a9dd7346ae	-0.016089109555486196
189	0xbf906ddf1f057472	-0.016044126766577134
190	0xbf67248a07e83c2f	-0.002825040427758128
191	0x3f854b0970a18710	0.010397027730678882
192	0xbf91cd8256fd7373	-0.017385517653895243
193	0x3f9fa0cbac205567	0.03088682401729184
194	0x3f842432592f4967	0.009834664675427885
195	0xbf96a2076df1f2c3	-0.022102466664807318
196	0xbf91f28b232c879e	-0.01752679254708022
197	0x3f99a91a3e94e944	0.025059137410815127
198	0xbf91508b4c64217c	-0.016908813989205282
199	0xbf91c43ba1280d4c	-0.0173501317131131
200	0x3f8f74b6e7f5f534	0.015359333948021893
201	0xbfaeaebf55b845bd	-0.0599269668711133
202	0xbf80b2b6619f32b1	-0.008153366903479538
203	0xbfa207f46c708049	-0.03521694015239569
204	0xbf76b8e897ae325d	-0.00554743629880913
205	0xbf7dc38f2badec1f	-0.0072665779688305945
206	0xbf68d5591282b907	-0.0030314197247981486
207	0x3f90e11f5db7fa48	0.016483774275906776
208	0x3fa17eb0440e5a5a	0.03416968184244658
209	0x3fab9423951014f9	0.053864585825104734
210	0xbfa50b65c53b929f	-0.04110258133531385
211	0x3f8f08805a1abc8b	0.015152933835763235
212	0xbf85880b930b9792	-0.01051339190003001
213	0xbf9dbb26ce4466a8	-0.029034239139127976
214	0xbf8f7108f336537e	-0.015352315828559556
215	0x3f933207aa56877d	0.018745536586386436
216	0x3f9b76a75a1d5855	0.026819815516624896
217	0xbf90b75bc6c308fe	-0.01632445717474073
218	0x3fa961c6c1dc0b74	0.04957409969758589
219	0x3f92f5f484df35d1	0.018516369447572793
220	0x3f90bc1853ca8cec	0.016342525591096654
221	0xbf8d16356854d50e	-0.014202515837136189
222	0xbf87b693970d6214	-0.011578705832719506
223	0xbf784f6b4a436df9	-0.005935114957732684
224	0xbf8bbd51760975f5	-0.013544689573957472
225	0x3f71bcfe99762b47	0.004330629853380347
226	0xbfa63c8b0ceb329a	-0.043430657698626265
227	0xbf9b6b5cead87107	-0.026776744684057465
228	0xbfa57045acfbe06b	-0.04187219368572034
229	0xbf998d713924e98b	-0.024953621971897582
230	0xbf984d25cd2333de	-0.02373179497299193
231	0x3fa48fc7f7f4ea55	0.040159462946083004
232	0xbf91aca4b49df376	-0.01726014473341616
233	0x3f86357be7b3664b	0.01084420014233269
234	0xbfa0a7827bfb0a3c	-0.0325279976218735
235	0xbf59ffd2a2b20c0e	-0.0015868718135443357
236	0x3f9591af893fd6aa	0.021063559295689295
237	0x3fa2b2d13fa896ca	0.036520518322772214
238	0x3f83063dfe378fbe	0.009289249725902834
239	0x3f5b3af20235936b	0.0016620028844382638
240	0x3f8915077d1a54e8	0.012247141366325612
241	0xbf7de44c2bb3f1c6	-0.007297799627164319
242	0xbfa3e99a26281d37	-0.038891617925452975
243	0x3f907bb0cdeb8a7d	0.016096842354168295
244	0xbfa297215db77020	-0.03630928296090041
245	0x3fa49bd3bc32a835	0.04025136635148422
246	0x3fac662d08f4e472	0.055467040389381675
247	0x3fa8452b1d68cf7a	0.04740271314622553
248	0xbf2d73f45ea35491	-0.00022470815685574468
249	0xbf859b03c4f6896b	-0.010549573372206486
250	0x3fa17e15370ec69b	0.0341650609692696
251	0xbf83e3e28a70ea76	-0.009711999750028993
252	0xbf73c32a0212dd5e	-0.0048247948590679195
253	0x3f9d5ba9d43ea597	0.02866998060168199
254	0xbf50cbbcd07b1bdb	-0.0010251373186507182
255	0x3f996fb3fc778e57	0.024840175899852514
